saved_modelV2/Hopper/0.06/adversarial_attack_rs_seed_90424.pth (torch, 48833 bytes, 11 tensors)

action.0.weight f4 [64, 11]
00000000: fb77 c1be b1d0 c53d 6afa da3d 437e 823d
00000010: df3a b3bd b0d7 803b f099 433e c875 9c3d
00000020: bc62 72bd daf8 c3bc d5e6 603c 7081 903e
00000030: 76e9 a2be cfa6 003d c4a0 a3bd de1c 5a3c
00000040: 1d9e 813e ccc3 49be 0eff 91bd 5b53 823d
00000050: f7ef af3c b0f4 c6bd c3de 603f 6148 3f3e
00000060: feb3 febc 9f98 bd3d 47e6 d83d ab29 01bf
00000070: d9c3 28bf d76d acbe 92cc b9be 2d9a 03bf
00000080: 6376 153f 728b 87bd 65c7 c0be 5903 47bd
00000090: e470 c63b 7117 cfbb 4771 663d 8645 a1bd
000000a0: 7b53 8e3b a2b2 e93a 6d41 d6bc 2e48 44bc
000000b0: c38d 143e 4ee0 1dbc 2a70 5f3d a5bf 233d
000000c0: 2a2b 01be 6399 993d 116e a53d 2ccb e1bd
000000d0: ecf7 333d 6580 9b3d dcb6 8bbd db35 d1be
000000e0: 88e8 463e 0b3f c53d ac7d e23d 8552 53be
000000f0: 0b56 e0bd d565 a23e 9c17 c03b d52e b2bd
00000100: f735 293e 20bb bcbd c9fb ebbd 6c42 b3bc
00000110: cd93 80bc cc25 ad3b d323 763c 2d11 423d
00000120: 7b70 7cbe a140 003c ccdf f2bd c746 1b3e
00000130: 598b 75bd 417c a6be 86f5 263d 9342 803d
00000140: 3c5d fa3c 9632 3abd cbed d5bd a569 a6bc
00000150: 6cf1 783e 3287 47be 2754 10be d2f5 16bd
00000160: eeeb b83e 587e 7abe 42e8 34be ce2f 333a
00000170: 5bc6 c53d c4e5 d6be ebe4 08bf afee 85be
00000180: 2d11 4ebe 8d8d d5be e191 bf3e 01ca f1be
00000190: d4bb 6f3e b76c f53d b89b 6b3d cf94 dcbd
000001a0: 04de 9e3d 995c a63e aac8 013e 5531 d43a
000001b0: d745 e23d 029c 80bd 2d5c afbd 2927 12bd
000001c0: 49d3 8dbb 5f97 8cbc f378 fdbc e24d 70bc
000001d0: b716 2f3d 3fff ae3c 6d2a 13bc cf49 a73b
000001e0: 4d7b 55ba d6ad 90be 2ae0 903d 2566 bebc
000001f0: 17aa c3ba b191 0d3d 605a b5bc afa0 16be
00000200: 2861 3fbe 772a 413d c172 473d 3607 1cbe
00000210: cbfa a7be af5c 913e 7eab 4b3e 4906 b33d
00000220: 0957 a6be 69cd e03d 70d0 463e f9f0 0f3c
00000230: f52e 08bb 7148 623d 6955 27bc 90b6 97be
00000240: 0be2 883e d12f 1c3c 8878 db3c 1f0e 02bd
00000250: 92f2 f53d 9769 243e f9a1 ac3d 80a0 8dbc
00000260: 9939 c4bc 3a92 9fbd 204d 4ebe 5993 313d
00000270: d21f c33c 3149 a23b 0389 08bd 58f0 483d
00000280: 4e5f 023f 28f1 c4bd 7c15 b03d 562f ca3d
00000290: ea73 ccbc 16db 40be c3c6 d8bc 8835 72bc
000002a0: 22f8 013d c6e1 64bd 1d18 15ba 1f7a c43d
000002b0: ca8c 423e 3234 0abe 3a49 d4bd a5b6 6cbc
000002c0: 36ba 173e 730c 123f b54e 0f3e 5f8a 9e3e
000002d0: 6eeb 95bc 2589 37be 60a5 f7bc 04de 0a3e
000002e0: 6f00 b3bd 68c5 8dbd 14da 94bb 211d 78be
000002f0: cd5d d53d 8685 e13d 1d7d d83a fe6a f8bc
00000300: 10af e23d 00ef 633e 1c73 c0bd 93f4 753d
00000310: c0a8 853d 46da 063d e822 92be 602c 07bc
00000320: bc36 a5bc a5ce cd3a 20a4 163c 37a1 60bd
00000330: ed86 21bf 0cf7 3c3e ae12 38bd af33 cc3c
00000340: be04 10bc 1607 a23c 60fd 92bd 3809 293d
00000350: 1d36 03bc 5ba8 d0bd f0bb 85bd c619 62be
00000360: 945b 42be ff1b 3dbe a77f f3bc 974a c8bd
00000370: da97 133f 7abb 303d df94 643b 16cf 7e3c
00000380: 81b0 a5bd 9f33 91be f9bc 3ebe b872 e9bd
00000390: fdef 70be 3772 a5bd e733 d73d 4820 37bd
000003a0: 6ab1 1c3d 8b0d 9d3d 934e 3a3c 9f75 39bc
000003b0: d098 893d 8535 163e 3abf 82bd f20f a43d
000003c0: ac01 6d3d f0d1 f8bc baee 12be 6166 613b
000003d0: 29ad 29bb cef5 bcba 00c0 56bc ff47 cf3c
000003e0: cd6c 1e3e ba54 663c 776d 3ebc deb3 c7bc
000003f0: e00a e0bb 56aa 973b d912 9fbd 0d56 c9bc
-0.3778685 0.09658945 0.10692294 0.06371739 -0.08751463 0.003931962 0.19101691 0.076396525
-0.05917619 -0.023922373 0.01372691 0.28223753 -0.31818742 0.03140908 -0.07989648 0.013312547
0.25315943 -0.19703597 -0.07128726 0.06363555 0.021476729 -0.09714639 0.8783991 0.18679954
-0.031091686 0.09257626 0.10590797 -0.50454205 -0.6592384 -0.3367755 -0.36288887 -0.5140713
0.5838377 -0.06618394 -0.37652126 -0.048587177 0.006055938 -0.006319933 0.056260373 -0.07874589
0.0043434477 0.0017829726 -0.026154244 -0.0119801 0.14507203 -0.009635998 0.054550327 0.03997769
-0.12614122 0.07499959 0.08077634 -0.1102508 0.04393761 0.07592849 -0.06821987 -0.408614
0.19424641 0.09631165 0.11059126 -0.20636947 -0.109539114 0.31718317 0.0058621895 -0.08700339
0.16524492 -0.09215379 -0.115226336 -0.021882258 -0.015695477 0.0052840468 0.01502319 0.04737966
-0.24652283 0.007827909 -0.11859092 0.15163718 -0.059947345 -0.32516673 0.040761493 0.06262698
0.030562036 -0.0454584 -0.10445746 -0.020314047 0.24310845 -0.19485167 -0.14094602 -0.036855526
0.361175 -0.24462259 -0.17666724 0.00068354316 0.09656974 -0.41972172 -0.534743 -0.26158664
-0.2012374 -0.41709557 0.37415984 -0.4722443 0.23411494 0.11983626 0.05752155 -0.107705705
0.0775719 0.3249252 0.12674204 0.0016189018 0.11048477 -0.06279756 -0.08562503 -0.035681877
-0.0043281657 -0.017162023 -0.030941462 -0.014667006 0.042746272 0.021361945 -0.008982283 0.005105234
-0.00081436784 -0.28257626 0.07074006 -0.023242066 -0.001492801 0.03456277 -0.02213782 -0.14709733
-0.18689406 0.04715964 0.048693422 -0.15237126 -0.32808527 0.28391024 0.19889638 0.08741433
-0.32488278 0.10976679 0.1941545 0.00878548 -0.0020779942 0.055244867 -0.010213234 -0.29631472
0.26734957 0.009532885 0.026790872 -0.03175175 0.12009157 0.16055904 0.08429331 -0.017288446
-0.023953246 -0.077915624 -0.20146608 0.043353412 0.023818884 0.0049525728 -0.03333379 0.049057335
0.50926673 -0.096163094 0.08597848 0.0987231 -0.024957616 -0.18833575 -0.026461964 -0.014783271
0.03173078 -0.055879377 -0.0005687492 0.09593605 0.1899902 -0.13496473 -0.10365529 -0.014447843
0.14817128 0.57050246 0.13994868 0.30964944 -0.018300738 -0.1792341 -0.030230224 0.13561255
-0.08740317 -0.06922418 -0.0045425985 -0.24229862 0.10418282 0.11011796 0.0016516779 -0.030324455
0.11068547 0.2225914 -0.09396955 0.060047697 0.06526327 0.032923006 -0.28542256 -0.008250326
-0.020167701 0.0015701844 0.009194404 -0.054841246 -0.63096505 0.18453616 -0.04493969 0.024926988
-0.008790193 0.01977877 -0.07177234 0.041268557 -0.008008507 -0.10188361 -0.06529987 -0.22080144
-0.18980247 -0.18467711 -0.029723955 -0.09779852 0.5765358 0.04314754 0.0034878773 0.015552303
-0.08090306 -0.28359696 -0.18626775 -0.11398834 -0.23529048 -0.080784254 0.105079465 -0.04470852
0.038255133 0.07668599 0.011371273 -0.011319547 0.067186 0.14668854 -0.0638413 0.08010854
0.057862923 -0.030373544 -0.1434888 0.0034393298 -0.0025890565 -0.0014416517 -0.0131073 0.025302885
0.15471192 0.014058286 -0.011622778 -0.02437776 -0.006837234 0.00462846 -0.07767267 -0.024577165

action.0.bias f4 [64]
00000000: aed4 2cbd fab6 25be e77f 363f a0f5 89be
00000010: ca43 b13e 0dec e2be 4224 3a3e e85a 81bd
00000020: c197 323f 30d1 3ebe 1573 8fbe 72a8 8f3e
00000030: 409b 84be 78b7 363d 4369 8e3d 1c66 2fbe
00000040: 7230 d5be 9b90 8dbe cec2 953e cdab 943e
00000050: 5703 d13e fbed 22be 762b e7bd 132a 8dbe
00000060: 917f 72bd 81c1 e03d 23be 94be 0cd9 0cbe
00000070: 9c1d 213d 2b02 fcbd 95ff a43d 725c 8dbe
00000080: 17ba 39be 7345 ddbd 38f0 273d c18a a83d
00000090: 7e68 f73e fcf5 c6be 3863 48be 147e 05be
000000a0: e89d a2be 2d9c 933c e3d0 0b3f 5df9 d1be
000000b0: c12c 9bbd f44c ecbe 1064 52be c05d f3bc
000000c0: 13a1 683e 2623 9e3e 1074 20bc 0aee e33e
000000d0: 9193 9ebe 5cca 81be f818 a1bb 8a68 92be
000000e0: 5691 283d 6c38 06be 3bf6 5cbe 4337 4e3e
000000f0: 0817 7fbd 5d57 223f bfe2 4abe 3df4 0cbf
-0.042195015 -0.16183081 0.71288913 -0.2694521 0.3462203 -0.44320717 0.18177894 -0.06316167
0.6976281 -0.18634486 -0.28017488 0.280582 -0.25899696 0.044608563 0.06953671 -0.17128795
-0.41638523 -0.27649388 0.29250187 0.29037324 0.4082286 -0.15911095 -0.112875864 -0.27571163
-0.059203688 0.10974408 -0.29051313 -0.13754672 0.03933488 -0.12305101 0.08056561 -0.27609593
-0.18137394 -0.10804262 0.041000575 0.0822959 0.4832191 -0.38859546 -0.19569099 -0.13036376
-0.31761098 0.018018806 0.5461561 -0.41010562 -0.075768955 -0.4615246 -0.20545983 -0.02970779
0.22717695 0.3088619 -0.009793296 0.44517547 -0.3097196 -0.253497 -0.0049163066 -0.28595382
0.04115423 -0.1310746 -0.21578304 0.20138268 -0.062277824 0.63414556 -0.1981306 -0.5506018

action.2.weight f4 [64, 64]
00000000: 9d33 97ba 298d 97bd 107c 88bd e3fe a3bd
00000010: a97e 11bc 568f c33c 58d6 62bd 1449 fcbd
00000020: 5603 20be 9d1d 65bd 7d63 583c d56a 5bbd
00000030: b113 c1bd acd3 fabd 3383 b7bd 422a 5b3d
00000040: de76 b23b 91c4 d7bc fcdd 34be 69c0 95bd
00000050: 0764 af3d 5773 2dbc b379 9dbd bc22 e03c
00000060: ded9 25be df54 423d 2677 fc3c bc77 c2bd
00000070: e9f4 d3bd 0dcc 013e 5756 6a3d d312 8e3c
00000080: 2a4e 8f3d 01fa 98bc 65aa 883b 0aef b63d
00000090: c574 8ebd 8069 4fbe 0fce d1bd 634b bc3b
000000a0: 7ca1 dc3d 05a8 25be 4f6b 4abe 6193 31bc
000000b0: f648 683d 6184 8b3d 7405 1bbe ef0e 623d
000000c0: 02f7 61bd d137 00be daf1 98bd 409c e6ba
000000d0: b721 633d ac9f 1cbe 4971 35be c7ba c3bc
000000e0: 91cc b13d e398 8e3c 8bfc bdbd 07bc 13be
000000f0: 9316 133d 2d00 1dbe 65ba 2c3c 3a1e b63c
00000100: 544b 0cbe 46fc ed3c 3968 b7ba c56e 823d
00000110: e2a9 3c3d 11d0 49bd ef20 343d 543a 5ebc
00000120: 2f87 1dbb 353c 193e 39d5 ce3d d988 dc3d
00000130: 7a49 363d c1de 86bc f801 933d 94be 9bbc
00000140: 435c 74bd 3500 1f3b c0ee 203d cd58 d53d
00000150: 080a 973d b5db 28bd bce5 9d3d 820c 5a3d
00000160: b597 553d 1ca2 fe3d 8fb8 e5bd 594f 083d
00000170: d6b7 e3bb 140e d1bd dd70 71bd 9cd7 52bd
00000180: f9a0 82bc f4bf 873d 3fbf 393d 72e0 283d
00000190: b11e 613c 3e1d 233d 830a d33c e17d aeba
000001a0: b283 a7bc 3bc8 963d f4f0 243e 484d bb3c
000001b0: 4877 403d d030 a3ba 56af cc3c 204c 8a3c
000001c0: e419 f9bc c2a2 c23d da71 643c 9cbc 173e
000001d0: 833c e43c 4958 e7bc 196e ba3c f8f5 0dbe
000001e0: dbda 903d baa9 0d3d d549 e93d da66 8c3b
000001f0: 20ec 33bd 21bb 283e 8a56 043e 9391 1e3d
00000200: faa8 003e 7e16 7b3e 82b9 bb3e 8211 143e
00000210: 25e6 a43e 4c77 6f3d 89e5 903e 2790 38bc
00000220: 6ae8 c13e 64d3 213e cd6d 253e 8c6d 693e
00000230: 3773 20bd 5d89 5c3d be3b 393e 532f 993d
00000240: d349 68be 2cfa bf3d cbc4 933e 73e4 853e
00000250: e3b8 c63e d1ee 363e 1a7f df3d 015d 2e3e
00000260: 9cc1 6d3e e213 a93d 0d12 2a3c 388b 363e
00000270: e13e 923e 456e 3a3e 3433 863d 78f2 013d
00000280: ccaa 173e 2d9c 5b3d 5d46 183c 5a4c 343e
00000290: e5a1 b93e 383e ef3d 8716 60bd 8386 5e3e
000002a0: fec3 10bd d5e7 353e 1409 ce3e ea75 493e
000002b0: 4d13 0c3e 2266 0fbe c9a6 92bc 7ec8 803e
000002c0: cfdd 9a3e 45dd 8b3e c0a5 91bd bb3f 973e
000002d0: 4d85 cc3d df78 e43d 496d 033d 2ecd 403e
000002e0: 5b17 a83d 1c20 98b9 4d98 1e3e faf7 b63e
000002f0: 3e45 6abd 4984 583e be1e e83d 2435 023e
00000300: 6f94 b7bc d350 7b3c ec0e 5ebd 9b6b 73bd
00000310: d50f bdbd 5159 183d 178c ad3d f674 c1bd
00000320: 7f7d ba3c 288c 843d e67d 9a3d 748d cabc
00000330: 9fd2 3c3d 2965 7c3d 61b2 c73d f5d2 893d
00000340: 0448 66bd ce9a 3dbd 9078 9bbd 99e6 2cbb
00000350: b9cd 39be 4d3d ccbd 3b32 a6bd 496e 2cbe
00000360: 1801 c0bd fcb4 d93d 276e 2dbe dade c63c
00000370: d109 923d 6508 2fbe 7f97 503d 2b42 853c
00000380: df5e fbbd 3588 3dbd 7510 2f3c bc4e 05bd
00000390: 41ff a8bd 75c0 a2bd fb88 e2bd af5e e0bc
000003a0: 443d 0bbe 7cf4 55be e2c1 e8bd 0094 303b
000003b0: 5861 bdba 0e45 1abe fcee 0e3d b426 16bd
000003c0: b36e 6e3b f18e 033d 3ad0 e9bd d513 263d
000003d0: 498f 2abd 2f34 88bd c522 853d bafa fa3c
000003e0: c53d cabd 0845 c4bd 75c9 3fbd 27f3 dbbd
000003f0: 35e8 91bd 6cbe 643c 9e18 00be 57e5 7b3d
-0.0011535768 -0.07399971 -0.06664288 -0.080076 -0.008880296 0.023872059 -0.055380195 -0.12318626
-0.15626273 -0.055936445 0.013207314 -0.05356868 -0.09427584 -0.122474045 -0.08960571 0.053507097
0.005446299 -0.026338847 -0.17662805 -0.0731209 0.085640006 -0.010586581 -0.07689228 0.027360313
-0.16196391 0.04744422 0.030818533 -0.09495494 -0.10349447 0.12675495 0.057211246 0.01734296
0.069973305 -0.018673899 0.0041707032 0.08932312 -0.06955866 -0.20255089 -0.10244381 0.0057462915
0.10772988 -0.16177376 -0.19767497 -0.0108383605 0.056710206 0.06812359 -0.15138799 0.055190023
-0.055167206 -0.12521292 -0.074680045 -0.0017594174 0.055452075 -0.15295285 -0.17718996 -0.023892773
0.08681596 0.017406886 -0.092766844 -0.14427195 0.0359102 -0.15332098 0.010542487 0.02223121
-0.1370061 0.029050957 -0.0013992853 0.06368784 0.04606045 -0.049270693 0.04397672 -0.013563711
-0.0024036875 0.14964373 0.10099263 0.10768289 0.044503666 -0.01646364 0.0717811 -0.019011773
-0.0596583 0.0024261598 0.03929019 0.10417328 0.0737496 -0.041225154 0.07709834 0.053234585
0.052146632 0.12433264 -0.112168424 0.033278797 -0.006949405 -0.10207763 -0.058945525 -0.051475152
-0.015945898 0.06628409 0.045348402 0.041229673 0.013740228 0.03982281 0.025761848 -0.0013312661
-0.02044854 0.0736241 0.16107541 0.022863999 0.046988755 -0.001245046 0.02498595 0.016882002
-0.030407853 0.095037 0.01394316 0.14818043 0.027860885 -0.02824034 0.022757577 -0.13863361
0.07072993 0.034585692 0.113910355 0.004284722 -0.04392636 0.16477634 0.12923637 0.03871305
0.1256446 0.24520299 0.3666497 0.14459804 0.32206836 0.05846338 0.2830012 -0.011264837
0.3787263 0.15803295 0.16155167 0.22795695 -0.039172377 0.053841937 0.18089196 0.074797295
-0.22684412 0.093738884 0.2886108 0.26150855 0.38812932 0.17864539 0.109129146 0.17027666
0.23218387 0.082557455 0.01038028 0.17826545 0.28563598 0.18206127 0.06552735 0.031725377
0.14811248 0.053615738 0.00929412 0.17607251 0.36256328 0.11681789 -0.054708984 0.21731
-0.035343163 0.17764218 0.402413 0.19673887 0.13679238 -0.14003804 -0.017901795 0.25152963
0.30247352 0.27317253 -0.071116924 0.2954081 0.099863626 0.11155867 0.032086644 0.1882827
0.0820758 -0.00029015623 0.15487786 0.35736066 -0.05719494 0.21144213 0.113339886 0.12715584
-0.022409646 0.015339094 -0.05421345 -0.059428792 -0.09231535 0.037194554 0.08473986 -0.09446137
0.02276492 0.06472045 0.075435445 -0.024725653 0.0460993 0.06161991 0.0975082 0.0672969
-0.056221023 -0.04629021 -0.07591355 -0.0026382564 -0.18144883 -0.0997263 -0.081150495 -0.16838945
-0.093752086 0.10630223 -0.16936551 0.024276186 0.071307786 -0.17093046 0.050925728 0.016266903
-0.122739546 -0.046272475 0.010685076 -0.03254579 -0.08251811 -0.079468645 -0.11061283 -0.027388899
-0.1359759 -0.20894045 -0.11365105 0.0026943684 -0.0014448566 -0.15065405 0.034895882 -0.036658004
0.00363819 0.03211874 -0.11416669 0.040546257 -0.041640554 -0.06650578 0.065007724 0.030637134
-0.09875063 -0.09583479 -0.046822984 -0.10739737 -0.07124368 0.013961416 -0.1250939 0.061498012

action.2.bias f4 [64]
00000000: 32d5 efbd 1f18 c23d f555 f63e 6c9b c5bd
00000010: 278b 3a3d 1bc5 0fbe 8771 12bd be88 3bbe
00000020: a76f f43c a5a9 09be 258e 93bd 7fb2 b7bd
00000030: a303 f3bb afe0 13be a89a f73c c6f9 21be
00000040: 6ca9 debd ffa4 1cbd c923 d5bc 800e 23be
00000050: 40fd 91bd ee5b 283d ad49 723e 07c0 5abd
00000060: eab6 0dbe 3457 28be 0b37 fc3d 1bc5 c83c
00000070: de15 ee3b 9079 003e 1a12 09be 333b 5cbc
00000080: 5005 873d b372 f33c 3e0a cc3c ec8c 13be
00000090: 51eb bebd 524f 13be 9720 cf3b f31f 69bd
000000a0: 2a8b 873c 9ad7 47bd c449 413e 43e0 a3bd
000000b0: 3da9 1c3c 228e a7bc b021 0fbe 6179 663d
000000c0: 5181 74b8 d5e6 823c 3b21 8fbd d135 27bc
000000d0: d8f5 6a3c df40 29bd cd53 41bd 5d7e 803b
000000e0: 1a8d 32be 685f 40bd 3cc7 70ba 806f 423e
000000f0: 8377 30bc 0171 dbbd c542 afbd e029 01bd
-0.11710586 0.09477257 0.48112455 -0.09648785 0.045542862 -0.14040034 -0.0357528 -0.18313882
0.029838396 -0.1344362 -0.07204846 -0.08969592 -0.007416205 -0.14441179 0.030225113 -0.15817937
-0.108721584 -0.03824329 -0.02601804 -0.159235 -0.07128382 0.041103296 0.23660918 -0.053405788
-0.13839307 -0.16439515 0.12315186 0.02450805 0.0072657904 0.12546372 -0.13385811 -0.013441849
0.0659281 0.029717779 0.024907228 -0.14409226 -0.09322227 -0.14385727 0.0063210237 -0.056915235
0.01654585 -0.048789598 0.18875796 -0.08001759 0.009561834 -0.020453516 -0.13977695 0.0562681
-5.829457e-05 0.01597921 -0.0698876 -0.010205702 0.01434084 -0.04132163 -0.04719906 0.0039213137
-0.17436638 -0.046965986 -0.00091849617 0.18987846 -0.010770681 -0.10714913 -0.08557657 -0.031534076

action.4.weight f4 [11, 64]
00000000: b5ac e93d a7c1 893d 234d eb3d 4c5f 233d
00000010: 8fda 173e a4d0 183c d62a 423e 542d f43d
00000020: eba5 2a3e d631 cf3d 52b2 093d 165e a93d
00000030: cc22 783d 709e ae3c e180 b6bc e0c6 2cbc
00000040: c54f 9a3d ad46 ad3d 0f6e a63d 6a90 b03d
00000050: 6c7a 60bd fa79 123d 60dd b23d b14e 313d
00000060: bded 0cbd 4171 563e 6649 8e3d 42cd 93bd
00000070: e976 463d 8eb3 2cbb bf56 773d d1d9 2b3d
00000080: 1d01 5c3d 4ba7 edbd 9a9d 823d f627 993d
00000090: 5365 28bb fe8f eebd ac42 ad3a 897b 163e
000000a0: 6604 92bd 0848 663d d56f e63d f260 213e
000000b0: 6c07 b03c ddd4 2d3d 4ab1 6d3d dce1 1c3e
000000c0: 66d3 593d ee71 d8bd abe4 0fbe ee85 093d
000000d0: 244e 14be 9eec d53d d123 a6bc 6fa1 5dbd
000000e0: 066b 863d d9a6 043c 414d a4bc adb1 f43d
000000f0: 62c0 ccbd eb01 a23d 24b3 38bd 1804 343d
00000100: 85a0 f6bc f0aa 003e 4a5b 893d 6fc5 27be
00000110: f276 a03d 1842 5b3c 0cd5 35be 60f5 eb3d
00000120: 25f1 2a3c c488 58bd d81f e23d d697 22bd
00000130: c6f0 8e3d f1a6 49bc ac23 183e 2e87 e3bd
00000140: c11c e7bd a50c 0fbd 8bcc 1bbd ab91 40be
00000150: 8632 fabd c507 073c a1df b23d 3a26 a93d
00000160: e01f 6abb 2e50 ab3d 04dd 193e 667d 2c3d
00000170: 8fd2 203e 0d75 ee3d b7e7 be3d 0f2e cfbd
00000180: 465d 573d fdd7 c8bd 5337 8b3d 9a99 953d
00000190: 4368 a63d e5b4 173e 9da6 8a3d a23d aebd
000001a0: 56ae c53d cfb2 9abc 9456 293d 097e 7b3e
000001b0: 4df6 a13b ef5e 4d3d e3fb c53d 9484 063e
000001c0: e188 01be 7f1c fb3d d05c 23bd e5da 2c3d
000001d0: 9642 ef3c c3a4 c0bd 5096 393e 4f6e 263e
000001e0: a946 283d f9cb e93c 53bd a53b 9094 c33d
000001f0: 4c18 6d3d 75a2 8dbd d798 43be 1cf5 9d3d
00000200: 8451 efbd 403d d13d d8b4 603d 8fb7 22bd
00000210: 6ec0 b23d efd8 cfbc daa9 b73d fa24 91bd
00000220: 5150 173d 7bd9 4d3d 5924 bbbd c7d7 45bd
00000230: 8631 24bd d68a 5bbd 1f85 823d 241b 5f3d
00000240: a4c3 82bb 4530 48bc aed0 2a3d 53fa 2d3c
00000250: bbfc 09be 1c1c ddbc e0c4 363d 001f f93d
00000260: f06f 18bb d8dc f9bd 0feb 993d 60fb c3bd
00000270: fb50 963d b458 183e b2d1 80bc ddd1 ccbd
00000280: d465 5a3d 36ef 243d 5f19 493d 55f4 aebd
00000290: 4e38 ba3d dd5e 163c f90b 473d 6246 b5bd
000002a0: d7fd eb3c 23ea 10be d532 2e3e 2158 153e
000002b0: 8c12 723d fcb4 0e3e c36d ef3c c8e6 8d3d
000002c0: cef5 4bbc 527f 143e 5288 323e 42d3 fd3c
000002d0: 2cfe 28bc 5ad2 93bd 67ae 563d 062c 773d
000002e0: 5ad1 98bc a6e0 4f3d 8aed bf3c b1e8 a23d
000002f0: 3baf d43c 9540 df3d aa46 d0bd fb6f db3c
00000300: cc81 763d 3256 df3d 1e18 d73d 07f3 913d
00000310: 3751 d03d a480 233b 354f 473d c10d b2bd
00000320: 8666 2f3d 4baf df3d f297 21be 72e1 9dbc
00000330: 5896 a43d 341d 18bd 9394 53bd 180f 973c
00000340: a16c 6d3d ae53 ca3d a082 043e 42fd 8d3c
00000350: 39fa f3bd 58dc 77bd 6e52 913d d602 2c3d
00000360: 9e9c b7bc 084b df3d a034 69bc 09f8 a83d
00000370: 793c 983d 1df3 ed3d 80cb 373d 3a76 d53a
00000380: 5a2d 553d 10fa cbbd 0036 5d3d 1723 973d
00000390: 2d1c a9bc 7f32 213b 3ba6 ba3c 6957 e1bb
000003a0: 3817 22bd 9c87 3d3d 4f12 013e d9b9 193e
000003b0: 72ba 2ebd fef4 9abd adfb 3abd 583d e23d
000003c0: 5435 013d 0cca a63c 032e e63d 2ab2 433d
000003d0: cf2d 79bd a33d adbc 6716 b93c 7afb 8e3d
000003e0: 34e5 b5bd 2fed 773c 7c60 283c d27f c73d
000003f0: 1fdb 783d 537d bcbc 0936 673d 1ca2 be3d
0.114098944 0.067263894 0.11489322 0.039885804 0.14829467 0.009327088 0.18961653 0.11922708
0.16664855 0.10116927 0.033617325 0.082698986 0.06058006 0.021315783 -0.022278251 -0.010545462
0.07534746 0.08460746 0.08126461 0.08621295 -0.05480425 0.035760857 0.0873363 0.043287937
-0.034406412 0.2094164 0.069475934 -0.07216884 0.048453245 -0.002635214 0.060385462 0.041955773
0.053712 -0.11604174 0.06377716 0.07478325 -0.002569516 -0.11648558 0.0013218722 0.14695562
-0.07129745 0.056221038 0.11251799 0.15759638 0.021487914 0.04243933 0.058030404 0.15320534
0.05318012 -0.10568605 -0.14052074 0.03357499 -0.14482933 0.10445522 -0.02028075 -0.054109033
0.06563382 0.00809642 -0.020056369 0.119479515 -0.099976316 0.07910522 -0.045092717 0.043949217
-0.030105839 0.12565207 0.06706865 -0.16383909 0.07835187 0.013382457 -0.17757052 0.11521411
0.01043347 -0.052864805 0.1104123 -0.039695583 0.06979518 -0.012307868 0.14857358 -0.11109768
-0.11284781 -0.03492417 -0.038036864 -0.18805568 -0.12216668 0.0082415985 0.0873406 0.08259244
-0.0035724565 0.083649024 0.15025717 0.042111777 0.15705322 0.116434194 0.0932154 -0.10116207
0.052579187 -0.098068215 0.06797662 0.07304688 0.08125355 0.148151 0.0677006 -0.08507849
0.096523926 -0.01888409 0.041342333 0.24559797 0.0049426914 0.050139364 0.09667184 0.13136512
-0.12649871 0.122612946 -0.039883435 0.04220094 0.029206555 -0.09406426 0.18123746 0.16253017
0.04108301 0.028539645 0.0050579696 0.095498204 0.0578845 -0.06915752 -0.19101273 0.077127665
-0.1168547 0.10216761 0.054859966 -0.039725836 0.08728109 -0.025371997 0.089679435 -0.07087131
0.03694183 0.050256234 -0.09137792 -0.048301484 -0.04008629 -0.0535992 0.06373047 0.054469243
-0.0039906073 -0.01221854 0.04170292 0.010618764 -0.13475315 -0.026990943 0.04462135 0.12164116
-0.002326008 -0.12200326 0.07515537 -0.0956943 0.073396645 0.14877588 -0.01572499 -0.10000966
0.053319767 0.04026719 0.04909646 -0.085426964 0.090927705 0.009177891 0.048595402 -0.08851315
0.028807564 -0.14151816 0.17011578 0.145844 0.05909972 0.13936228 0.029227143 0.06928784
-0.012448741 0.14501694 0.17434815 0.030984525 -0.010314506 -0.07217856 0.052412417 0.06034472
-0.018654514 0.05075135 0.023428697 0.079545386 0.025962463 0.1090099 -0.10169728 0.026786795
0.060182378 0.10905112 0.10502647 0.07126432 0.101717405 0.0024948502 0.048659522 -0.086940296
0.042822383 0.10922106 -0.15780619 -0.01927254 0.08036488 -0.037137225 -0.051655363 0.018439814
0.057964925 0.09879242 0.12940454 0.017332677 -0.119129606 -0.06051287 0.070958 0.041994892
-0.022413548 0.10902983 -0.014233738 0.08250434 0.07433409 0.11618636 0.044871807 0.0016285845
0.052045204 -0.09959805 0.054006577 0.0737974 -0.020643318 0.0024596748 0.022784343 -0.006876875
-0.039572924 0.046271905 0.1260464 0.15012302 -0.042658277 -0.0756626 -0.045650173 0.11046857
0.031545 0.020360015 0.11239245 0.047777332 -0.060834702 -0.021147555 0.02259369 0.06981559
-0.08881608 0.015132233 0.01027691 0.09741177 0.060755845 -0.023008978 0.056448016 0.09308264

action.4.bias f4 [11]
00000000: d888 d73d 333f f93d 9d80 0b3e b96d fb3d
00000010: f5c0 fabe 8220 0e3e 0855 963d 4538 e0be
00000020: 6c46 813d d8e6 df3d 5137 f43d
0.10524148 0.121702574 0.13623281 0.12276787 -0.4897534 0.13879588 0.07340437 -0.4379293
0.0631226 0.10932702 0.11924613

critc.0.weight f4 [64, 22]
00000000: 46dd 3642 9455 00bf 2d4a f9bd 06f7 703d
00000010: b9fe 2e3e b2aa cd3e 2056 25c2 b870 81c0
00000020: c4f3 ddbf e704 78bf fc30 fa3e de79 3842
00000030: e1ce 3642 8a09 3742 c32d 3742 b3c8 37c2
00000040: d733 3742 eaa4 3642 0f67 38c2 dd5e 3742
00000050: b6ff 3742 d4cb 3642 b07c 3942 a608 73be
00000060: 9aef aabe 13b3 e5bc de38 e93d de47 973e
00000070: b5b4 29c2 9ad3 85c0 4b42 d9bf 7b18 8bbf
00000080: d714 033f bd34 3942 9d9f 3842 6188 3842
00000090: cc46 3942 b2f5 38c2 7555 3942 e804 3842
000000a0: 4675 38c2 4b5d 3942 236a 3842 8b6f 3842
000000b0: 6d53 3d42 6087 06bf 4060 d0be 7cf1 92be
000000c0: 6c49 8d3d 9489 903e 2afd 2cc2 6bc5 84c0
000000d0: 90d4 e4bf 58e6 90bf aed1 3a3f 0c42 3c42
000000e0: a245 3d42 83df 3d42 71b2 3c42 7f42 3dc2
000000f0: 9c18 3e42 c35f 3b42 acb1 3cc2 e696 3b42
00000100: 0eab 3d42 44bb 3c42 bb81 3a42 d22d 6a41
00000110: f82d 6d41 6a3b 72bc f8c6 55c0 69de a8c1
00000120: 378b 33c2 62dd 2341 d9bd fb41 1d37 a9c1
00000130: d073 93c1 f528 3a42 ede2 3a42 4355 3a42
00000140: 2949 3b42 d953 3ac2 aa8f 3b42 517c 3942
00000150: 6fa0 3ac2 c3c7 3a42 955a 3b42 be53 3a42
00000160: 5e16 3b42 d14a 1bbe aa39 2abe e6dd 99bd
00000170: 0798 7e3d 8c9d ce3e 5d48 30c2 1123 8dc0
00000180: c125 dcbf 0ce1 83bf 081c 283f fa90 3b42
00000190: 1cb7 3a42 fb95 3c42 c291 3b42 73d2 3ac2
000001a0: 9919 3b42 9921 3b42 dc39 3bc2 1466 3b42
000001b0: a83c 3b42 4e50 3c42 9c5d 3942 2709 04bf
000001c0: ec74 e33c ca82 2c3c 6bb7 cfbd 12b8 993e
000001d0: a39b 26c2 e51c 81c0 6aec d7bf e1f5 70bf
000001e0: 7758 1d3f 5182 3842 8b0e 3742 7cb7 3842
000001f0: a6ac 3842 2cfc 38c2 d1e8 3742 9a36 3842
00000200: 90f3 37c2 410d 3842 baaa 3842 bc72 3742
00000210: a416 09c1 6529 3941 7a70 e4be 6e60 2f3b
00000220: 92da d9b9 b017 933c 4ec8 17c2 47d4 98c0
00000230: 06fe 9abf af64 d7bf 9f72 39be 2779 0d42
00000240: 02c5 0d42 b087 0e42 6d82 0d42 9e9f 0dc2
00000250: 265f 0e42 33ad 0b42 b616 0dc2 f2b6 0c42
00000260: a6cb 0c42 2ba5 0d42 6aee ccc0 5366 8841
00000270: 8fa8 b53e 67e3 3bbb 08a8 6e3b 3e73 2bbc
00000280: b4ff 0fc2 c5ed 81c0 2edd fabf e5dc 0ac0
00000290: 1c84 28be 9ca7 1742 163f 1942 577c 1942
000002a0: 7cbd 1742 d273 19c2 a964 1a42 7d95 1742
000002b0: 2787 17c2 9672 1742 81e7 1842 c467 1842
000002c0: b54c 3b42 a7ad a4be fb3a 84be fe71 3abe
000002d0: ec88 9c3d f552 183f 29bd 2bc2 0c3c 8dc0
000002e0: f5d7 e4bf 5a2f 9bbf 6f47 f83e 0192 3942
000002f0: cd0b 3b42 a0d5 3942 48eb 3942 1c16 3ac2
00000300: a6bd 3a42 d089 3942 3d01 3ac2 2cb3 3942
00000310: a5e3 3a42 f783 3a42 10c7 3842 0c06 ddbe
00000320: 63a6 9dbe 4b49 f03c 84e6 dabd 5aea f43e
00000330: 672d 29c2 438b 85c0 f9e8 d8bf e7e3 8ebf
00000340: b153 b33e 6852 3842 8f15 3842 99f6 3842
00000350: b098 3742 60b7 37c2 15eb 3742 1daa 3842
00000360: c972 38c2 1822 3842 4a63 3942 cc47 3842
00000370: 0a1e 3a42 5d0f cb3e 9079 c7be 73ea 22be
00000380: 648c 4c3c 026c ba3d 6b3c 2fc2 30a5 98c0
00000390: 4885 dabf d133 cebf b62e 023f 80de 3942
000003a0: 9faf 3942 9c2a 3b42 227d 3a42 2106 3bc2
000003b0: d53b 3b42 e06f 3a42 1690 39c2 748e 3942
000003c0: 39dc 3a42 ab19 3b42 ef39 3942 d179 d7be
000003d0: 3f76 afbd 8a22 533d 3c16 10be f74b 813e
000003e0: aa85 26c2 e6a0 78c0 a361 ecbf d316 a1bf
000003f0: 0328 e53e 8e4f 3742 c71f 3842 17c0 3842
45.716087 -0.5013058 -0.12172351 0.05882933 0.17089356 0.40169293 -41.334106 -4.0450096
-1.7340016 -0.9688248 0.48865497 46.11901 45.70203 45.759315 45.79469 -45.945995
45.800625 45.66105 -46.100643 45.84264 45.999718 45.69905 46.371765 -0.23733768
-0.33385926 -0.02803949 0.113878 0.29547018 -42.42647 -4.1820803 -1.6973356 -1.0866846
0.51203674 46.301502 46.155872 46.133183 46.319138 -46.239937 46.333454 46.00479
-46.114525 46.341106 46.10365 46.10893 47.33147 -0.52550316 -0.40698433 -0.28699863
0.0689877 0.28229964 -43.24723 -4.149099 -1.7877369 -1.1320295 0.72976196 47.0645
47.318 47.468273 47.17426 -47.314938 47.524033 46.843517 -47.173508 46.89736
47.417046 47.182877 46.62669 14.636187 14.823723 -0.014784673 -3.340269 -21.108599
-44.885952 10.241549 31.4677 -21.15191 -18.43155 46.539997 46.721607 46.583263
46.821445 -46.581882 46.890297 46.371403 -46.656673 46.69508 46.83846 46.58178
46.771843 -0.15165259 -0.1662356 -0.07513027 0.062156703 0.40354574 -44.070667 -4.4105306
-1.7199022 -1.0303054 0.6566777 46.89158 46.678818 47.146465 46.89234 -46.705517
46.774998 46.78281 -46.806503 46.849686 46.809235 47.078423 46.341415 -0.51576465
0.027765714 0.010529229 -0.10142406 0.30023247 -41.65199 -4.034777 -1.6869023 -0.9412518
0.6146311 46.127262 45.764202 46.179184 46.168602 -46.24626 45.97736 46.05332
-45.987854 46.012943 46.166725 45.862045 -8.5680275 11.572606 -0.44617063 0.0026760357
-0.00041552313 0.017955631 -37.94561 -4.775913 -1.2108772 -1.6827601 -0.1811013 35.368313
35.44239 35.632507 35.37737 -35.405876 35.59292 34.91914 -35.27218 35.178658
35.198875 35.411297 -6.4041033 17.049963 0.35480163 -0.0028669478 0.0036416072 -0.010464488
-35.99971 -4.0602746 -1.9598749 -2.1697323 -0.16456646 37.91368 38.311607 38.371426
37.935043 -38.363106 38.5983 37.895985 -37.881985 37.8619 38.226078 38.101334
46.82491 -0.32163736 -0.2582625 -0.18207547 0.07643303 0.5950158 -42.934727 -4.41358
-1.7878405 -1.2123826 0.48492 46.392582 46.761524 46.45862 46.479767 -46.52159
46.685204 46.384583 -46.50121 46.424973 46.72231 46.628872 46.194397 -0.43168676
-0.30791005 0.029331824 -0.106884986 0.47835046 -42.29434 -4.1732497 -1.6946098 -1.11633
0.3502479 46.080475 46.021053 46.240818 45.89911 -45.929077 45.979572 46.166126
-46.112095 46.033295 46.346962 46.070114 46.529335 0.3966016 -0.38959932 -0.15909748
0.012484644 0.09102632 -43.809002 -4.7701645 -1.7071924 -1.6109563 0.50852525 46.467285
46.421505 46.79161 46.6222 -46.755985 46.80843 46.609253 -46.39071 46.389114
46.71506 46.775066 46.306576 -0.42085126 -0.085674755 0.05154661 -0.14070982 0.2525327
-41.63053 -3.8848205 -1.8467296 -1.258509 0.4475709 45.82769 46.031033 46.187588

critc.0.bias f4 [64]
00000000: 5dbf 3742 6719 3942 d613 3e42 7b15 3a42
00000010: 08c4 3b42 5939 3842 c02e f6c1 d4ac 01c2
00000020: cdd7 3a42 0421 3842 cc81 3a42 cb40 3842
00000030: aa45 3942 c279 3742 4fc1 3d42 240e f9c1
00000040: 4204 3c42 345f 3a42 670e 3a42 fbfe 3a42
00000050: bccf fbc1 9ad0 3d42 9931 3942 8e17 3942
00000060: a775 3942 5161 3842 c318 fac1 138e 3b42
00000070: a62d 06c2 9fae 3842 7d30 3a42 5279 3a42
00000080: cf1d 3a42 398a 3a42 7b43 3e42 0efa 3942
00000090: 229a 3742 c712 f2c1 2571 3b42 2a98 3842
000000a0: 4c9b f4c1 c6c1 00c2 c56c 00c2 9a33 3b42
000000b0: 497c 3c42 4e5b 3b42 03fd 3b42 e99a 3a42
000000c0: 4a18 3742 7a89 08c2 45b9 3942 8032 0dc2
000000d0: fd74 3a42 045e 3942 8b34 01c2 a838 3c42
000000e0: 7143 3a42 1df1 3d42 d19d 3a42 bf4c 3942
000000f0: e9a4 3942 9c13 3942 2248 f4c1 f536 3b42
45.93688 46.274807 47.51937 46.520977 46.941437 46.056004 -30.772827 -32.418777
46.710743 46.03224 46.626755 46.063274 46.31803 45.868904 47.438778 -31.131905
47.004158 46.59297 46.514065 46.749004 -31.476433 47.453712 46.298435 46.273003
46.364895 46.095036 -31.26209 46.888744 -33.54458 46.17053 46.54735 46.618477
46.52911 46.634983 47.5659 46.494194 45.90052 -30.259169 46.860493 46.148598
-30.575829 -32.18923 -32.10622 46.800392 47.121372 46.839165 46.99708 46.65128
45.77372 -34.134254 46.430927 -35.299316 46.614246 46.341812 -32.30131 47.05533
46.56586 47.485462 46.654118 46.324947 46.411045 46.26915 -30.535221 46.80367

critc.2.weight f4 [64, 64]
00000000: f4ef 10bf f534 f9bd a11d 8cbe ddca b8bc
00000010: e6d3 6d3e ecf4 a8be 3326 2642 3a43 1542
00000020: da6c 20bd c836 87be f239 1c3f 5b09 c3be
00000030: ab0e 21be 1c8d 8bbe 1abf b1be 17ee 1a42
00000040: a4db 41be e8fd 1f3b 9729 053e fbdc 603b
00000050: c7a9 1442 8d72 d03d 550b 84be 8e57 c73a
00000060: 1282 65be 1122 073c d466 1f42 e4f4 953e
00000070: 4c24 3042 340f b3be 65b5 1abd 0c30 52be
00000080: 0600 ccba b744 b03d f8c1 1abb b97b 91be
00000090: 3fe8 07bf 9bf0 1742 0682 a63c 7033 063e
000000a0: 602d 1542 d2e7 1a42 3aca 1b42 1ec7 f23e
000000b0: 28b8 cb3d 45d5 52bd 0839 533f b750 f83e
000000c0: 79e1 a7be e401 1542 f0a1 5ebc 55d2 2042
000000d0: fe97 91be d3f9 00bd 617f 2142 c0ed 2d3d
000000e0: b671 f13d 0c9b 32be 50e4 503e 4e7a 5b3f
000000f0: 6ffd 3d3f eddf 9c3d f5da 1842 cb39 403e
00000100: cfbb 0abf efaa 67be dd51 85bd 0e36 9abc
00000110: 8720 8b3d d155 e0be 2bb1 2442 08be 1442
00000120: 8146 b0bb d06d 21be 5747 bd3e 4aa3 8cbe
00000130: 9dd9 c6bd 06de 8ebe 3e40 9ebe 5528 1942
00000140: 1b05 2ebe 6d03 053e 59ce e83d 2565 09bd
00000150: 629b 1342 a3fc 983d f19d bdbe a848 afbc
00000160: 4fc6 e1bd 26c5 a13c a133 1d42 bf1e 353e
00000170: 0133 2e42 749a 8cbe b396 ab3d 2ea6 95bd
00000180: 5d1f c5bd 1cb9 223e f37d 1b3e 9805 ccbd
00000190: 2f9d 01bf 9d75 1742 db0a bbbd ec98 f93a
000001a0: 6daf 1442 dc51 1942 ccce 1a42 a2e9 c93e
000001b0: 9d6c dcbc 4462 27be e678 013f 33a1 e83e
000001c0: e9f8 a7be 790c 1442 48c2 743d 102d 1f42
000001d0: 85b5 09be 419c 233e 0574 1f42 2d27 da3d
000001e0: bfa2 76bd 3a2f 39bc 0f9f 743e cb29 473f
000001f0: 0669 263f f2c1 a73c de0e 1742 f5a1 7d3e
00000200: 5dc7 3742 0110 3842 9d04 3c42 97ec 3a42
00000210: 2f0e 3b42 b356 3942 bc18 2fc2 c87c 21c2
00000220: dd74 3642 1a46 3942 1311 3b42 94db 3942
00000230: 5bce 3742 0bc3 3842 ba43 3d42 27af 23c2
00000240: 3871 3e42 dda3 3c42 bbe3 3642 0a4c 3942
00000250: cc05 1ec2 9ff8 3942 70a2 3842 bb76 3642
00000260: 9c69 3842 917c 3742 1eda 29c2 c3a4 3c42
00000270: 9076 30c2 824d 3842 c695 3742 92fe 3a42
00000280: 70d0 3842 7958 3e42 59c6 3942 425f 3942
00000290: ed0b 3942 3f77 21c2 32af 3742 9ba8 3942
000002a0: 0d5b 1fc2 b13a 25c2 03d4 26c2 feb7 3b42
000002b0: 7976 3742 fdca 3942 d556 3d42 9601 3b42
000002c0: e8fb 3842 df38 1fc2 a609 3842 0810 2bc2
000002d0: 3fbb 3842 cbda 3e42 8e2e 2dc2 5c12 3e42
000002e0: 2dea 3b42 8881 3b42 d144 3a42 85a1 3b42
000002f0: 3239 3b42 5a0b 3842 0758 20c2 cbea 3842
00000300: 54d1 3742 0eab 3742 01b5 3a42 db2f 3a42
00000310: a387 3b42 f54d 3942 1fac 2cc2 511d 1cc2
00000320: 292d 3642 abbc 3842 7e9e 3a42 d9e9 3942
00000330: 7f05 3842 644a 3942 602c 3c42 920b 20c2
00000340: 6ede 3c42 6828 3b42 4365 3742 4fc1 3842
00000350: fe4c 19c2 a549 3942 950a 3942 5c2d 3642
00000360: fb78 3842 2e84 3742 523d 27c2 218d 3b42
00000370: f054 30c2 55ca 3742 0b47 3742 59d5 3a42
00000380: 66a4 3842 e9ae 3d42 df03 3942 ccfc 3842
00000390: ece4 3842 d690 1dc2 4594 3742 7c58 3942
000003a0: 131d 1bc2 edb3 21c2 5368 22c2 7bb2 3b42
000003b0: 67c0 3642 125c 3942 4c47 3d42 320a 3b42
000003c0: c1e4 3842 1853 1bc2 a173 3742 fb2b 29c2
000003d0: 8000 3842 2462 3e42 00d9 29c2 e5b4 3d42
000003e0: a09d 3c42 d810 3a42 eefd 3942 4a63 3b42
000003f0: d7db 3a42 a794 3742 9036 1dc2 70a3 3842
-0.5661614 -0.12168304 -0.27366355 -0.02255767 0.23225364 -0.3299936 41.537304 37.31565
-0.03916631 -0.26408982 0.6102592 -0.38093075 -0.15728252 -0.27256095 -0.3471611 38.73251
-0.18931442 0.0024412815 0.13004147 0.0034311402 37.1658 0.10178099 -0.25789896 0.0015208588
-0.22412899 0.008247868 39.850418 0.292884 44.035446 -0.34972537 -0.037770648 -0.20526141
-0.0015563972 0.08606856 -0.002361415 -0.28414705 -0.53088754 37.984966 0.020325672 0.1310556
37.29431 38.726387 38.947487 0.4741754 0.099472344 -0.05147292 0.825089 0.4849908
-0.3278921 37.251846 -0.013588414 40.205402 -0.28436273 -0.03148825 40.374393 0.042463064
0.11789267 -0.17441958 0.20399594 0.857335 0.74214834 0.07659898 38.213825 0.18772046
-0.54192823 -0.226238 -0.06509755 -0.018824603 0.067933135 -0.43815473 41.173016 37.185577
-0.0053794985 -0.15764546 0.3696849 -0.2746833 -0.09709475 -0.27903765 -0.30908388 38.289387
-0.16994135 0.12989588 0.11367483 -0.033543725 36.90174 0.07470062 -0.37034562 -0.02139695
-0.110241525 0.019747328 39.30042 0.1768751 43.54981 -0.27461588 0.08378353 -0.07307087
-0.09625123 0.15890926 0.15184765 -0.099620044 -0.5063047 37.864857 -0.0913293 0.0019042767
37.171314 38.32994 38.70195 0.3943606 -0.02690726 -0.16346079 0.505751 0.45435485
-0.3280709 37.01218 0.059755594 39.794006 -0.1344815 0.15977575 39.8633 0.106520034
-0.0602138 -0.011302764 0.23888801 0.77798146 0.65004003 0.020478223 37.76452 0.24768813
45.94469 46.01563 47.004505 46.731045 46.76385 46.334667 -43.774155 -40.371857
45.614124 46.31846 46.766674 46.46443 45.95152 46.19047 47.31614 -40.921047
47.610565 47.160023 45.722393 46.324257 -39.50566 46.492794 46.15863 45.615948
46.103134 45.871647 -42.463005 47.1609 -44.115784 46.07569 45.896263 46.748604
46.203552 47.5864 46.4437 46.343025 46.261646 -40.36645 45.92109 46.414654
-39.838917 -41.307316 -41.707043 46.92968 45.865696 46.44823 47.334797 46.75155
46.246002 -39.80554 46.009422 -42.765656 46.182858 47.713665 -43.295464 47.51793
46.978687 46.876495 46.567204 46.907734 46.805855 46.011086 -40.085964 46.22929
45.954422 45.917046 46.67676 46.546734 46.882458 46.32613 -43.168087 -39.02863
45.5441 46.184246 46.654778 46.478367 46.005367 46.322647 47.043335 -40.0113
47.217216 46.78946 45.84889 46.188778 -38.325188 46.32192 46.260334 45.544296
46.118145 45.87908 -41.809883 46.88782 -44.082947 45.94759 45.819378 46.708347
46.160545 47.42081 46.25378 46.246872 46.223557 -39.39144 45.894794 46.33641
-38.778393 -40.42571 -40.60188 46.924297 45.687893 46.339912 47.319626 46.759956
46.223392 -38.831146 45.86292 -42.29295 46.00049 47.59584 -42.461914 47.426655
47.15393 46.51645 46.49798 46.846962 46.714687 45.89517 -39.303284 46.159607

critc.2.bias f4 [64]
00000000: f53d 9cc1 0bc1 94c1 af27 1842 eb1d 1742
00000010: 81a0 8ec1 14b2 9ec1 ae72 dcbd fd37 a53c
00000020: 0ec2 93c1 34af 90c1 56da 93c1 19f1 9bc1
00000030: 4189 b0c1 1f68 9ac1 7d55 dbc1 cb92 a4c1
00000040: f53a 37bd 3a79 053d 33ec 91c1 f9ad 1a42
00000050: b23f 1642 7011 1dbd 2b34 1e42 114f 1a42
00000060: fdcb 1642 58cc 1642 1253 1542 c8f2 973c
00000070: ce21 cebd af7b 95c1 e57f dfbd 8b98 adc1
00000080: 9077 8dbd b0e5 b0bd 44f4 a2c1 bf4a bbc1
00000090: cab0 9cc1 e2b1 94c1 1731 a9c1 ef05 93c1
000000a0: ef35 1642 4000 92c1 cb7c 92c1 dc7b 98bd
000000b0: a102 b93d dd9f 1c42 620c debd aa8c 93c1
000000c0: b7d7 1e42 a611 9fc1 e320 9ac1 ed60 7ebd
000000d0: 980c 2042 bb49 1842 dd08 93c1 446f 1842
000000e0: 333d b4c1 c8e1 98bd d25f a2c1 f88b a5c1
000000f0: 58f4 9fc1 a52d a6c1 1b15 90c1 4379 98c1
-19.530252 -18.59426 38.038754 37.779217 -17.828371 -19.836952 -0.10764061 0.020168299
-18.469753 -18.085548 -18.48161 -19.492723 -22.067019 -19.30084 -27.416742 -20.571676
-0.04473396 0.032586314 -18.240332 38.669895 37.562202 -0.038346708 39.550945 38.577213
37.699207 37.699554 37.331123 0.018548384 -0.100650415 -18.685392 -0.10913066 -21.699484
-0.0690757 -0.086375594 -20.36927 -23.411497 -19.586323 -18.586857 -21.14897 -18.377897
37.55267 -18.250122 -18.310934 -0.07445499 0.090337045 39.156116 -0.108422056 -18.443684
39.71066 -19.883617 -19.266058 -0.062104154 40.0123 38.072002 -18.379328 38.108658
-22.529882 -0.07464939 -20.296787 -20.693344 -19.994308 -20.772287 -18.010305 -19.05921

critc.4.weight f4 [1, 64]
00000000: 1a56 2042 b5a7 1b42 0ecb 3cc2 ff6a 3cc2
00000010: c5bd 1842 08b5 2042 8b61 48bc 0b96 da3c
00000020: 0f42 1e42 62a7 2342 be64 2342 f89b 1f42
00000030: 3b0a 1e42 77b1 1942 f200 3742 cf37 2042
00000040: bcc8 adbd c12c 5e3d 43fc 1e42 1924 3cc2
00000050: 0ace 3cc2 645c 5d3e bf9d 3cc2 9a6d 3cc2
00000060: 4e6e 3cc2 ebbe 3cc2 0cd5 3cc2 6143 13bb
00000070: f0be d6bc 5859 1d42 5de3 80bd 16b1 2042
00000080: b354 063d aef2 943d 1a24 2d42 68e5 2042
00000090: ab7b 2342 587c 2342 d101 1d42 60dd 2342
000000a0: 1e61 3cc2 9e04 1c42 5849 1d42 0a0e b3bd
000000b0: edb0 ff3d a620 3dc2 464d 0a3e 5bd6 1f42
000000c0: 84df 3cc2 3dcc 2342 5196 2742 3f22 9a3d
000000d0: 4945 3cc2 fa60 3dc2 878a 1e42 0b48 3cc2
000000e0: 681a 2342 9f74 34bd 3247 2442 b8c6 2542
000000f0: 1ce7 2042 99d3 1b42 c5ab 2342 da16 1a42
40.084084 38.913776 -47.198296 -47.10449 38.18532 40.17679 -0.012230287 0.026682874
39.56451 40.91346 40.84838 39.902313 39.50999 38.423306 45.750923 40.0545
-0.08485553 0.0542419 39.74635 -47.03525 -47.20121 0.21617275 -47.15405 -47.107033
-47.10772 -47.186443 -47.208054 -0.002247058 -0.026214093 39.33725 -0.06293366 40.172935
0.03279562 0.0727285 43.285255 40.22403 40.87077 40.87143 39.251774 40.966187
-47.09484 39.00451 39.321625 -0.08742912 0.12484918 -47.281883 0.1350604 39.95933
-47.218277 40.94945 41.896793 0.07526063 -47.06766 -47.344704 39.63528 -47.070354
40.775787 -0.04405653 41.069527 41.44406 40.225693 38.95664 40.917744 38.522316
