saved_modelV2/Hopper/0.03/adversarial_attack_rs_seed_62978.pth (torch, 48833 bytes, 11 tensors)

action.0.weight f4 [64, 11]
0	0x3e5376ef	0.20650838
1	0x3e04b563	0.12959819
2	0x3cabfb15	0.020993749
3	0x3c9201fd	0.017823214
4	0x3c849195	0.0161827
5	0x3eab6dfd	0.33482352
6	0x3ebbbae4	0.36666024
7	0xbe085355	-0.13313039
8	0x3db058d6	0.08610694
9	0xbaf6ba0e	-0.0018823759
10	0x3c067b00	0.008208036
11	0xbee5e9b3	-0.4490486
12	0xbe276280	-0.16346169
13	0x3c16ce8a	0.009204516
14	0xbe5cacff	-0.21550368
15	0x3e4a1894	0.19735938
16	0x3ee20488	0.44144082
17	0x3e6df34d	0.23237343
18	0x3b9bb8e7	0.0047522667
19	0xbd0aa097	-0.033844557
20	0xbddb7729	-0.10716087
21	0x3d9c00e2	0.07617356
22	0x3e5aadf0	0.21355414
23	0x3e8124b5	0.25223318
24	0xbd1936cd	-0.037405778
25	0x3f1b5134	0.6067078
26	0xbeba6948	-0.36408448
27	0x3e356cd6	0.17717299
28	0xbdeaf45f	-0.11472391
29	0x3e8e61b8	0.27808928
30	0xbe8b2c70	-0.2718234
31	0x3d8ffe54	0.07030931
32	0x3e6b8430	0.22999644
33	0x3e04c7a2	0.12966779
34	0x3d83b31a	0.06430645
35	0x3c98cb89	0.01865174
36	0x3dc1b85d	0.09458993
37	0xbdd988bc	-0.10621783
38	0x3e57bdf0	0.21068549
39	0xbf17b850	-0.59265614
40	0x3dd17c4a	0.102287844
41	0xbdbda1ac	-0.09259352
42	0x3c5178d6	0.012785157
43	0xbc040ea8	-0.008060135
44	0xbebfb3ba	-0.37441808
45	0xbd789b0b	-0.060694735
46	0x3db67bb8	0.08910316
47	0x3d813792	0.06309427
48	0x3f2b6ce2	0.66963017
49	0xbd5c40b7	-0.053772654
50	0xbe965761	-0.2936354
51	0x3ea9181a	0.330262
52	0xbe82fead	-0.25584927
53	0xbe251f8c	-0.16125315
54	0xbba9c06d	-0.0051804096
55	0x3db0a82a	0.08625825
56	0xbd9e99ae	-0.07744156
57	0xbd6595f2	-0.056051202
58	0xbf0c7cbe	-0.5487784
59	0x3eced767	0.40398714
60	0x3e199f4d	0.15002175
61	0x3f71d6e3	0.94468516
62	0xbe10a0c8	-0.14123833
63	0x3dd21d4e	0.10259496
64	0x38fd51a0	0.00012079184
65	0x3c898a95	0.016789714
66	0x3e5a6b58	0.21330011
67	0x3ece2c29	0.40268067
68	0x3c4ee3b1	0.012627528
69	0x3f5dae4e	0.8659409
70	0xbea2fc41	-0.3183308
71	0x3da11483	0.078652404
72	0x3e5d7674	0.21627218
73	0x3e9f3702	0.31096655
74	0xbe841b9a	-0.25802308
75	0xbe38a700	-0.18032455
76	0x3e0b17c4	0.13583285
77	0xbe9175c0	-0.2841015
78	0xbe6cd5a9	-0.2312838
79	0x3d216cc3	0.039410364
80	0xbf0fc409	-0.561585
81	0x3eadcf01	0.33946994
82	0xbe3ab41e	-0.18232772
83	0x3dd43ddd	0.10363362
84	0xbe4e2e33	-0.20134811
85	0x3e530605	0.20607765
86	0xbdbb1f84	-0.091368705
87	0xbe5ebac5	-0.21750934
88	0xbeedd30d	-0.4645008
89	0x3d44db7b	0.048060875
90	0x3d722285	0.05911495
91	0x3f042c45	0.5163005
92	0xbee3fc7e	-0.44528574
93	0x3e45a8de	0.19302699
94	0xbd53be35	-0.051695067
95	0xbe33dbeb	-0.17564361
96	0x3e0100a8	0.12597907
97	0xbd6c66c8	-0.057715207
98	0x39cfe028	0.00039649126
99	0xbe919bb8	-0.28439116
100	0x3e42886e	0.18997356
101	0x3ae627f4	0.0017559514
102	0xbe8cc7b8	-0.27496123
103	0xbdbffb43	-0.09374096
104	0xbe88895a	-0.2666729
105	0x3df7195a	0.12065382
106	0x3e6a8545	0.22902401
107	0xbe34dce5	-0.1766239
108	0xbdf057c4	-0.1173549
109	0xbc2eabfc	-0.010661121
110	0xbe93acf6	-0.28842896
111	0xbcab70df	-0.020927845
112	0x3bfb2923	0.007664816
113	0x3f11de91	0.56980234
114	0x3dbde18d	0.09271536
115	0xbc83f9d5	-0.01611034
116	0xbdd0a577	-0.1018781
117	0xbe0d42a8	-0.13794959
118	0x3e059877	0.13046442
119	0xbc9b0c09	-0.018926637
120	0xbd925662	-0.071453825
121	0xbe3dff54	-0.18554431
122	0xbc021e85	-0.007941847
123	0x3def66ab	0.11689504
124	0xbd06b96e	-0.032891683
125	0xbe8971a2	-0.26844507
126	0x3e4d0549	0.20021547
127	0x3da8a1f1	0.08234013
128	0x3ccf2050	0.025283962
129	0xbd4836b5	-0.048880298
130	0x3e068ddf	0.13140057
131	0xbc80b589	-0.015711563
132	0x3e97085d	0.29498568
133	0xbee744ad	-0.45169583
134	0xbcc1cdd4	-0.023657717
135	0xbe5f9898	-0.21835554
136	0x3ec1c0fa	0.37842542
137	0x3e2ef8fb	0.17087166
138	0x3e50ae3f	0.2037897
139	0xbda84050	-0.08215392
140	0x3d93b730	0.072126746
141	0xbb347d21	-0.0027540403
142	0xbd18127e	-0.03712701
143	0xbe154528	-0.14577162
144	0x3d86c45f	0.065804236
145	0xbd2f7cec	-0.042843744
146	0x3dfd66c2	0.12373115
147	0x3e964172	0.29346806
148	0x3f021087	0.5080647
149	0x3e4f773b	0.20260327
150	0x3e03f3e7	0.1288601
151	0xbe075e2c	-0.13219517
152	0xbe03c699	-0.12868728
153	0xbd143207	-0.036180522
154	0x3e93baa8	0.28853345
155	0x3ec16427	0.37771723
156	0xbd835f64	-0.06414679
157	0xbe3f1da0	-0.18663645
158	0xbcb88be2	-0.022527639
159	0x3e3762c0	0.17908764
160	0x3e466e80	0.1937809
161	0xbe53dbc3	-0.20689301
162	0x3e2e2e6f	0.170099
163	0x3dba811a	0.091066554
164	0x3e03c1fb	0.12866966
165	0x3ee0ff2f	0.4394469
166	0x3dafb02c	0.08578524
167	0x3c324cc6	0.010882562
168	0x3e9f0c04	0.31063855
169	0xbd6b5348	-0.05745247
170	0xbd50a133	-0.05093498
171	0xbccb178f	-0.024791507
172	0x3c04ed4d	0.008113218
173	0xbc052566	-0.008126592
174	0xbdbd99ad	-0.09257827
175	0xbd99fcd5	-0.07518927
176	0x3cff9eb6	0.031203609
177	0x3da581c1	0.08081389
178	0xbb95c215	-0.0045702555
179	0xbe1a0ce6	-0.15043983
180	0xbc3487df	-0.011018722
181	0xbd927d87	-0.07152849
182	0xbf4f841d	-0.81060964
183	0x3dba52ab	0.09097799
184	0xbd4290a7	-0.047501232
185	0x3ce07a06	0.027401935
186	0xbe188748	-0.14895356
187	0xbe817d08	-0.25290704
188	0x3d1ded86	0.038556598
189	0xbc6fe7ef	-0.0146427
190	0xbadcefc4	-0.0016856124
191	0x3e7e9d57	0.24864708
192	0xbd9ed4cd	-0.07755432
193	0xbe769034	-0.24078447
194	0xbe6a3ddc	-0.2287516
195	0x3e70f9b8	0.2353276
196	0x3d8ea8f2	0.069658175
197	0xbb7cbd76	-0.0038565076
198	0x3eadd1d8	0.3394916
199	0xbe5175a9	-0.2045504
200	0xbc0938aa	-0.008375326
201	0xbf26b77a	-0.65123713
202	0x3ed3b2ef	0.41347453
203	0x3e1f55d3	0.15560083
204	0xbd84dcf3	-0.06487455
205	0x3cc6331d	0.024194295
206	0xbd1ac6ae	-0.037787132
207	0x3df54d05	0.11977581
208	0x3ca12333	0.019670105
209	0x3e9eea5e	0.31038183
210	0xbd4da4c7	-0.050205972
211	0x3b133ac8	0.0022465456
212	0xbc10a3df	-0.008828132
213	0x3d8b924e	0.06815015
214	0xbcfae06e	-0.030624595
215	0xbc1524ac	-0.009102982
216	0xbe331807	-0.17489634
217	0x3e314c2e	0.17314216
218	0xbd0f11cd	-0.034929086
219	0xbe87eb00	-0.26546478
220	0xbf2f2298	-0.6841216
221	0xbcefa9b4	-0.029255725
222	0xbd1b4441	-0.03790689
223	0xbdf9b666	-0.12192993
224	0x3e0b8568	0.13625109
225	0x3dcba5cd	0.09943733
226	0xbc1e949f	-0.009678989
227	0xbe5b2175	-0.21399482
228	0x3e28718e	0.16449568
229	0x3d73d806	0.059532188
230	0x3d6fb38f	0.05852085
231	0xbee6beb1	-0.4506736
232	0x3d0a4ac0	0.033762693
233	0xbbc888c5	-0.00611982
234	0x3b39e9dc	0.002836815
235	0xbd3d3d9d	-0.046201337
236	0x3ce30e21	0.027716698
237	0x3c68bc4d	0.014205051
238	0x3dc90f17	0.09817331
239	0xbdc91827	-0.0981906
240	0x3ca29f2d	0.019851292
241	0x3e1b4c43	0.1516581
242	0xbdc56d48	-0.09639984
243	0xbd608efa	-0.054823853
244	0xbc70ce17	-0.014697573
245	0x3bd90ae3	0.0066236123
246	0xbe03d077	-0.12872492
247	0xbf3b68f0	-0.73206997
248	0x3d930685	0.07178978
249	0x3ea8a34c	0.32937086
250	0xbe78a6c5	-0.24282368
251	0xbdd5ddb8	-0.1044268
252	0xbbaaaf67	-0.005208898
253	0x3ebd043d	0.36917296
254	0x3c8543be	0.016267654
255	0x3c6ef5e3	0.014584991

action.0.bias f4 [64]
0	0xbe861a3b	-0.26191887
1	0x3cd05974	0.02543328
2	0xbea46fb1	-0.32116464
3	0xbe7273d8	-0.23677003
4	0xbd70c0e9	-0.058777723
5	0xbdfe1849	-0.12406976
6	0xbf00676b	-0.50157803
7	0x3ed09663	0.40739736
8	0xbead62b8	-0.3386438
9	0x3ec1eefa	0.37877637
10	0x3ec0423a	0.37550527
11	0xbe8c9cf9	-0.2746351
12	0xbeafccc0	-0.343359
13	0x3ec59f85	0.38598266
14	0xbef709f3	-0.48249778
15	0xbedbaa39	-0.42903307
16	0xbd96af64	-0.07357672
17	0xbec66cde	-0.38754934
18	0xbc592d2b	-0.013255398
19	0xbec501a2	-0.38477808
20	0x3c9a25b3	0.018816805
21	0x3f100461	0.5625668
22	0x3e404ad5	0.18778546
23	0xbe9cd465	-0.30630794
24	0x3ee60c82	0.44931418
25	0xbe92a4fe	-0.28641504
26	0x3eb69fe3	0.3566886
27	0xbd7b6b74	-0.061381772
28	0x3e909617	0.2823951
29	0x3daa1096	0.08303945
30	0x3ebed1ff	0.3726959
31	0x3d2d6da4	0.04234089
32	0xbee66478	-0.44998527
33	0xbe6a6e35	-0.22893603
34	0x3e880311	0.2656484
35	0xbe60f3a6	-0.21967945
36	0xbe331c41	-0.17491247
37	0xbd98bc39	-0.074577756
38	0x3eaada69	0.3336976
39	0x3eea3ed2	0.45751053
40	0x3eba2b8b	0.36361346
41	0xbeb5ac3f	-0.35482976
42	0x3e6cbe50	0.23119473
43	0xbe2a38a2	-0.16623166
44	0xbe7b29d3	-0.24527673
45	0xbdada336	-0.08478396
46	0x3f02722b	0.50955456
47	0x3ee4cafd	0.44686118
48	0xbdcf9a86	-0.10136895
49	0x3bba5669	0.0056865704
50	0xbe12c02e	-0.14331123
51	0x3ec87f54	0.39159644
52	0xbdce33d9	-0.10068483
53	0xbc875ed8	-0.016524717
54	0xbde461ce	-0.11151467
55	0xbe002fd3	-0.12518243
56	0xbdfc77b8	-0.12327522
57	0xbeca652f	-0.39530322
58	0x3e0207ca	0.12698284
59	0xbe7174c0	-0.23579693
60	0x3e77c435	0.24195941
61	0xbedb6926	-0.4285366
62	0x3db56f20	0.08859086
63	0xbd90a2e7	-0.07062321

action.2.weight f4 [64, 64]
0	0x3d4d2c64	0.050091162
1	0x3d58995f	0.05288064
2	0x3e6ab08c	0.2291891
3	0xbdd47432	-0.10373725
4	0xbdd27706	-0.10276608
5	0xbdc78e65	-0.097439565
6	0x3d345252	0.04402382
7	0xbc88f3f1	-0.016717883
8	0xbe1b99f2	-0.15195444
9	0xbe697a37	-0.22800528
10	0xbd5972cf	-0.053088006
11	0xbce623f0	-0.028093308
12	0x3c298f51	0.010349111
13	0x3d339581	0.04384375
14	0x3d55cb75	0.052195985
15	0x3e99c894	0.3003584
16	0xbd1b8699	-0.03797016
17	0x3dac18c2	0.0840316
18	0x3ebde3f7	0.37087986
19	0x3e54e44b	0.20790212
20	0xbcb2b217	-0.021813435
21	0xbeb40408	-0.35159326
22	0x3e82f433	0.25576934
23	0x3db4a438	0.08820385
24	0xbe02e65a	-0.12783185
25	0x3b88ead8	0.004178386
26	0x3dd7b202	0.10531999
27	0x3d451c70	0.048122823
28	0xbdd7aa0e	-0.10530482
29	0x3e244c09	0.1604463
30	0xbd720f5f	-0.05909669
31	0xbd7904e8	-0.060795695
32	0xbd30bc89	-0.04314855
33	0x3db95452	0.09049286
34	0x3e061b83	0.13096432
35	0x3e2d0fdf	0.16900586
36	0xbe6a5285	-0.22883041
37	0xbd89e795	-0.06733624
38	0x3d7a55f9	0.061117146
39	0xbe2a3141	-0.16620351
40	0x3d4f80ce	0.050659947
41	0x3dbb19a9	0.09135754
42	0xbdbb1d74	-0.09136477
43	0x3de0191f	0.109422915
44	0xbd84aa98	-0.06477851
45	0xbc4dbcfb	-0.0125572635
46	0xbe0595b4	-0.13045388
47	0xbd58c1e8	-0.0529193
48	0x3e29f505	0.16597374
49	0xbdb2898a	-0.0871764
50	0x3db0a19b	0.08624574
51	0xbdd5394d	-0.1041132
52	0xbd553ed2	-0.052061863
53	0x3c45af89	0.012065777
54	0x3b557da6	0.0032576113
55	0x3bce5b77	0.0062975246
56	0xbcfaf9c9	-0.030636685
57	0xbdbcb02e	-0.09213291
58	0xbc0711f0	-0.008244023
59	0xbe890724	-0.2676326
60	0xbe636210	-0.22205377
61	0x3e14ed2a	0.14543596
62	0x3d066435	0.03281041
63	0xbd3171fe	-0.043321602
64	0x3b085c63	0.002080702
65	0xbd749c6f	-0.0597195
66	0x3db90d8b	0.09035786
67	0x3c9dc3bf	0.019258378
68	0x3d2c4751	0.0420602
69	0x3e17d052	0.14825562
70	0x3de9a0e8	0.114076436
71	0xbde163f3	-0.11005392
72	0x3cf8cd62	0.030371372
73	0xbe93fd78	-0.2890432
74	0xbe09e495	-0.13466103
75	0xbd89f152	-0.06735481
76	0xbc27ca2a	-0.010241071
77	0x3ca972a5	0.02068455
78	0xbc6266dd	-0.01381847
79	0x3ebb5a1c	0.36592185
80	0x3dcc2b0f	0.0996915
81	0x3da6ac28	0.08138305
82	0x3e808a9a	0.25105745
83	0x3e2d807d	0.16943546
84	0xbb35d8f6	-0.0027747727
85	0xbea3a673	-0.31962928
86	0x3db526de	0.08845304
87	0x3e866229	0.26246765
88	0xbe998761	-0.29986098
89	0x3de744c2	0.112924114
90	0xbe3cc981	-0.18436243
91	0xbbb3aa7c	-0.00548297
92	0xbe2c2507	-0.16811
93	0xbe0e78f8	-0.13913333
94	0x3d94637e	0.07245539
95	0xbdb5684b	-0.08857783
96	0x3dbed465	0.09317855
97	0x3ca4ed4c	0.020132683
98	0x3d58db27	0.052943375
99	0xbe0bfd33	-0.13670807
100	0xbc3fa628	-0.01169733
101	0x3cb41427	0.021982266
102	0xbc25ed6b	-0.010127406
103	0xbe542bf9	-0.20719899
104	0xbd86952f	-0.06571423
105	0x3dadfd54	0.08495584
106	0x3c68a93e	0.014200507
107	0x3e812d85	0.2523004
108	0xbd39ae74	-0.045332387
109	0xbd0b9b8d	-0.03408389
110	0xbd5a40a7	-0.053284314
111	0xbe928e4d	-0.28624192
112	0x3e4ee83c	0.20205778
113	0xbdc60735	-0.096693434
114	0x3c77da10	0.015127674
115	0x3aafc428	0.00134099
116	0x3dc94c56	0.09829013
117	0x3c6e4f4d	0.014545274
118	0x3c9e7ca2	0.019346539
119	0xbca7cc45	-0.020483145
120	0x3de6511e	0.112459406
121	0xbda9f144	-0.08297971
122	0xbdcfdf84	-0.10150054
123	0x3cba069c	0.02270823
124	0xbe614477	-0.21998774
125	0x3dc8ffdc	0.09814426
126	0xbe06b1c3	-0.13153748
127	0xbdef6c7f	-0.11690616
128	0x3dae7e9b	0.08520242
129	0xbda447ac	-0.08021483
130	0xbcc6ae26	-0.024252962
131	0xbe131876	-0.143648
132	0xbddce036	-0.10784952
133	0x3ec1025d	0.37697116
134	0xbe2cc1f5	-0.16870864
135	0xbbbc90bd	-0.005754559
136	0xbde1c839	-0.110245176
137	0xbded5016	-0.11587541
138	0x3c7806e8	0.015138365
139	0xbdaa517e	-0.08316325
140	0xbc35d9a8	-0.011099257
141	0xbf043ccf	-0.51655287
142	0x3d19e27d	0.03756951
143	0x3cdfc124	0.027313776
144	0x3e07f689	0.1327764
145	0xbe9d902e	-0.30774063
146	0xbd1d50b1	-0.03840703
147	0xbd0f386c	-0.034965917
148	0xbf2d2cca	-0.6764647
149	0xbe29b7b2	-0.1657398
150	0x3e5b1c69	0.21397556
151	0xbf140bdf	-0.57830614
152	0xbd358846	-0.044319414
153	0x3c8d3fbf	0.01724231
154	0xbe3a52cb	-0.18195646
155	0x3e687b2a	0.22703233
156	0xbd8111a6	-0.06302194
157	0x3ecac509	0.3960345
158	0xbe416793	-0.18887167
159	0xbe24aa7a	-0.16080657
160	0xbb5a7387	-0.003333302
161	0x3c135fb6	0.008994987
162	0xbe81de22	-0.25364786
163	0x3e2739ef	0.16330694
164	0xbdbefaa2	-0.09325148
165	0x3b5028c2	0.0031762575
166	0x3de006c0	0.109387875
167	0xbd1773ca	-0.03697566
168	0x3e7e5b04	0.24839407
169	0x3d03a947	0.032143857
170	0xbd7a1cd0	-0.061062634
171	0x3e7a9f04	0.24474722
172	0x3d3f0f30	0.046645343
173	0xbd998779	-0.074965425
174	0x3e36a959	0.17838039
175	0x3e4c7f50	0.19970441
176	0x3c9c0e02	0.019049648
177	0xbdcdafe3	-0.10043313
178	0x3e3a8d62	0.18217996
179	0x3e4cbea3	0.19994597
180	0x3d867a01	0.06566239
181	0xbeeec820	-0.46637058
182	0xbc89236c	-0.016740523
183	0xbdb2b0d6	-0.08725135
184	0x3e395d85	0.18102081
185	0x3e13a722	0.14419225
186	0xbe59ed3a	-0.21281901
187	0xbea5597f	-0.32294843
188	0xbc6e451f	-0.014542847
189	0x3d7314a9	0.059345875
190	0xbc369fc8	-0.011146493
191	0xbda56540	-0.080759525
192	0xbdc19eef	-0.09454142
193	0xbb91c82a	-0.0044489102
194	0xbd2ff25f	-0.042955752
195	0xbd8438e5	-0.06456164
196	0xbd3f2235	-0.04666348
197	0x3cf44800	0.029819489
198	0xbdc1ec90	-0.09468949
199	0xbd982511	-0.07428945
200	0xbdfdcef7	-0.12392991
201	0x3d6d5b92	0.057948656
202	0x3cb471bb	0.022026887
203	0x3d008eac	0.031386063
204	0xbdeb4ea0	-0.11489606
205	0x3d68f3e8	0.056873232
206	0xbd71f8e2	-0.059075244
207	0xbd581e33	-0.052763175
208	0x3cbec9a9	0.023289518
209	0xbdb65f4f	-0.089048974
210	0xbca5a650	-0.020220906
211	0x3c58b41a	0.013226533
212	0x3bcbe865	0.006222772
213	0xbde3fde3	-0.111324094
214	0x3d1a1446	0.03761699
215	0xbd0c837c	-0.03430508
216	0x3cca0226	0.024659228
217	0xbde6b54f	-0.112650506
218	0xbe38be90	-0.18041444
219	0xbc2c8557	-0.010529838
220	0xbc684047	-0.014175481
221	0x3da1c497	0.07898825
222	0xbe2c10e3	-0.16803317
223	0xbd92246a	-0.07135852
224	0x3bdba793	0.006703326
225	0x3c237baa	0.009978214
226	0x3ca63782	0.02029014
227	0x3d7283bd	0.059207667
228	0xbd6920a6	-0.0569159
229	0xbd508fc8	-0.05091837
230	0xbd5373c4	-0.051624075
231	0xbd8867b3	-0.06660404
232	0x3d956cc5	0.07296137
233	0xbc8efe4f	-0.017455248
234	0xbded6a23	-0.115925096
235	0x3d1785ef	0.036992963
236	0xbe353fda	-0.17700139
237	0x3d9b5936	0.07585375
238	0x3d4e50e3	0.05037011
239	0xbdb5b07f	-0.088715546
240	0x3b9747f8	0.0046167336
241	0x3c72aecd	0.014812184
242	0x3cc83663	0.024439996
243	0x3bf35f3c	0.0074271243
244	0x3d3c1c4b	0.04592542
245	0x3d6d7f49	0.057982717
246	0xbc483f65	-0.012222146
247	0x3b941846	0.004519495
248	0xbe274dff	-0.16338347
249	0x3daa0266	0.08301239
250	0x3cc48b1a	0.02399211
251	0xbda3cb91	-0.079978116
252	0xbce97f0c	-0.028502963
253	0x3cc9b716	0.024623435
254	0xbd2ae9d7	-0.041726913
255	0x3a118064	0.0005550443

action.2.bias f4 [64]
0	0xbe6f5f82	-0.23376277
1	0xbe28f55d	-0.16499849
2	0xbcb492eb	-0.022042712
3	0xbddc196d	-0.10747037
4	0xbda1a8fc	-0.07893559
5	0xbbc2a326	-0.005939859
6	0xbe3e1a59	-0.18564738
7	0x3e5d85f7	0.21633135
8	0xbdd2abd1	-0.10286678
9	0x3d519e85	0.051176567
10	0xbe1406d4	-0.1445573
11	0xbd661d0f	-0.056180056
12	0xbc8eac2a	-0.017416079
13	0xbe1626c3	-0.14663224
14	0xbd8b9ce1	-0.06817032
15	0x3c03b97f	0.008039831
16	0xbd1d868e	-0.0384584
17	0xbd9d07a2	-0.076674715
18	0xbe0c95ce	-0.13729021
19	0x3b2e7207	0.0026618259
20	0x3e6bd1bd	0.23029228
21	0xbde2200f	-0.11041271
22	0x3e705b4a	0.23472324
23	0x3e824bed	0.25448552
24	0x3e681047	0.2266246
25	0x3e05f259	0.1308073
26	0xbdd7a0bf	-0.10528707
27	0xbdf7ea7e	-0.12105273
28	0x3e3f64d1	0.18690802
29	0x3e2ca08f	0.16858123
30	0xbc5b7f3b	-0.013397033
31	0xbe0bf09a	-0.13666001
32	0xbde7983c	-0.11308333
33	0x3dad17c7	0.08451801
34	0x3d168149	0.03674439
35	0x3e481b90	0.19541764
36	0x3d2cbe1d	0.042173494
37	0xbe058dc4	-0.1304236
38	0xbda233dc	-0.07920048
39	0x3d086abf	0.033304926
40	0x3d026739	0.031836722
41	0xbe536095	-0.20642312
42	0x3c18910b	0.009311925
43	0xbe503822	-0.20333913
44	0xbddc046d	-0.10743032
45	0xbe19a2ac	-0.1500346
46	0x3dace260	0.08441615
47	0xbe178a20	-0.14798784
48	0xbdb8b647	-0.09019142
49	0x3d93c705	0.07215694
50	0xbe21d161	-0.15802528
51	0x3e8df9f2	0.27729756
52	0xbc748439	-0.014924102
53	0x3e6e9561	0.23299171
54	0x3e09888d	0.13430996
55	0x3d9627ca	0.07331808
56	0xbeb0452e	-0.3442778
57	0x3b2523b2	0.0025198278
58	0x3e7084d5	0.23488171
59	0xbe124183	-0.14282803
60	0xbd91ba95	-0.07115666
61	0xbd256c04	-0.040386215
62	0x3e6d6989	0.2318479
63	0x3e1aca69	0.15116276

action.4.weight f4 [11, 64]
0	0xbe1bd52a	-0.15218034
1	0xbe788770	-0.24270415
2	0xbe44f426	-0.1923376
3	0x3dd3e47e	0.10346316
4	0x3a3b320f	0.0007140943
5	0xbea7555f	-0.3268232
6	0x3d1e7ad7	0.038691368
7	0x3d1af58c	0.037831828
8	0x3df43d4d	0.11925755
9	0x3d8c8875	0.068619646
10	0x3d3bb9a1	0.045831326
11	0x3dce4b31	0.100729354
12	0x3bde1419	0.006777298
13	0xbde81987	-0.11332994
14	0x3ab7b006	0.0014014251
15	0xbde2cf74	-0.11074725
16	0xbdc9f7c0	-0.09861708
17	0xbd80b2e5	-0.062841214
18	0xbe0fbf85	-0.14037903
19	0xbd177337	-0.03697511
20	0x3ef7db34	0.48409426
21	0xbdc5c503	-0.09656718
22	0x3e5c1309	0.21491636
23	0x3dd9cebb	0.10635134
24	0x3ccdbcf6	0.025114518
25	0x3cc5c68e	0.02414253
26	0xbb9ac65a	-0.0047233524
27	0xbc020e2d	-0.00793795
28	0x3b04316f	0.0020171066
29	0x3e907d90	0.28220797
30	0xbe5edfc3	-0.21765046
31	0xbcf87826	-0.030330729
32	0xbe18e8fc	-0.14932626
33	0xbde063e5	-0.10956553
34	0x3c1b188e	0.0094663035
35	0x3ea1ae0d	0.31578103
36	0xbdfe3990	-0.12413323
37	0xbe4fb69b	-0.20284502
38	0x3da82613	0.08210387
39	0xbd1839a9	-0.037164364
40	0x3c081ec3	0.008308115
41	0xbdb5ba9c	-0.088734835
42	0xbdb9c7d7	-0.090713196
43	0xbc7b1f50	-0.01532729
44	0xbdee7537	-0.11643451
45	0xbe0085c5	-0.12551029
46	0x3dd4748c	0.10373792
47	0xbb3f3f69	-0.0029182083
48	0x3daf6b3f	0.085653774
49	0x3d63c492	0.055607386
50	0xbd5bb78f	-0.053641852
51	0x3e8b8530	0.27250051
52	0xbda2569d	-0.079266764
53	0x3cc1d50a	0.023661155
54	0xbce3d054	-0.0278093
55	0x3d99e457	0.075142555
56	0xbe5277f3	-0.2055357
57	0x3cb8cac9	0.022557633
58	0x3e7a5b03	0.2444878
59	0xbdbb9304	-0.091589004
60	0xbdb3a1d2	-0.08771099
61	0xbd0c2b32	-0.03422088
62	0x3e40b669	0.18819584
63	0xbc4cb6b5	-0.012494733
64	0x3da87938	0.08226246
65	0x3e8a44c0	0.27005577
66	0x3e5df98b	0.21677224
67	0x3dfb2650	0.12263167
68	0x3bec4a97	0.0072110402
69	0x3e587d1a	0.21141472
70	0x3d27e64d	0.040991116
71	0xbdae405c	-0.08508369
72	0xbe1c3fef	-0.15258764
73	0xbda8a81b	-0.082351886
74	0x3cc30ed1	0.023810776
75	0xbd842e98	-0.064541996
76	0x3d04eae3	0.032450568
77	0xbd99bf1e	-0.07507156
78	0x3cce84f6	0.025209885
79	0x3db563c2	0.08856918
80	0xbc835fe5	-0.016036937
81	0x3d4c872b	0.049933594
82	0x3e233d17	0.15941273
83	0x3c13ab07	0.009012944
84	0xbe983e09	-0.2973483
85	0xbd81c0b1	-0.06335581
86	0xbbfb71ce	-0.0076734787
87	0xbd3f4793	-0.046699118
88	0xbe3fa520	-0.18715334
89	0xbd2657c9	-0.040611062
90	0x3c138b10	0.009005323
91	0x3d315e1d	0.043302644
92	0xbdcea846	-0.10090689
93	0xbdf6da19	-0.120533176
94	0x3d9e9e22	0.07745005
95	0xbd033b51	-0.03203899
96	0x3d83e1f3	0.06439581
97	0xbce336cd	-0.027736092
98	0xbf0e4c8b	-0.55585545
99	0xbe0d888d	-0.13821621
100	0xbdd513ff	-0.104042046
101	0x3e32a3bf	0.17445277
102	0x3cb6bfab	0.022308191
103	0x3bc702d6	0.006073336
104	0xbd30f3c1	-0.04320121
105	0xbab32279	-0.001366689
106	0x3d6b4915	0.057442743
107	0x3e3c5a68	0.18393862
108	0x3dab8438	0.08374828
109	0x3e8a9a61	0.27070907
110	0xbe139fba	-0.144164
111	0x3d27e5e9	0.040990744
112	0xbd1c3eff	-0.038146015
113	0xbd4d68db	-0.050148826
114	0x3d8afd59	0.067866035
115	0xbe498ad1	-0.1968186
116	0x3d74f4f9	0.059803937
117	0xbcacced9	-0.021094726
118	0x3c3f723a	0.011684949
119	0xbe1b31a9	-0.15155663
120	0xbd55a4b7	-0.052159037
121	0xbda50bea	-0.08058913
122	0xbe920ea9	-0.2852681
123	0x3cf1a4a2	0.029497448
124	0xbd1c7bf5	-0.038204152
125	0x3e051b26	0.12998638
126	0xbdd8e653	-0.10590806
127	0xbd4f3195	-0.050584394
128	0xbd89391d	-0.067003466
129	0xbe6fd35b	-0.2342047
130	0xbe735bc2	-0.23765472
131	0x3ce8949f	0.02839118
132	0x3dcf7c1d	0.101310946
133	0xbf3b25ad	-0.73104364
134	0x3df9c572	0.12195863
135	0x3d1b5891	0.03792626
136	0x3e0a2ae3	0.13492922
137	0xbd9e694f	-0.0773493
138	0x3d4b28cc	0.049599454
139	0x3de41efd	0.11138723
140	0x3d04f87a	0.03246353
141	0xbdbae67e	-0.09125994
142	0xbdb43b99	-0.0880043
143	0xbdc82eb9	-0.09774537
144	0xbd795940	-0.06087613
145	0x3ddaaeab	0.106778465
146	0xbe0ac57f	-0.13551901
147	0xbddd3946	-0.1080194
148	0x3ec808eb	0.39069304
149	0x3b6d0464	0.0036165947
150	0x3dfd3177	0.1236295
151	0x3d52d1e6	0.051469706
152	0x3e897738	0.2684877
153	0x3cc9eb29	0.024648266
154	0x3cf10f53	0.029426252
155	0x3d3cf717	0.04613408
156	0xbc8005f5	-0.01562784
157	0x3e6cb37e	0.23115346
158	0xbe4abd61	-0.19798805
159	0x3dc9ad9c	0.098475665
160	0xbdbfc0f8	-0.09362978
161	0xbd7aa80a	-0.06119541
162	0x3ed4aa13	0.41536006
163	0x3e602cc7	0.21892081
164	0xbd29d59f	-0.04146349
165	0xbe684abb	-0.22684757
166	0x3d64be32	0.055845447
167	0x3dd7dc4f	0.105400674
168	0xbcc44ae2	-0.023961488
169	0xbc76a6b6	-0.015054395
170	0xbcd04fe9	-0.02542873
171	0xbe778ce6	-0.24174842
172	0xbe45d48c	-0.19319361
173	0xbeb23a5a	-0.34810144
174	0x3e099fa8	0.1343981
175	0xbd080ee9	-0.033217344
176	0x3da3f031	0.08004797
177	0x3d6cec37	0.05784246
178	0x3c46f2ef	0.012142881
179	0x3db81f46	0.0899034
180	0xbdb55559	-0.088541694
181	0xbc5af1f1	-0.013363347
182	0xbd0f99bb	-0.03505872
183	0x3da541d0	0.08069193
184	0x3e37afea	0.179382
185	0xbda354ba	-0.07975145
186	0x3e63aa10	0.22232842
187	0xbd3a2f93	-0.045455527
188	0xbde8ba96	-0.113637134
189	0xbdae42c2	-0.08508827
190	0x3d9b54ee	0.075845584
191	0xbd4884b9	-0.0489547
192	0x3e148055	0.1450208
193	0x3e2c7a3f	0.16843508
194	0x3e586b91	0.21134783
195	0xbcbdef35	-0.023185352
196	0xbdcc38cb	-0.0997177
197	0xbdba38b4	-0.090928465
198	0x3e1b89b3	0.15189247
199	0xbdcf86b3	-0.10133114
200	0xbd6c5d66	-0.05770626
201	0x3d5e3ce6	0.054257296
202	0x3d2fa1db	0.042878967
203	0x3d9abe42	0.0755582
204	0x3d95b9be	0.07310818
205	0xbd62ab17	-0.055338945
206	0xbd2b4eca	-0.041823186
207	0xbcef7ff1	-0.029235812
208	0x3d7b805f	0.06140172
209	0xbdba063b	-0.090832196
210	0x3e2431ad	0.16034575
211	0x3d2a8cac	0.04163806
212	0xbebefbea	-0.3730157
213	0x3cfe2e02	0.031027798
214	0xbdf1e21f	-0.11810707
215	0xbe33d75e	-0.17562625
216	0xbd449abf	-0.04799914
217	0xbd5c1b73	-0.053737115
218	0x3c362f23	0.011119637
219	0x3a8363e5	0.0010024278
220	0xbe0aa58d	-0.13539715
221	0xbe0453a4	-0.12922531
222	0x3db17641	0.08665133
223	0xbd3a43b0	-0.045474708
224	0x3de03fde	0.10949682
225	0xbd9537b0	-0.07286012
226	0x3f1bcaad	0.60856134
227	0xbe803cc3	-0.25046358
228	0xbd9e7356	-0.07736842
229	0x3e23f680	0.16012001
230	0x3a98a54d	0.0011645943
231	0x3d6bda8a	0.057581462
232	0xbd91c738	-0.07118076
233	0x3d638efd	0.055556286
234	0x3db1b2b1	0.08676661
235	0x3d169d8e	0.03677135
236	0x3d2f933a	0.042865016
237	0x3e4f6377	0.20252787
238	0xbe18bb7b	-0.14915268
239	0xbcbf0575	-0.023318032
240	0x3d4f3690	0.050589144
241	0xbd413e79	-0.04717872
242	0x3c7382f4	0.014862765
243	0xbe3aec2d	-0.18254156
244	0x3d4a8dce	0.04945164
245	0xbd685de5	-0.05673017
246	0x3b82d8ce	0.0039931303
247	0xbe215671	-0.15755631
248	0x3d4bd32b	0.049761932
249	0xbe089c57	-0.13340889
250	0xbe46998c	-0.19394511
251	0x3a77c65c	0.000945186
252	0xbd763b14	-0.060114935
253	0x3d86b026	0.065765664
254	0xbe3cc10c	-0.18433017
255	0xbdd26485	-0.10273079

action.4.bias f4 [11]
0	0x3cd4a260	0.025956333
1	0xbd9f427c	-0.07776353
2	0x3dcedd2d	0.1010078
3	0xbcb8e51f	-0.022570191
4	0xb9a014bd	-0.0003053303
5	0x3de78f73	0.11306658
6	0xbca3da95	-0.020001689
7	0xbc875919	-0.016521977
8	0x3d9e3a65	0.077259816
9	0x3dab2bbc	0.08357951
10	0x3c0ab6c8	0.00846643

critc.0.weight f4 [64, 22]
0	0xbe8d2287	-0.27565405
1	0xbc4c56ce	-0.012471868
2	0x3dcf20f7	0.101137094
3	0xbe860f66	-0.26183623
4	0x3db7f2e0	0.089818716
5	0x3e8607fb	0.26177964
6	0xbe775495	-0.24153359
7	0xbdc1e5a0	-0.094676256
8	0x3de282db	0.11060115
9	0x3dbcbcdf	0.09215712
10	0xbd934a0e	-0.07191859
11	0x3e4b646b	0.19862525
12	0x3e324679	0.17409696
13	0x3e8198bd	0.25311843
14	0xbf128a14	-0.5724194
15	0xbd52245c	-0.051304206
16	0xbec29a22	-0.3800822
17	0x3f03f3c2	0.5154382
18	0xbc2daccf	-0.010600283
19	0xbca003c4	-0.019533046
20	0x3dc425dd	0.09577534
21	0x3e9344a6	0.28763312
22	0xbe947711	-0.2899709
23	0xbc96a9dd	-0.018391544
24	0x3decd4c5	0.1156402
25	0x3c90e098	0.01768522
26	0x3e811d37	0.25217602
27	0x3e722e6d	0.23650523
28	0x3dc30ade	0.09523557
29	0xbc0f8984	-0.008760814
30	0x3c1b93f2	0.009495722
31	0x3e2071e8	0.15668452
32	0x3d8199d2	0.06328167
33	0x3a702cad	0.00091619306
34	0xbdf71657	-0.12064808
35	0x3e9b3152	0.30311066
36	0xbeed31b6	-0.4632699
37	0xbeb95a48	-0.36201692
38	0x3d9f0bcf	0.07765924
39	0x3ee07dc1	0.43845943
40	0xbdcdaaee	-0.10042368
41	0x3e6d4b5d	0.2317328
42	0xbeaecd10	-0.34140825
43	0xbe0283f1	-0.12745644
44	0x3ec5dbb8	0.38644195
45	0xbe89a2cc	-0.26882017
46	0xbd8b411b	-0.06799527
47	0xbecb6938	-0.39728713
48	0x3e517767	0.20455705
49	0x3c688905	0.014192824
50	0x3df134cf	0.117776506
51	0x3e06b497	0.13154827
52	0xbe109a82	-0.1412144
53	0x3d302538	0.043004245
54	0x3dac50dc	0.0841386
55	0xbc82131d	-0.015878255
56	0xbe983a03	-0.2973176
57	0x3d5d14d1	0.05397493
58	0x3de40941	0.111345775
59	0x3d616d12	0.05503566
60	0xbe070402	-0.13185123
61	0xbe4aef48	-0.19817841
62	0xbd94a859	-0.07258672
63	0x3e847f97	0.25878593
64	0xbcefa91b	-0.02925544
65	0x3ddbd730	0.10734403
66	0x3ea425a8	0.3205998
67	0xbe825241	-0.2545338
68	0xbcac384a	-0.021022934
69	0xbeadb5fe	-0.33927912
70	0xbd10ef48	-0.035384446
71	0x3e5c20c5	0.21496876
72	0x3e9cd57f	0.30631635
73	0x3cbbab0d	0.022908712
74	0xbd050764	-0.03247775
75	0xbdbc34fb	-0.09189793
76	0xbd1e19e2	-0.038598903
77	0x3eaeae27	0.34117243
78	0xbecc3740	-0.39885902
79	0x3d59bcc8	0.05315855
80	0xbbbabecc	-0.0056990143
81	0x3d87e32a	0.06635125
82	0x3db13ef8	0.086545885
83	0x3cd75303	0.0262847
84	0x3e76a3d7	0.24085937
85	0x3e970ff8	0.2950437
86	0xbe3370f3	-0.17523555
87	0x3ec06bbe	0.375822
88	0x3ea0b56a	0.31388408
89	0xbc880c97	-0.016607566
90	0x3e3df762	0.185514
91	0xbed38b5c	-0.4131726
92	0x3efa6b6d	0.48910084
93	0x3e81c5f8	0.2534635
94	0x3d9d5095	0.076813854
95	0xbcb46641	-0.022021415
96	0xbcd4af54	-0.02596251
97	0xbd9cdf4e	-0.076597795
98	0xbac18450	-0.0014764164
99	0x3e81786c	0.25287187
100	0xbd2b87c0	-0.04187751
101	0x3e52cdf8	0.20586383
102	0xbe844175	-0.2583119
103	0xbdc86b0d	-0.09786043
104	0x3e037b4b	0.12840001
105	0xbdd0bea1	-0.101926096
106	0x3e8564ed	0.26053563
107	0x3e031af1	0.12803246
108	0x3db5a9da	0.08870287
109	0x3e14480c	0.14480609
110	0xbe032688	-0.12807667
111	0xbe548dfc	-0.20757288
112	0xbe2d7b63	-0.169416
113	0xbe321e6e	-0.1739442
114	0xbd6d38a5	-0.05791535
115	0xbdeb911f	-0.11502289
116	0xbe5f3594	-0.21797782
117	0x3d9d437a	0.07678886
118	0xbd318882	-0.043343075
119	0x3d81484c	0.06312618
120	0xbcffdcf2	-0.031233285
121	0xbee0fc3c	-0.4394244
122	0x3e9063cb	0.28201136
123	0xbef789d4	-0.48347342
124	0x3c6f74ba	0.014615232
125	0xbea35646	-0.3190176
126	0x3e378c11	0.17924525
127	0x3dd42cc1	0.10360099
128	0x3dec2e8d	0.11532316
129	0x3f30f472	0.69122994
130	0x3efb31c4	0.49061406
131	0x3f387fe4	0.72070146
132	0x3e9db6af	0.3080344
133	0x3dfae1aa	0.12250073
134	0x3e4d6233	0.20056991
135	0xbe9ce4ad	-0.30643216
136	0x3f028f04	0.50999475
137	0x3e0fb7e9	0.14035
138	0xbdae7b62	-0.08519627
139	0xbe479654	-0.1949094
140	0x3e70de4a	0.23522297
141	0x3e2be3ad	0.1678607
142	0x3df826df	0.12116789
143	0x3d866161	0.06561542
144	0x3d401a6c	0.046900198
145	0x3e2abcd0	0.16673589
146	0xbd9cba7d	-0.07652757
147	0xbe463ff3	-0.19360332
148	0xbdb2008b	-0.0869151
149	0x3e03ce81	0.12871744
150	0xbd38910f	-0.045060214
151	0x3da05195	0.078280605
152	0xbe2330a3	-0.15936522
153	0xbe040d84	-0.12895781
154	0x3ee17bfd	0.44039908
155	0xbe4481d8	-0.19190156
156	0xbdb8cc28	-0.09023315
157	0xbe8916d1	-0.2677522
158	0x3eae73a5	0.34072605
159	0x3c8d9f21	0.017287793
160	0x3d87064b	0.06592997
161	0x3e206fae	0.15667602
162	0x3d8714a4	0.06595734
163	0xbdc069a6	-0.09395151
164	0xbd287f8a	-0.041137256
165	0xbd700bcf	-0.05860501
166	0xbe73ccbb	-0.23808567
167	0x3d1e8d87	0.03870919
168	0xbe7a6b7a	-0.24455062
169	0xbe0f3f5e	-0.13989016
170	0xbda92c1e	-0.08260368
171	0xbde18f24	-0.1101363
172	0x3e20997d	0.15683551
173	0x3ea1596b	0.31513533
174	0xbe8d2426	-0.27566642
175	0xbe1d785a	-0.15377942
176	0xbe7c2d66	-0.24626693
177	0x3d3cbd8c	0.046079203
178	0xbe0d147d	-0.13777347
179	0x3efe6d84	0.4969293
180	0xbf110111	-0.5664225
181	0xbdbf1eb0	-0.09332025
182	0xbea9af3b	-0.33141503
183	0x3d77c9e1	0.06049526
184	0xbcc5df64	-0.024154373
185	0x3d10d834	0.035362437
186	0xbc8a4a10	-0.016881019
187	0x3d0934de	0.033497684
188	0xbe1a91cc	-0.1509468
189	0x3c813b9e	0.015775498
190	0xbb5bf95b	-0.0033565375
191	0xbd0b447a	-0.03400085
192	0x3d9e1abe	0.077199444
193	0x3eea9fd0	0.45825052
194	0xbdc65fcd	-0.09686241
195	0xbeca86af	-0.3955588
196	0xbe85dde8	-0.26145864
197	0x3e600041	0.21875097
198	0xbdc17f63	-0.09448125
199	0xbd8d9904	-0.06913951
200	0xbe1feb01	-0.1561699
201	0xbea9e89c	-0.3318528
202	0xbf439aff	-0.7640838
203	0xbf827356	-1.0191448
204	0xbd78b144	-0.06071593
205	0x3c62aa6f	0.01383458
206	0x3d45e75a	0.048316337
207	0x3dd650a0	0.10464597
208	0x3d192a53	0.03739388
209	0xbf2079cc	-0.6268585
210	0x3f62708b	0.88452977
211	0xbec3f375	-0.3827168
212	0x3f1fd575	0.62435085
213	0x3ee06953	0.43830356
214	0xc0109d6a	-2.2596078
215	0xbe53c1da	-0.20679417
216	0x3f17da3b	0.5931737
217	0xbf0eea28	-0.55826044
218	0xbf2320e5	-0.6372207
219	0x4010b474	2.261014
220	0x3d956dea	0.07296355
221	0x3f08f02b	0.5349147
222	0xbc5f0799	-0.013612651
223	0x3e07644d	0.13221855
224	0x3f16d0e8	0.58912516
225	0x3fa99c63	1.325085
226	0x3d5ddbe4	0.054164782
227	0x3d36fa28	0.04467216
228	0xbdd941b0	-0.10608232
229	0xbe0885e3	-0.13332324
230	0xbd37e353	-0.044894528
231	0x3dd0d5cb	0.10197028
232	0x3e60b010	0.21942163
233	0xbf0a1a78	-0.5394664
234	0xbebe731a	-0.3719719
235	0xbf004afc	-0.5011442
236	0xbe8bee57	-0.27330276
237	0x3e9a6af3	0.3015972
238	0x3f33ac5f	0.7018489
239	0x3e47ff8e	0.1953108
240	0xbe8632f0	-0.26210737
241	0x3f0d5096	0.5520109
242	0x3e231e13	0.15929441
243	0xbdb75dcf	-0.089534394
244	0xbd19c1dd	-0.037538398
245	0x3e7d5910	0.24741006
246	0xbeb1b67b	-0.34709534
247	0x3e06e274	0.13172323
248	0x3edd124c	0.43178022
249	0xbdb4bde9	-0.08825285
250	0x3d5fed5f	0.054669734
251	0x3c8940c8	0.016754523
252	0x3ccb4bcb	0.024816414
253	0xbefa8281	-0.48927692
254	0xbde4c82d	-0.11170993
255	0xbe24055e	-0.16017672

critc.0.bias f4 [64]
0	0xbd9ef50c	-0.07761583
1	0xbe9edca1	-0.31027701
2	0x3f8e4e3b	1.1117624
3	0x3f5bdce1	0.8588391
4	0x3f4115c4	0.75423837
5	0x3dbdc7da	0.09266634
6	0x3f8378a5	1.0271193
7	0x3f789944	0.97108865
8	0xbc24e390	-0.010064021
9	0x3e0647f8	0.13113391
10	0xbd85ef4d	-0.065397836
11	0x3f1ec404	0.62017846
12	0x3efb3ade	0.4906835
13	0x3f855e40	1.0419388
14	0x3f2cec5f	0.67548174
15	0x3f64b099	0.89331967
16	0xbedb892d	-0.42878094
17	0xbe8c3dad	-0.27390805
18	0xbdae5940	-0.08513117
19	0xbefc44ea	-0.49271327
20	0x3e23131e	0.15925261
21	0x3f61df15	0.8823102
22	0x3f80ab31	1.0052243
23	0x3e3ae57c	0.18251604
24	0xbec0ab04	-0.37630475
25	0x3e190d67	0.14946519
26	0xbec015a4	-0.3751651
27	0xbeebc0e8	-0.46045613
28	0xbe4e2982	-0.20133021
29	0xbf02028a	-0.50785124
30	0xbe32b663	-0.17452388
31	0x3f467aa4	0.77530885
32	0xbe80cfa3	-0.25158414
33	0x3f13d3d8	0.5774512
34	0xbe966850	-0.2937646
35	0x3f664842	0.89954007
36	0x3ef1929b	0.47182164
37	0x3f679e5e	0.90476024
38	0x3f31688f	0.6930017
39	0x3f4b2103	0.79347247
40	0x3f5d6723	0.864855
41	0x3f55684a	0.8336226
42	0x3d6f7f3d	0.058470953
43	0x3f11e8c5	0.56995803
44	0x3d756053	0.059906315
45	0x3e3bf487	0.18354999
46	0x3f3b2ecf	0.731183
47	0xbed24915	-0.41071382
48	0xbef9395d	-0.48676577
49	0xbed6f152	-0.41980988
50	0x3f5461f8	0.8296199
51	0x3dcd7924	0.10032871
52	0xbd8bde97	-0.06829565
53	0x3ec08a92	0.3760572
54	0xbcb5a9e5	-0.022175739
55	0x3eab48dc	0.33454025
56	0xbf280815	-0.6563733
57	0x3ea0f361	0.31435683
58	0xbf2cd711	-0.67515665
59	0xbea2e760	-0.3181715
60	0xbe6a5323	-0.22883277
61	0x3f40a1cd	0.7524689
62	0x3e00413f	0.1252489
63	0x3ea01517	0.3126609

critc.2.weight f4 [64, 64]
0	0xbe8423ae	-0.2580847
1	0x3cd3f504	0.025873668
2	0x3eb3411a	0.35010606
3	0x3e62b996	0.22141108
4	0x3e24e64d	0.16103478
5	0x3da241f7	0.07922738
6	0x3dbf8bec	0.0935286
7	0x3e3d367f	0.1847782
8	0xbd4d6b73	-0.0501513
9	0xbe7a2302	-0.24427417
10	0xbea873e6	-0.32900923
11	0x3e114ca3	0.14189391
12	0x3e6ef36b	0.23335044
13	0x3e3930b3	0.18084984
14	0xbda11807	-0.07865911
15	0x3e01352a	0.12617937
16	0x3df74715	0.12074105
17	0xbec2c480	-0.38040543
18	0xbf32c0b6	-0.69825304
19	0x3e09c6de	0.13454768
20	0xbda361d3	-0.07977643
21	0x3e7b76f3	0.24557094
22	0x3e99c4fe	0.30033106
23	0xbd373a22	-0.044733174
24	0x3a0d9fe6	0.000540255
25	0xbdf629e7	-0.12019711
26	0x3df95619	0.12174625
27	0x3b0b616d	0.0021267787
28	0x3d0f5b6a	0.03499929
29	0x3d380653	0.044927906
30	0x3c322dde	0.010875193
31	0xbefdf97f	-0.49604413
32	0xbe9e05a1	-0.3086367
33	0x3e1890d8	0.14899004
34	0x3d569731	0.05239028
35	0x3eba1bdd	0.36349383
36	0x3d93af74	0.072111994
37	0x3e1265b2	0.14296606
38	0x3dc33311	0.095312245
39	0x3e180421	0.14845325
40	0x3e92857d	0.28617468
41	0x3de2694d	0.11055241
42	0x3e155884	0.14584547
43	0xbd57bed2	-0.052672215
44	0x3dacd2f3	0.08438673
45	0xbcf4e580	-0.02989459
46	0x3e6d7983	0.23190884
47	0xbdbfa952	-0.09358467
48	0xbdb36a93	-0.08760562
49	0x3d8d392b	0.068956695
50	0x3ea5ba7f	0.32368848
51	0xbef2234b	-0.4729255
52	0x3cea766c	0.028620921
53	0x3e0437a8	0.12911856
54	0xbe4330dd	-0.19061609
55	0x3d285fef	0.041107114
56	0xbdda43d1	-0.10657466
57	0x3e263a45	0.16233166
58	0x3dcc9c73	0.09990778
59	0x3ce95921	0.028484883
60	0x3d3c3ebc	0.045958266
61	0x3e3120f1	0.17297722
62	0xbe140501	-0.14455034
63	0xbdabd199	-0.08389587
64	0x3e03dddf	0.12877606
65	0x3d7e33d1	0.062061135
66	0x3ecaaac7	0.39583418
67	0x3e029b67	0.12754594
68	0x3e07a89d	0.13247915
69	0xba8cc30c	-0.0010739281
70	0x3ebe26fa	0.37139112
71	0x3e5a766a	0.21334234
72	0x3db45d31	0.08806837
73	0x3e490dd6	0.19634184
74	0x3dc8e533	0.09809341
75	0x3e0ab458	0.13545358
76	0xbc5bbbea	-0.013411501
77	0x3ed1f4d1	0.41007093
78	0x3ce1b61b	0.027552655
79	0x3eb5fed3	0.35545978
80	0xbdcd8578	-0.10035223
81	0x3e2006b8	0.15627563
82	0x3e8e3ce1	0.27780822
83	0x3e09a2b9	0.1344098
84	0x3d0052e7	0.03132906
85	0x3eadef13	0.33971462
86	0x3f1a6a17	0.6031813
87	0x3e041c45	0.12901409
88	0xbc0c125d	-0.0085493
89	0x3e2a0703	0.16604237
90	0x3debb27a	0.11508651
91	0x3d9831a9	0.07431347
92	0x3de015f8	0.1094169
93	0x3d3f7d8e	0.046750598
94	0x3e0a2580	0.13490868
95	0x3ecfbb3a	0.4057253
96	0x3bf4e096	0.007473062
97	0xbd6ca8fa	-0.057778336
98	0x3e0442fe	0.1291618
99	0x3e943b05	0.28951278
100	0x3c5c74f2	0.013455616
101	0x3e90e4a0	0.28299427
102	0x3e7f29aa	0.24918237
103	0x3e89cdbd	0.26914778
104	0x3e79a0ca	0.24377742
105	0x3e9055b2	0.2819038
106	0x3dd70d83	0.10500624
107	0x3c273a33	0.010206747
108	0x3d82e9a1	0.063922174
109	0x3d90af5d	0.07064698
110	0x3e86dff6	0.26342744
111	0x3b48a4f7	0.0030615905
112	0xbcb773e3	-0.022394126
113	0xbd680587	-0.056645896
114	0x3e7914c3	0.24324326
115	0x3e6af53a	0.22945109
116	0x3d892c81	0.066979416
117	0xbd6f2941	-0.058388952
118	0x3e361009	0.17779554
119	0x3d2a8650	0.041631997
120	0x3e05124b	0.1299526
121	0x3ccf1607	0.025279058
122	0x3d9c6b09	0.07637603
123	0x3dd026cb	0.10163649
124	0xbc80f2f4	-0.01574085
125	0x3e69b571	0.2282312
126	0xbda87854	-0.08226076
127	0x3b428350	0.002968032
128	0x3d0c361f	0.0342313
129	0x3e487c6b	0.19578712
130	0x3eab2ee4	0.33434212
131	0x3d72ec7d	0.059307564
132	0x3e20051a	0.15626946
133	0x3c00d847	0.007864065
134	0x3e7344bc	0.23756689
135	0x3ea3894c	0.31940687
136	0x3d321b56	0.0434831
137	0x3dc2b543	0.09507229
138	0x3de09ff3	0.10968008
139	0x3d13b551	0.03606159
140	0x3df21ab3	0.11821499
141	0x3e593cb4	0.21214563
142	0x3dffb0dd	0.12484906
143	0x3ed08848	0.40728974
144	0xbd38091f	-0.044930574
145	0x3e179c36	0.14805683
146	0x3eb3b4b2	0.35098797
147	0x3d26a386	0.04068329
148	0x3d49a306	0.049227737
149	0x3ec53821	0.38519385
150	0x3f1250f9	0.57154804
151	0x3e47e9cc	0.1952278
152	0x3e02eef3	0.12786464
153	0x3dc521d0	0.0962559
154	0xbd43ad86	-0.047772907
155	0x3e3fcbf2	0.18730143
156	0x3e09006e	0.1337907
157	0x3db3d34d	0.08780537
158	0xbd1b0819	-0.03784952
159	0x3eb6adf0	0.3567958
160	0x3d4140ef	0.047181066
161	0x3e29e12f	0.16589807
162	0xbd8b2ff8	-0.06796259
163	0x3f165930	0.5872984
164	0x3e3ce68f	0.18447326
165	0x3e7d6d2e	0.2474868
166	0x3d561dee	0.052274637
167	0x3d019c4c	0.031643197
168	0x3e4c745d	0.19966264
169	0x3e1f2143	0.15540032
170	0x3e5666c4	0.2093764
171	0x3af44882	0.0018637332
172	0x3dd4883d	0.10377548
173	0x3b6f801a	0.003654486
174	0x3e9d489a	0.30719453
175	0x3c360816	0.011110326
176	0x3d13fa81	0.03612757
177	0x3e403043	0.1876841
178	0x3e850981	0.25983813
179	0x3da728dd	0.08162091
180	0x3e02e1ad	0.12781401
181	0x3e25dfb9	0.16198625
182	0x3d98ebfb	0.07466885
183	0x3d661571	0.056172792
184	0x3d70456f	0.058659967
185	0x3e423121	0.18964054
186	0xbc905280	-0.017617464
187	0xbd812c35	-0.0630726
188	0x3d6a720f	0.05723768
189	0x3eb00275	0.34376875
190	0xbbf14a92	-0.007363626
191	0x3db944b1	0.09046305
192	0x3cec4b66	0.028844547
193	0x3af77663	0.0018879886
194	0x3db97656	0.09055774
195	0x3c0d14f6	0.0086109545
196	0xbd0d0639	-0.034429763
197	0xbda64a26	-0.081196114
198	0xbd5ad8ee	-0.053429537
199	0x3d6a38b5	0.057182986
200	0xbce120cc	-0.02748146
201	0xbddf1222	-0.108921304
202	0x3ce08ac7	0.027409924
203	0x393b1c00	0.0001784414
204	0xbddff162	-0.10934712
205	0xbe10caa1	-0.14139797
206	0xbd9b847b	-0.07593628
207	0xbe3008c8	-0.1719085
208	0xbdad44b4	-0.0846037
209	0xbc00c3f7	-0.007859222
210	0xbd6b4e7f	-0.057447907
211	0x3d93b6f8	0.07212633
212	0x3c1c8eae	0.009555502
213	0xbe267c29	-0.16258301
214	0x3d771eb2	0.060332008
215	0x3decce30	0.11562765
216	0x3d141bba	0.036159255
217	0x3d1b0573	0.037846994
218	0xbe0e11c3	-0.13873963
219	0xbe11c72b	-0.14236133
220	0x3d0d87b3	0.03455324
221	0xbdf076be	-0.11741398
222	0xbd6b56ac	-0.057455704
223	0xbcaad680	-0.020854235
224	0x3df55dee	0.11980806
225	0x3db454fc	0.08805272
226	0xbd9d81f8	-0.07690805
227	0xbdbd9a76	-0.09257977
228	0xbd8c37f7	-0.06846612
229	0xbdb966ca	-0.090528086
230	0xbe39296d	-0.18082209
231	0x3dac6003	0.0841675
232	0xbe249bca	-0.16075054
233	0xbdff6d7a	-0.12472053
234	0xbaaa5680	-0.001299575
235	0xbda03c59	-0.078240104
236	0xbc17fdf0	-0.009276852
237	0xbde22336	-0.11041872
238	0xbd393ce7	-0.045224097
239	0xbc9f0ad0	-0.019414335
240	0xbe078f04	-0.1323815
241	0xbe2ffb47	-0.17185698
242	0xbd11b1e8	-0.035570055
243	0xbde41fb2	-0.11138858
244	0xbd9112c5	-0.07083658
245	0x3df18102	0.117921844
246	0x3dce821c	0.1008341
247	0x3d4f49c1	0.050607447
248	0x3cc8376f	0.024440495
249	0xbdca9c74	-0.09893122
250	0x3db33f55	0.08752314
251	0xbccbaa90	-0.024861604
252	0x3d6bfba8	0.057613045
253	0x3d4722a3	0.048617017
254	0xbc66bbe1	-0.01408288
255	0x3b5b4180	0.003345579

critc.2.bias f4 [64]
0	0x3f332151	0.6997271
1	0x3f0d4726	0.5518669
2	0x3f4923cb	0.7857024
3	0xbe12468a	-0.14284721
4	0x3f52ecca	0.8239256
5	0x3c1f3eec	0.009719592
6	0xbdfc4566	-0.12317924
7	0xbe3ed229	-0.18634857
8	0x3f5b0d1e	0.8556689
9	0x3f53c1f0	0.827178
10	0x3d3cf6d5	0.046133835
11	0xbe2de861	-0.16983177
12	0xbc7bfc05	-0.01537991
13	0x3e9f7c7d	0.31149665
14	0xbd906a08	-0.07051474
15	0xbc41a3e3	-0.011818859
16	0x3ebde5ea	0.37089473
17	0xbb27f049	-0.00256254
18	0xbdf4bf38	-0.119505346
19	0xbc308858	-0.010774694
20	0xbe720f5e	-0.23638675
21	0xbe0162c5	-0.12635334
22	0x3f207e18	0.62692404
23	0xbe00b439	-0.1256875
24	0x3f405b4d	0.75139314
25	0xbddb8e48	-0.10720497
26	0xbd11eddd	-0.035627235
27	0xbdd8fb42	-0.105947986
28	0x3daf0df9	0.08547587
29	0xbe93a457	-0.2883632
30	0xbe01968a	-0.12655082
31	0xbda48daa	-0.08034833
32	0x3f22e083	0.6362383
33	0xbcdd6020	-0.027023375
34	0xbe2a32a5	-0.16620882
35	0xbcdecbad	-0.02719673
36	0xbda84ddd	-0.08217976
37	0xbda15b37	-0.07878726
38	0xbdc9c26c	-0.09851536
39	0xbea9f09f	-0.33191392
40	0xbd16f1a9	-0.03685156
41	0x3ef28f33	0.47374877
42	0x3e4373e9	0.19087185
43	0x3f2f254c	0.68416286
44	0xbdc48b64	-0.09596899
45	0x3f5c7b52	0.8612567
46	0xbec95ef2	-0.3933025
47	0xbd3f9f22	-0.04678262
48	0xbeae5eaf	-0.34056613
49	0x3efab6fb	0.48967728
50	0xbeeef6e7	-0.46672747
51	0x3f325856	0.6966604
52	0xbd9c7ade	-0.076406226
53	0x3ed7864a	0.42094642
54	0xbba80f60	-0.005128786
55	0x3f0b6d17	0.5446333
56	0x3f2bf58a	0.6717154
57	0x3d9f697d	0.07783792
58	0xbdde12ee	-0.10843454
59	0xbdcac35c	-0.09900543
60	0xbddcdc57	-0.10784214
61	0xbdf63244	-0.12021306
62	0xbd8814b9	-0.066445775
63	0x3f270a49	0.6525007

critc.4.weight f4 [1, 64]
0	0xbedf3ff1	-0.4360347
1	0xbec9aba4	-0.39388764
2	0xbe94ac5d	-0.29037753
3	0xbe105209	-0.14093794
4	0xbf085908	-0.5326085
5	0x3bdbc4dd	0.0067068175
6	0x3e4b9353	0.19880418
7	0x3e37214d	0.17883797
8	0xbf1c749e	-0.61115444
9	0xbf0e3903	-0.5555574
10	0xbdbb7e76	-0.0915498
11	0xbca2cbd6	-0.019872587
12	0xbc775557	-0.01509603
13	0xbec29211	-0.38002065
14	0xbc33820d	-0.0109562995
15	0xbdd16eaa	-0.102261856
16	0xbea835ad	-0.3285345
17	0xbdaa6f0b	-0.08321961
18	0xbdb5f9bd	-0.088855244
19	0xbdccb588	-0.09995562
20	0x3ce2dc26	0.027692866
21	0xbc6c8acd	-0.01443739
22	0xbeb5e0f2	-0.35523182
23	0xbda134f4	-0.07871428
24	0xbefb19fd	-0.49043265
25	0xbdbea15c	-0.093081206
26	0xbd96856e	-0.073496684
27	0xbd4bb243	-0.04973055
28	0xbd852b86	-0.06502442
29	0x3e277046	0.16351423
30	0x3dc27f68	0.09496957
31	0xbdbf4b41	-0.093405254
32	0xbeced352	-0.403956
33	0xbdfea6d6	-0.12434165
34	0x3e038537	0.12843786
35	0xbd817bcd	-0.06322441
36	0xbd5963c4	-0.05307366
37	0x3dd92c7c	0.10604188
38	0xbcd7efe5	-0.026359508
39	0x3dca659a	0.0988266
40	0xbda65edf	-0.08123564
41	0xbeb25429	-0.34829834
42	0x3e1cc0db	0.15307944
43	0xbed53664	-0.4164306
44	0x3d4dc322	0.05023492
45	0xbf337dd1	-0.70113856
46	0x3dc98c0f	0.09841167
47	0x3d0923f9	0.03348157
48	0x3d857b42	0.0651765
49	0xbe28573e	-0.1643953
50	0x3ddcfeec	0.1079081
51	0xbeb86013	-0.360108
52	0xbd9b3db5	-0.07580129
53	0xbea77162	-0.32703692
54	0xbdc1498a	-0.094378546
55	0xbe9d5f2e	-0.3073668
56	0xbeb113ba	-0.34585363
57	0x3de768d9	0.11299295
58	0x3dc65c8a	0.09685619
59	0x3ca1584d	0.019695425
60	0xbcd63f2d	-0.026153171
61	0xbc5544cd	-0.013016892
62	0x3d5bc579	0.05365512
63	0xbec1c8cc	-0.37848508
