saved_modelV2/Hopper/0.01/adversarial_attack_rs_seed_16381.pth (torch, 48833 bytes, 11 tensors)

action.0.weight f4 [64, 11]
000000 fb df 1d 3e 58 8b 2d 3d 58 6d 87 3d e9 a7 90 3d
       0.15417473 0.042369217 0.066126525 0.07063276
000010 83 b3 39 3d a2 36 8a 3f 5a 36 44 bb e2 73 83 3e
       0.04533721 1.0797923 -0.0029939623 0.2567435
000020 cc 4f 8f be e8 59 64 be 79 41 04 bd ba 99 3a 3e
       -0.27990568 -0.22299922 -0.032289002 0.18222705
000030 54 3a 03 3e c9 6a b8 3d f7 8d a4 3c 3e cd bb be
       0.12815219 0.09004743 0.020087225 -0.36680025
000040 93 67 2a 3d da 7e 65 3e 8f 4a 12 3e 9a db f7 bd
       0.041602682 0.22411671 0.14286254 -0.121024325
000050 18 f6 96 bd 52 90 99 bc 19 01 cb 3e b2 32 21 bf
       -0.073711574 -0.018745575 0.39649275 -0.6296798
000060 aa 89 85 be 3a d3 7d bf bf 9c 32 3e bc e6 39 bd
       -0.26081592 -0.9915043 0.17442606 -0.04538606
000070 3a 6b 31 3e 53 40 12 be 9c cd 0c 3e 91 4a bc 3d
       0.1732606 -0.1428235 0.13750309 0.0919391
000080 ee f2 9c bb 5e a1 82 3e cd 40 28 3e 70 91 74 3d
       -0.0047897017 0.25513738 0.1643097 0.059709013
000090 fb fa 89 3e 26 17 a3 3e e6 34 56 be b5 66 d8 bc
       0.26949295 0.31853598 -0.20918617 -0.026416162
0000a0 1b 54 00 be aa b5 f2 3d e7 d6 ba 3d 10 ba 93 3c
       -0.12532084 0.11851056 0.091230206 0.018033057
0000b0 b0 bd d2 3e 3f 2f ef ba 74 e6 4e be 1e aa 0f be
       0.41160345 -0.0018248333 -0.20205098 -0.14029738
0000c0 b5 ba ce 3e b5 43 6b be 6b ac 69 be eb aa b1 bc
       0.4037682 -0.22975047 -0.22819678 -0.021687945
0000d0 ef f9 41 3d 69 d5 46 3d 79 0c 5e 3b 69 1e c0 3e
       0.047357496 0.048543368 0.0033881946 0.375232
0000e0 e7 c9 b6 3d 5f 7d cf 3d 73 d4 4f bd e8 ba f7 bd
       0.089252286 0.101313345 -0.050739717 -0.120961964
0000f0 a0 e1 fb 3c 33 d2 39 3c 5f 04 31 3e b2 10 34 be
       0.030747235 0.011341619 0.17286824 -0.17584494
000100 27 87 3f 3d da 11 2b 3d 17 97 4c be 2a 3d 50 be
       0.04675975 0.04176507 -0.19979511 -0.20335832
000110 ae 87 0c bd b7 7b dc bb 48 b5 1f 3f d0 a8 f9 bd
       -0.03430908 -0.006728615 0.6238599 -0.121904016
000120 e1 fc b8 3e 3d 87 a6 3b 92 d0 20 bb d3 32 10 3c
       0.3613043 0.0050820396 -0.002453838 0.00880118
000130 47 82 34 3c 78 d1 b5 3d 75 33 f3 3e f2 f7 4a bd
       0.011017389 0.088778436 0.47500196 -0.049552865
000140 17 2f 62 3f cf 8b 0b bf 5b d5 26 3e 35 51 c8 3e
       0.88353103 -0.54510206 0.16292326 0.39124456
000150 93 87 3c 3e 89 04 36 be c6 af 22 be db 6c 50 3c
       0.18411092 -0.17775168 -0.15887365 0.012721266
000160 7e f0 88 be d7 51 d1 bd bc dc ce b9 c2 91 3a be
       -0.2674598 -0.10220688 -0.00039455842 -0.18219665
000170 c8 9f d2 3d dc 2c 0b bd ce 20 e1 bd 28 18 0c be
       0.10284382 -0.033978328 -0.10992585 -0.1368109
000180 33 7b cb 3d a6 37 53 3d 71 77 40 bd b0 74 82 be
       0.09935608 0.051566742 -0.04698891 -0.2547965
000190 85 6b 6c be 1a f0 9e 3d 20 7e bb be 0a 59 c1 be
       -0.2308789 0.077606395 -0.36619663 -0.37763244
0001a0 35 fd 9b be dd f5 18 be 8a 4d 20 be 90 ae 18 3e
       -0.3046662 -0.1493754 -0.15654579 0.1491034
0001b0 23 ff d3 3d 6b c9 6c 3c 06 b7 f1 be 24 fe e2 bd
       0.10351398 0.014452319 -0.47209948 -0.1108363
0001c0 41 ab 23 be bb d4 a1 3d 6b 76 24 3e ea f1 5f bd
       -0.15983297 0.07901903 0.16060798 -0.054674067
0001d0 9e bc 62 bc 50 16 70 be 1e 1b 79 3e 1e b2 99 bd
       -0.013838915 -0.23446012 0.2432675 -0.07504676
0001e0 84 17 74 bd c7 95 b7 be 80 72 c2 3e 24 9c 96 3e
       -0.05959274 -0.3585646 0.37977982 0.29416
0001f0 70 95 c8 3e 4c 4b 17 bf 92 12 5f 3d 03 94 b1 bd
       0.39176512 -0.5909927 0.05446107 -0.08670809
000200 8e d8 97 3d 68 f6 27 bd 79 23 66 3d a5 32 46 3d
       0.074143514 -0.041006476 0.056186173 0.048388142
000210 34 f4 6e be 57 14 24 be 15 74 bd bd ba 4e 7b be
       -0.23335344 -0.16023384 -0.092506565 -0.2454175
000220 23 d2 44 bd 97 4a 39 3d a5 70 0f 3e 1f 2b b8 3d
       -0.048051964 0.04523715 0.14007814 0.089926
000230 75 5d b6 bd db b8 2d bd ff cc 72 bb f4 c2 8c 3e
       -0.08904544 -0.04241262 -0.0037048457 0.27492487
000240 62 43 ad 3d 88 32 0e bc d8 24 9a 3c 5a 97 03 be
       0.08460118 -0.00867904 0.018816397 -0.12850705
000250 2d 5c 78 be 87 94 35 bc c2 77 96 3e 41 b1 78 be
       -0.24253912 -0.011082775 0.29388243 -0.24286367
000260 90 69 03 be ba c9 1a bc 3d f0 1c be 09 23 24 3d
       -0.12833238 -0.009447509 -0.15326019 0.040072475
000270 fb 3a 56 3d 1c a0 f1 be d0 20 4c 3d ba 5e 24 3e
       0.052302342 -0.47192466 0.04983598 0.1605176
000280 c7 a3 49 3e 7e e7 b9 bd 25 34 5f 3d cb c4 38 3d
       0.19691382 -0.09077357 0.05449309 0.04510955
000290 ed 59 09 3d a7 e8 f6 be de 03 4e 3e b3 aa b1 3d
       0.033533026 -0.48224375 0.20118663 0.086751364
0002a0 a2 2f a8 3d 8c ec b6 be 6a cf 30 be 3f 02 10 3e
       0.0821221 -0.35727346 -0.17266622 0.14063357
0002b0 eb d5 09 bd 9c 2a ca 3d 61 83 f7 3d 2c 1d 80 3d
       -0.033651274 0.09871408 0.120856054 0.06255564
0002c0 a5 2d 09 bf ff 60 d2 be 9e 06 0b bf c4 2f aa bf
       -0.53585273 -0.41089627 -0.5430697 -1.3295827
0002d0 74 16 41 3f d8 14 bf 3d ca 8b 1c be 4b 9f 6e be
       0.75424886 0.093301475 -0.152877 -0.23302953
0002e0 bd 51 46 3e 88 2b 4e 3e 32 7b 76 bd 09 27 84 be
       0.19367118 0.20133793 -0.060176082 -0.2581103
0002f0 55 7c 35 be cc b4 7a bd 13 22 9e be 9f 82 e3 bb
       -0.1772321 -0.061207578 -0.30885372 -0.0069430615
000300 78 4d 4d be d0 e9 14 bd 01 2f 32 3d 21 17 0e bc
       -0.20049083 -0.036355793 0.043501858 -0.008672507
000310 5c 7e 83 3d c5 82 8f 3d e8 0b b0 3e bb 99 36 3d
       0.064205855 0.07007364 0.34384084 0.044580203
000320 2b a8 f2 3d 72 ee 88 3e b8 a1 34 be 03 e7 33 bd
       0.11848482 0.2674442 -0.17639816 -0.04392148
000330 82 de d7 3c 07 25 9e 3d ea 5c 86 bd ad 62 62 bd
       0.026351217 0.07721906 -0.06560691 -0.055269886
000340 ae 98 f5 3b 25 04 e0 be 69 37 ca 3f 44 d2 26 3f
       0.0074950075 -0.43753162 1.579816 0.6516459
000350 7d a6 ee 3f 72 31 e9 be 94 fe 22 3e 91 2b f0 be
       1.8644558 -0.45545536 0.15917426 -0.4690824
000360 3d 2f ab 3e c3 1a ad be cf d3 6e be eb 23 58 3b
       0.33434477 -0.3380948 -0.23322986 0.0032980393
000370 d1 41 31 3e c0 c2 a4 3e b4 76 08 3e 5b 27 14 3f
       0.17310263 0.32179832 0.13326532 0.5787255
000380 92 67 59 3c 03 14 b7 3e 19 47 83 3d f8 41 a8 bd
       0.013269322 0.35757455 0.06410045 -0.082157075
000390 49 95 b8 3c 47 4b e2 bd 8b 0b 02 be 22 fb 99 bd
       0.022532122 -0.11049514 -0.12699716 -0.07518603
0003a0 7c 59 65 3e 0d b9 23 3e dc ff a2 3e 90 ca 8a bd
       0.22397417 0.1598856 0.3183583 -0.06776917
0003b0 23 e5 f0 3d 95 08 94 bd 0d 80 3c 3c 8f 00 5c 3b
       0.11762454 -0.072281994 0.011505139 0.003356967
0003c0 9c 6c 93 bb e4 33 a6 bc 0e 9a 2a 3d 4b 5f 14 40
       -0.004499031 -0.020288415 0.041650824 2.3183162
0003d0 21 d2 f7 bf 11 2d 98 bf ee c1 8c be e1 2d da bd
       -1.9361001 -1.1888753 -0.27491707 -0.10653282
0003e0 87 2c 4b 3d 5e bd 4f bc 45 05 66 3c f6 a7 48 3c
       0.04960301 -0.012679426 0.014039342 0.012247076
0003f0 c5 7c 23 3c 87 f0 1d bf 9e 2d 20 3d 97 d8 91 bd
       0.009978478 -0.6169514 0.039106004 -0.07121389

action.0.bias f4 [64]
000000 00 dc 39 be 11 8b 32 be a8 50 7e be 52 4b 99 be
       -0.1815033 -0.17435862 -0.24835455 -0.29940277
000010 2e 4b 8f be 07 52 16 be 30 30 76 3e c2 98 9b be
       -0.27987045 -0.14679728 0.2404182 -0.30389982
000020 42 0f 8e 3e 42 7a 2e 3e 0c 39 03 3e 02 4e 9b be
       0.27746016 0.17038825 0.1281473 -0.30332953
000030 7a 7e ec 3e 54 42 a7 be bc fe 08 bf 89 1c 7f be
       0.46190244 -0.32667792 -0.53513694 -0.24913229
000040 16 ca 06 be f5 0a bc 3e ee 91 88 be d2 38 8b bd
       -0.13163027 0.3672711 -0.26673836 -0.06797947
000050 50 30 9a be 69 7d d1 3d b2 3d ef bd eb 12 0a bf
       -0.30114985 0.10228998 -0.11681689 -0.53935117
000060 60 14 4b be ac a0 6e 3e d2 83 80 be 6d 6e 6f be
       -0.19831991 0.23303479 -0.2510057 -0.23381968
000070 22 6b d7 be 85 4c 81 be 26 a8 7a bc da 32 ef bd
       -0.42073923 -0.25253692 -0.015298879 -0.11679621
000080 25 5a e6 bd 4d 4d 3b 3e 74 46 88 3e f5 ca 7d bd
       -0.112476625 0.18291207 0.2661625 -0.061961133
000090 1a 29 84 3d ba c7 23 be 28 3e 10 bf 3b f1 4e 3e
       0.06453152 -0.15994158 -0.5634484 0.2020921
0000a0 69 c2 8a be eb 0e 17 be 86 36 39 bd af df 5d be
       -0.27101448 -0.14751785 -0.045218013 -0.2166736
0000b0 fd 0d 3d be ef 8c 83 3e 73 4e bb be df e4 4e be
       -0.18462367 0.2569346 -0.3658329 -0.20204495
0000c0 94 2a 8d 3e a1 95 32 be c6 32 d1 3e 3c b9 b3 be
       0.27571547 -0.17439891 0.4085905 -0.3510226
0000d0 0a 20 2b 3e d0 be 94 3e 7c 1f 59 be 63 34 b3 3e
       0.1671144 0.29051828 -0.21203417 0.35000905
0000e0 bc ce 5e 3e 77 25 8a be e8 52 b3 be 6a b1 a0 3e
       0.2175855 -0.26981708 -0.3502419 0.31385356
0000f0 8e c7 2a be a8 81 5d be 4b cb 4e be 29 4e 8a be
       -0.16677687 -0.21631491 -0.20194738 -0.27012756

action.2.weight f4 [64, 64]
000000 76 63 c5 3d 40 e2 cb bd 5d e6 3e be 1b af 32 be
       0.09638111 -0.09955263 -0.18642564 -0.1744961
000010 c3 64 f6 3c 1c ec 12 be 67 7f 96 bd 61 92 da 3d
       0.030077344 -0.14347881 -0.07348519 0.10672451
000020 90 31 ae bd 75 74 fa bd c2 dd 35 be 92 ce a5 3d
       -0.08505547 -0.12229244 -0.17760375 0.08096041
000030 28 5b 97 bc 28 1c 83 bc ff 9f db bd c9 45 f5 3c
       -0.018476084 -0.016004637 -0.10723876 0.029940503
000040 48 0b e7 3d 77 23 b3 3d 79 0b e0 bc 0d 7f 93 3d
       0.112814486 0.08746999 -0.02734922 0.072019674
000050 c8 98 15 bd 1c 4e 4d 3d 5f 26 04 be 17 40 ab 3b
       -0.036522657 0.05012332 -0.12905262 0.005226146
000060 9e 82 92 be 98 81 04 bd 83 5c 63 3c eb 02 0d be
       -0.28615278 -0.032350153 0.013877037 -0.13770644
000070 83 8b f8 3d 15 08 8a 3d c7 ce 34 bd 1d 73 d9 3d
       0.12135985 0.06739823 -0.04414251 0.10617659
000080 a2 29 14 be fa 5b 96 bd ff 31 12 3c bb ea a6 bd
       -0.14469007 -0.07341762 0.008923053 -0.0815024
000090 be 0d 13 3e 38 8d 6c be 9b aa 01 be dc 0f 00 3d
       0.14360711 -0.23100746 -0.12662737 0.031265125
0000a0 57 05 c5 3d 7a 15 3d be e5 3c bc 3b c3 40 23 be
       0.09620159 -0.18465224 0.005744564 -0.15942673
0000b0 5f 9e 87 3d ca d2 85 3b 9d 58 78 be be 8a 9c 3d
       0.06622004 0.004083966 -0.24252553 0.076436505
0000c0 53 73 10 3c 45 e3 6f 3e 0f d9 b6 3d 81 70 7a bd
       0.008816558 0.2342654 0.089281194 -0.06114245
0000d0 48 ce 0d 3e 29 8b b9 3d 12 1b 26 bb cb 8a 53 3c
       0.13848221 0.09059746 -0.0025345725 0.012911509
0000e0 c5 3a 9a bd e0 c8 00 be 53 a7 d0 bd 4c d0 63 be
       -0.07530741 -0.12576628 -0.101881646 -0.22247428
0000f0 ba 90 a0 bd 0d 35 25 be 4b 77 e1 bd 31 fa 12 be
       -0.078401044 -0.16133519 -0.110090815 -0.14353253
000100 98 6e 38 3d 99 4a cd 3d 85 e3 7a 3e d8 f8 c6 bb
       0.045027345 0.10023994 0.24500854 -0.006072145
000110 18 98 b1 bd 06 09 7e 3a 76 51 f3 3c 12 e5 94 3d
       -0.08671588 0.00096906757 0.02970193 0.07270254
000120 7b 89 97 bb 01 f4 8a 3c e5 cb 86 bb bb 4e 6c be
       -0.0046245432 0.016962053 -0.0041136616 -0.23076908
000130 5f ac eb 3d 81 47 ba 3c 0a be 5e 3d d8 c7 34 be
       0.115074866 0.022739174 0.054380454 -0.1765436
000140 5c 47 50 be 5e 35 16 3d 77 d7 1e 3e d5 cf c2 3d
       -0.20339721 0.03667199 0.15511881 0.09512297
000150 bc 19 d4 bc a8 ef 07 3e 5e 85 e9 bd 55 71 2f 3e
       -0.025891177 0.13275015 -0.11402391 0.17133076
000160 d3 31 98 3b 50 2a 08 3d 62 0c 0a 3e e7 fa 59 3d
       0.0046446114 0.033243477 0.13481286 0.053217795
000170 64 06 84 3d 6c 12 0e 3e c4 31 54 3c 04 86 9a 3d
       0.064465314 0.13874215 0.012951318 0.07545093
000180 57 40 94 3e 61 1f 13 bd 2e 49 20 3e 49 bf 74 bd
       0.28955337 -0.035918597 0.15652916 -0.059752736
000190 a7 dc 1d 3e 3a e9 12 3e 36 a7 6e bd 42 a5 90 be
       0.15416203 0.14346781 -0.058264934 -0.28251082
0001a0 01 d6 d8 bd 73 71 6d 3e 3f f9 82 bf ac fb d6 bc
       -0.10587693 0.23187809 -1.0232314 -0.026243053
0001b0 0d 51 bd 3d a4 83 56 be 81 5b 1b be fd f3 57 3b
       0.09243975 -0.20948654 -0.15171625 0.0032951825
0001c0 18 18 c6 3d b6 be 16 3d cc 5f 1e 3e 5d 0b 49 bf
       0.09672564 0.03680297 0.15466231 -0.78532964
0001d0 a0 4c 86 3e f8 df df 3c a9 d3 db 3d 8b 38 ee bd
       0.26230335 0.027328476 0.1073373 -0.116318785
0001e0 eb 80 5d 3d 33 60 17 3e c1 00 c1 be a7 cc 77 bd
       0.054078024 0.14782791 -0.37695888 -0.060497906
0001f0 d3 dd b6 3c 14 74 8c 3e 53 ff f5 bd 9d 17 dd bc
       0.02232257 0.2743231 -0.1201159 -0.026988799
000200 15 58 0d 3c 81 24 e2 3c 80 ea 10 be 92 22 90 3c
       0.008626957 0.027605297 -0.14151955 0.01759461
000210 f0 bf 18 be c6 7f 02 be 15 50 36 bb 9f 44 dc 3c
       -0.14916968 -0.12744054 -0.0027818729 0.02688819
000220 f4 1f 98 3d 1c bc 9e bc 73 51 be 3c e9 73 5f 3d
       0.074279696 -0.019376807 0.023232197 0.0545539
000230 68 4c 90 3e 19 13 a3 bd ce 41 af 3d 3a c7 69 bc
       0.28183293 -0.07962627 0.08557473 -0.014268691
000240 47 0b 96 bc c1 44 3f 3e 2e 9c eb bd fa 56 a0 be
       -0.018315924 0.18678571 -0.11504398 -0.31316358
000250 04 91 6e bd 11 e9 e5 bc e6 7d c2 bd 54 ba 0c 3d
       -0.058243766 -0.028065236 -0.094966695 0.034357384
000260 de f8 83 bc 4a fb 43 3d 63 9e 2e be f6 3c 7f bd
       -0.01610988 0.04784707 -0.17052607 -0.062313996
000270 82 b1 26 3d 26 45 89 3c e7 77 c8 3d 30 04 a2 3c
       0.04069663 0.016756605 0.097884946 0.019777387
000280 cc e4 19 3c 65 00 27 3d 91 1e 08 3e 80 80 0e be
       0.009392928 0.04077186 0.1329291 -0.13916206
000290 90 50 da bc 1b 19 00 3d 22 54 90 bd a8 d6 43 3d
       -0.026649743 0.031273942 -0.07047297 0.047812134
0002a0 f5 a6 a1 bb 1c c9 3d be fa dd d1 3c f4 45 24 bc
       -0.004933233 -0.18533748 0.025618542 -0.010026444
0002b0 d5 68 20 bb d7 92 0a 3d 91 93 72 be ea 3d ba bd
       -0.0024476547 0.033831444 -0.23689105 -0.090938404
0002c0 6d c2 0f 3d fa 19 15 bd 90 83 cc 3d 0c 5e 26 be
       0.03509753 -0.036401726 0.09986031 -0.16246814
0002d0 dd 07 41 bc e2 33 4e 3c cc 77 b6 bd ed ca 94 ba
       -0.01178166 0.012585612 -0.08909568 -0.001135198
0002e0 12 8c 13 3d 82 89 18 bc 0e fc 41 3c 10 e8 8e 3d
       0.036022253 -0.009310128 0.01183988 0.06977856
0002f0 4b 14 e3 bd 6b 51 26 3d 20 a9 20 3d ee 20 fc bd
       -0.11087855 0.04060499 0.03922379 -0.12310968
000300 ff 24 fb bd 1a 70 b8 3d 9c 55 0e be 1f 42 af bd
       -0.12262916 0.09005757 -0.13899845 -0.085575335
000310 67 19 54 3d ea 7a 7b bd a7 bc c7 bd 18 16 de bd
       0.051782038 -0.061396517 -0.097527795 -0.10844058
000320 7f 59 d1 3b 5b c3 80 3d 36 03 00 bd dd a0 38 bd
       0.0063888426 0.06287261 -0.031253062 -0.045075286
000330 6c 2f f6 bc 65 4c 10 be 08 c5 8e bd 69 18 5f 3d
       -0.03005191 -0.14091642 -0.069711745 0.05446664
000340 3c 91 01 bc b3 4e 31 3d 16 7a 2c bd 8c 92 c6 bd
       -0.007908162 0.043287944 -0.042108618 -0.0969592
000350 91 7c 8f 3c 11 b1 88 3d f8 32 bd 3d e0 a2 67 bd
       0.017515453 0.06674398 0.09238237 -0.056551814
000360 33 c1 87 3d 83 6a b8 bd d1 13 fd bd 72 e0 80 3d
       0.06628647 -0.090046905 -0.12357295 0.062928095
000370 93 5c 12 bd 46 f4 3e bd 37 b8 a5 bd 9c e6 32 3d
       -0.035732817 -0.046619676 -0.08091777 0.043676957
000380 1b dc 5b 3c 8a c7 06 be 19 2c 2e bd 78 d4 2a bd
       0.013419176 -0.13162056 -0.042522524 -0.041706532
000390 10 4a 4f bd cc c0 9d 3c 73 21 84 bd f5 4c b2 bd
       -0.05060774 0.019256972 -0.064516924 -0.08706085
0003a0 b6 b5 05 be 38 7e 6d bd 46 74 18 3d 67 c2 9c 3d
       -0.13057598 -0.0579817 0.037220262 0.07654267
0003b0 8a f0 f7 bd f2 c6 d7 3d 60 dd c6 3d d3 e2 03 3d
       -0.12106426 0.10535993 0.09710193 0.03219874
0003c0 63 d0 5b 3d 27 24 d3 bd c5 a9 17 be 87 3d c5 3d
       0.05366553 -0.1030963 -0.14810856 0.09630876
0003d0 c9 b3 27 3d f7 74 01 be f0 af c4 3c 90 2e ea bd
       0.04094294 -0.12642275 0.024009675 -0.11434662
0003e0 8e fd 9a bd 45 48 9b 3d 3d 40 8f 3d 61 87 11 be
       -0.07567893 0.07582144 0.06994674 -0.14211799
0003f0 05 8d 1f bd 99 de f2 bd e0 ce 95 bd b9 48 6a bc
       -0.038952846 -0.118588634 -0.07314849 -0.014299565

action.2.bias f4 [64]
000000 fb 34 03 be 83 b3 7a bd f2 f9 59 3e 05 77 1e be
       -0.12813179 -0.061206352 0.21286753 -0.1547509
000010 62 af 67 3e 5d 19 02 bd b4 52 89 bd 19 38 be bc
       0.22625497 -0.03176247 -0.067052275 -0.023220109
000020 d9 25 d4 bc 13 19 0a 3c 21 ca b8 bd e7 1e 22 be
       -0.025896953 0.00842883 -0.09022928 -0.15832101
000030 16 79 11 bd 19 27 1d be be 63 46 be 4e ba 8f be
       -0.035515867 -0.15346946 -0.19373986 -0.28071827
000040 cd 98 8b 3e fd 33 d5 bd 5f 2a f7 bd 2d 39 a5 3c
       0.27265015 -0.104103066 -0.120686285 0.020168865
000050 26 7b 25 3e e3 37 04 be 15 ca 6c 3e bb 20 2a 3e
       0.16160259 -0.12911944 0.23123963 0.16614048
000060 88 2a 37 3e 18 b4 19 3e f3 6d 3c 3e a2 82 98 3d
       0.17887318 0.15010107 0.18401317 0.07446791
000070 00 83 6e 3e 05 46 5c 3d b9 03 15 be 2b f5 16 be
       0.2329216 0.053777713 -0.14552201 -0.14741962
000080 e5 aa 33 be eb 74 4e 3e 8f 37 07 bd 46 a1 36 3e
       -0.1754566 0.20161788 -0.03301197 0.17834958
000090 a2 ba 00 3e 88 ea f4 bd a0 1b 99 bc 76 b0 17 3e
       0.12571195 -0.11958796 -0.01868993 0.14813408
0000a0 04 c3 da 3d 81 84 96 bd 75 8a 72 3e cc 21 33 be
       0.106817275 -0.07349492 0.2368563 -0.17493361
0000b0 75 67 94 bd bd 3b f4 bd 32 db 4e be 60 f4 20 be
       -0.07246295 -0.11925457 -0.20200804 -0.15718222
0000c0 7b 5a 10 3e 07 e3 5d 3e 94 4c 2c 3b ba cd 0e be
       0.14097016 0.21668635 0.0026290761 -0.13945666
0000d0 93 c6 42 be 01 24 6e 3c 11 64 08 bd c8 73 da bd
       -0.19021063 0.014534951 -0.033298556 -0.10666615
0000e0 1a e5 34 bd c8 b8 52 be 68 85 2b be 22 d6 47 3d
       -0.0441638 -0.20578301 -0.16750109 0.048788197
0000f0 4a f5 af be 7f 01 6b be 5b 71 ed 3d d1 ff 8a 3c
       -0.34366828 -0.2294979 0.115938865 0.016967686

action.4.weight f4 [11, 64]
000000 80 3a 9a bc 78 fd 62 bd c8 c8 89 be 8b 14 f0 bd
       -0.018826723 -0.055417508 -0.26910996 -0.11722668
000010 13 17 43 bd fd ef d7 3d 85 7e d0 3d 48 65 41 be
       -0.047629427 0.10543821 0.10180382 -0.18886292
000020 b0 34 a2 3d 9c f3 3a bd 13 89 07 3d a1 6c 58 3d
       0.079202056 -0.04564248 0.03308971 0.05283797
000030 23 8a b5 3d 54 fd a8 bd bf 8f 87 be b7 3c 0f bf
       0.08864238 -0.082514435 -0.26476857 -0.5595202
000040 4c eb 87 3f 1f 32 68 be a3 44 1f be 78 e0 22 be
       1.0618682 -0.2267537 -0.15553527 -0.1590594
000050 ce f5 0a be d2 ac d5 3d 82 7e 5c bd 87 2f bc 3b
       -0.1357033 0.104333535 -0.053831585 0.0057429704
000060 50 10 03 bd 3a e4 1b be 4a c3 08 be 1c 3f a5 3c
       -0.03199798 -0.1522378 -0.13355747 0.020171694
000070 33 f4 9f be 54 cf 45 3d 72 49 1e 3e 15 17 da 3d
       -0.31240997 0.048293427 0.15457705 0.10648934
000080 72 9a f0 3d df e1 80 be 0f 3e ef bd d9 0e 69 be
       0.11748208 -0.25172326 -0.116817586 -0.2275957
000090 8e 64 d8 bd 1f 46 83 bc 92 62 73 be b0 6c 6e bd
       -0.10566054 -0.016024647 -0.2376807 -0.05820912
0000a0 74 8f a2 bd 0e 76 40 3c 22 f8 22 bf f1 3b a6 3b
       -0.07937518 0.011746896 -0.6365987 0.0050730635
0000b0 39 e2 e9 be b3 46 6e 3d 53 72 f3 bb bb 85 f9 be
       -0.45680407 0.058172893 -0.0074294 -0.4873484
0000c0 c4 16 2d 3d db 71 39 be 1b 6c 86 bd 7c 5b c3 bd
       0.04225804 -0.18109839 -0.06563588 -0.09538934
0000d0 20 fa 83 3d 9d b5 5c 3d 83 ce 32 3d 46 20 db 3d
       0.06444192 0.053884137 0.043653976 0.10699515
0000e0 27 aa aa 3c 14 20 c7 3d a3 b0 1b 3d 3e aa 19 be
       0.020833088 0.09722915 0.03801025 -0.15006348
0000f0 31 79 76 3e bd fa af 3d c4 7e 2b be 89 61 af 3c
       0.24069668 0.085927464 -0.16747576 0.021408813
000100 65 48 75 bb 7a 0b de bd cc 79 a3 3e 6c 9e 3e 3d
       -0.0037427184 -0.10842033 0.3192886 0.0465378
000110 b3 8c 0f 3d 0e 08 c2 3d 94 1c 0a be d6 94 28 3e
       0.03504629 0.094741926 -0.13487464 0.16463026
000120 cd 62 8a bc cb 1a ac bd f7 fc 9a bc 08 98 86 3d
       -0.016892815 -0.08403548 -0.018919451 0.065719664
000130 07 43 3b 3e 1f 9a 4e be 19 96 1f bd 65 0e c7 be
       0.18287288 -0.2017598 -0.038961504 -0.3887817
000140 a7 0c fc 3e 38 98 2c bd d0 76 ea 3d 3b b9 02 3e
       0.49228403 -0.042137355 0.11448443 0.12765972
000150 70 a9 1b bd 8f b3 02 3c 7f c2 0b 3f f4 ce c6 3d
       -0.038003385 0.00797738 0.5459365 0.09707442
000160 3e 36 84 3e fe 69 e0 bd 40 dd b0 3e d5 13 49 3e
       0.25822634 -0.109577164 0.345438 0.19636472
000170 94 78 e8 3e cd 3a c3 3d 97 86 0f 3c 7b f5 e6 bc
       0.45404494 0.095327 0.008760116 -0.028193226
000180 e6 62 e7 bd eb af 49 3d 23 d3 6b bd 90 e9 05 3b
       -0.1129816 0.049240034 -0.057574403 0.0020433404
000190 b7 ae 39 3e fe 7f db be 85 77 f2 3d 67 d4 3e 3e
       0.18133055 -0.42871088 0.11839203 0.18635713
0001a0 01 6a 1f bd 22 7d 0d 3d 99 a1 7d 3f ff e1 b2 bc
       -0.038919453 0.034543164 0.99074703 -0.021836279
0001b0 e2 c2 1b bd 5b f6 95 bc 9f 28 3d be 76 b4 d6 3d
       -0.03802765 -0.018305948 -0.18472527 0.10483639
0001c0 26 c6 28 3e 1d 52 62 3e 17 22 ea 3d 0d 37 69 bd
       0.16481838 0.22101636 0.11432283 -0.056937266
0001d0 43 91 36 be 64 f4 34 3d 33 59 68 3d 6b 03 91 3d
       -0.1782885 0.04417838 0.056725692 0.0708073
0001e0 f7 e4 cb bd a0 a9 37 be 47 02 95 bd 08 6a b6 bc
       -0.09955781 -0.179358 -0.07275825 -0.022267357
0001f0 66 29 31 be 40 40 81 bd 8a 6a d7 3d f8 da 38 be
       -0.17300949 -0.06311083 0.105183676 -0.1805228
000200 7d 20 36 3d 64 40 3c be 07 d5 b0 3b 4d cb 3d bd
       0.044464577 -0.18383938 0.0053964886 -0.04633646
000210 3b 72 2b 3e b3 50 0f be 4f 66 07 bc 8d 70 67 3d
       0.16742794 -0.13995628 -0.008264138 0.05650382
000220 02 84 3a bd 3d 4a c1 bc 75 62 a1 bd da 5c 98 bd
       -0.04553605 -0.02359497 -0.07880107 -0.07439585
000230 22 3a 3b bd 77 74 f5 3d 96 2c 94 3d de 42 da 3d
       -0.045709737 0.119851045 0.072350666 0.10657285
000240 70 1d a8 bf 61 a5 cc bd 5d 00 08 be 15 9d 96 3d
       -1.3133984 -0.09992481 -0.13281389 0.0735418
000250 16 0d 96 3e c9 3b 3d bc 47 e0 4b bd f3 48 16 3d
       0.2930686 -0.011549898 -0.049774434 0.036690664
000260 bf 52 20 bd ef aa fc 3d b0 a6 c3 bd 54 cb 17 be
       -0.039141413 0.123372905 -0.095532775 -0.14823657
000270 d5 8b 0a 3e 46 ec 12 3e 8e c0 74 be 14 65 ca bd
       0.13529904 0.14347944 -0.23901579 -0.0988256
000280 9d c5 14 be a7 8c 96 3e bd 11 9c bd f4 9e 73 3e
       -0.14528508 0.29404184 -0.07620571 0.23791105
000290 cd 84 3e bd 03 ac 05 be 81 47 3f bc e7 12 a9 bc
       -0.046513367 -0.13053899 -0.011674763 -0.020638896
0002a0 0d 5c 2c 3e 0e f3 3c be 45 29 e7 3e a7 9e a7 bc
       0.1683199 -0.18452093 0.45148674 -0.020461394
0002b0 db 91 51 3d 95 0f 35 bd 19 b4 06 be be 95 76 3e
       0.05116449 -0.044204313 -0.1315464 0.2408056
0002c0 14 54 c4 bd 5c b0 cb bc 64 6e b6 bd e8 23 02 be
       -0.09586349 -0.024864368 -0.08907774 -0.1270901
0002d0 f8 fd d0 bd 31 ec 8f bd e6 9b 27 be ad 41 8a 3d
       -0.10204691 -0.07027472 -0.16368064 0.06750808
0002e0 45 93 1c be ec 6e 87 bd f2 07 07 be 75 5e 48 be
       -0.15290554 -0.066129535 -0.13186625 -0.19567282
0002f0 ae 51 33 bd 5c d7 88 3c 66 b6 96 3d 54 57 de bd
       -0.043779068 0.016704254 0.073590085 -0.108565
000300 77 6c ff 3c fd 35 da 3c 29 1e 37 bd 80 28 87 bd
       0.03117965 0.026637072 -0.044706497 -0.06599522
000310 d6 81 5f be 1f 0d 2b bd 97 2f 0a 3e 57 1b 4e 3d
       -0.21826872 -0.04176056 0.13494717 0.050319042
000320 03 4d 91 39 c9 1a 00 be 7c cc d4 3d 68 88 0b 3d
       0.00027713933 -0.12510218 0.10390565 0.034065634
000330 51 91 a9 3d 93 fa 9d bd c9 e5 83 bd ab 90 d9 bc
       0.0827967 -0.07713809 -0.064403124 -0.02655824
000340 3d d8 db 3e f7 45 f9 3a b8 d6 f7 3d a7 94 56 be
       0.42938414 0.0019018044 0.12101501 -0.20955144
000350 54 3d 91 3b 5a 68 a4 3d c4 26 5a 3d 64 15 f9 bd
       0.0044323597 0.08027716 0.053259626 -0.12162283
000360 94 4b 0a 3e 75 05 9e bd de 5e 1a bd 18 f0 85 bd
       0.13505393 -0.077158846 -0.03768813 -0.06539935
000370 17 2f 95 bc d9 d7 d9 bd ae a3 04 3e 56 ed cd 3c
       -0.01821093 -0.10636873 0.12953064 0.025137585
000380 ef 76 f0 bd cb aa c0 bc 89 fb 54 3e 11 ea 22 3b
       -0.11741435 -0.02351894 0.20799078 0.0024858753
000390 fb 4e 30 bc 08 c8 b8 3d a8 09 02 3e f5 28 3f 3d
       -0.010761018 0.09022528 0.12698996 0.04666992
0003a0 a7 02 83 3d e3 7c 33 3d 20 3e 3e 3e ee 8e bf bd
       0.0639699 0.043820273 0.18578386 -0.093534335
0003b0 aa 2d ee 3d a8 44 67 3e 97 ad 0e 3c 54 41 8f 3e
       0.116298035 0.22584784 0.008708379 0.2797953
0003c0 08 19 8a 3d ad d1 33 3d d8 b4 20 3d 2d 40 b3 bc
       0.067430556 0.043901134 0.039234966 -0.021881187
0003d0 ac d6 1b 3d c9 9a 8b 3d 63 48 0e 3e e3 d2 af 3c
       0.038046524 0.06816632 0.13894801 0.021462863
0003e0 78 dc 91 3c 59 ea 36 bc cf 51 30 3c 89 a5 cc 3d
       0.017805323 -0.011164271 0.010761692 0.09992511
0003f0 13 78 ab 3d ee 51 35 bd 3b 93 c8 bd 9b 7d c2 3d
       0.08372512 -0.044267587 -0.09793707 0.094966136

action.4.bias f4 [11]
000000 d1 99 ec bd 2d 4a 4b 3d 5c 0a db 3d 3c 5a 2b 3e
       -0.11552776 0.049631286 0.10695335 0.1673364
000010 51 dd 5d bd 34 ab b5 3d 1e 92 fb 3c 7e 91 4f 3d
       -0.054166142 0.08870545 0.030709323 0.05067586
000020 3f f5 ba bc bb ba 15 3d c2 68 1a 3d
       -0.02282202 0.036555033 0.03769756

critc.0.weight f4 [64, 22]
000000 f4 4a a7 bd f7 96 44 3e 71 ae 20 bc b6 9f 39 3e
       -0.08168593 0.19198214 -0.009807215 0.18127331
000010 b0 b9 df 3c b9 ca e8 3c 10 65 c8 3e fc 64 f9 3a
       0.027310222 0.028416978 0.39139605 0.0019027288
000020 67 42 35 bc a1 97 4e bc b7 2f 2c 3c 8e 32 b5 3d
       -0.011063195 -0.012609393 0.010509423 0.08847533
000030 f0 45 22 bf ab 63 87 3f 5e c0 8d be e5 19 f9 3e
       -0.63387966 1.0577291 -0.27685827 0.48652568
000040 5a 19 1d bf 84 dd 2b bf ec cc 96 bb 4b c2 6a bc
       -0.6136681 -0.6713488 -0.0046020653 -0.01432855
000050 ff af 92 be 0b 00 8b 3e 2c 69 42 bd ec d2 7e bd
       -0.286499 0.2714847 -0.04746358 -0.06221287
000060 f2 be 82 be ca bd 16 bd 61 2f 67 3f 13 2b 71 be
       -0.25536305 -0.03680209 0.9030667 -0.23551588
000070 58 4f ca 3e 09 ec 0f 3e 33 48 c6 bd f1 4a 0a bd
       0.3951366 0.14054884 -0.0968174 -0.033762876
000080 3d 2c 0b bb 67 24 93 3f 33 c3 13 3d 02 8f a4 3f
       -0.0021236085 1.1495484 0.03607483 1.2856143
000090 ea 2d 12 c0 a3 f0 49 40 9d dd 11 40 64 e9 37 c0
       -2.2840524 3.1553123 2.2791512 -2.87362
0000a0 6b 1a f6 be 19 a1 55 40 c6 39 63 c0 30 ee 0d c0
       -0.4806703 3.3379576 -3.5504012 -2.2176628
0000b0 18 72 b8 be f6 b2 cd 3d 5d 37 67 3e 4f de 8a bd
       -0.36024547 0.100439 0.22579713 -0.06780683
0000c0 b5 86 1d 3d 5c a0 b6 bd 76 0f 0f be 08 83 ea bc
       0.038458545 -0.08917305 -0.13970742 -0.028626934
0000d0 68 07 6d 3d 2e 77 9d 3d a7 8b 3b 3c eb 18 6b 3c
       0.05786839 0.07688747 0.01144687 0.014349203
0000e0 f0 91 b2 3e 39 7d 07 3d ec 74 cc bd 34 14 30 3e
       0.34876966 0.033078406 -0.099832386 0.17195207
0000f0 b2 d9 a7 3d 8c 42 3f 3e ee 16 ce 3e 30 79 05 3f
       0.08195819 0.1867773 0.4025187 0.5213804
000100 d0 49 6b 3e 4f 81 fe be fa b7 f5 3d cc 2e 8e 3e
       0.22977376 -0.4970803 0.11997981 0.27770078
000110 24 82 86 be 06 27 f3 bd d9 fa 40 3f 36 56 f6 3e
       -0.26271164 -0.118726775 0.75382763 0.4811265
000120 55 4d 80 bd 6d a4 cc bd ed e2 77 3d 72 64 7e 3c
       -0.0626475 -0.09992299 0.060519148 0.015526878
000130 ab bb 06 bd 95 a7 ec 3d 7b 36 4d bd 91 4c 54 be
       -0.032893818 0.11555401 -0.050100785 -0.20732333
000140 9c 72 2b bd 3b 92 34 3e 66 64 6f 3f 68 38 72 bf
       -0.041857347 0.17633907 0.9351257 -0.9461732
000150 fd 8f ff bd 25 88 6d 3e 0a 00 91 3e 5b f6 b1 be
       -0.124786355 0.23196466 0.28320342 -0.34758267
000160 c6 9f 0b 3f d3 e9 c7 bc 76 47 3b bd 30 1f b1 bd
       0.5454067 -0.024403488 -0.045722447 -0.08648527
000170 bd bd 6c bd e2 e7 9f bd 12 a0 0e 3b 36 93 2b 3d
       -0.057798136 -0.078079 0.002176289 0.04188844
000180 43 08 00 bd 7b cb 32 bc 3b 7e 37 3a c5 99 42 3d
       -0.03125788 -0.010912771 0.0006999706 0.047509927
000190 5f 7f 93 bf f0 d2 43 be 8d dc fd 3d e6 d6 b7 bf
       -1.1523246 -0.19123435 0.12395582 -1.4362457
0001a0 61 02 47 bf 42 9e c4 3e 78 8b ed 3e 91 62 ad bf
       -0.77738005 0.3840199 0.4639547 -1.3545705
0001b0 6c 27 02 40 8d c4 90 3e 8f f9 db be e8 0b 28 be
       2.0336561 0.28274956 -0.42963836 -0.16410792
0001c0 d3 3a 4f bd 6c 8b fd bd f3 fc 5c 3d ca 90 57 bd
       -0.05059321 -0.12380108 0.05395217 -0.052628316
0001d0 51 4d ef bd f5 e7 fb ba fe a5 ac bc f0 db bc 3c
       -0.11684669 -0.0019218909 -0.021075245 0.023054093
0001e0 61 18 17 bc b9 41 75 3e 19 f8 90 be 49 0c 17 3e
       -0.009222121 0.23950852 -0.28314283 0.1475078
0001f0 8d b0 91 be e8 55 2e 3e 26 f3 97 be 35 e1 b4 be
       -0.2845501 0.17024958 -0.29677695 -0.3532807
000200 81 46 9d 3d 08 01 bf bc 9d 98 19 bd 1e 37 9c 3d
       0.07679463 -0.023315921 -0.03749906 0.076277
000210 f5 17 21 be 2b 80 7e 3f 20 6c 0d 3e 59 90 b9 3c
       -0.15731795 0.9941432 0.13810778 0.022651838
000220 21 bb 2a be ff 4f 0b 3f 79 61 26 3f cf 77 d8 bd
       -0.16672947 0.5441894 0.6499248 -0.10569727
000230 b4 3e 29 3d 1a 77 c9 bc da b1 0a bd 5e d6 bb 3d
       0.041319564 -0.024592925 -0.03386102 0.09171747
000240 66 a3 af 3d f5 10 dc 3e 01 49 bd be e1 5e 9b 3f
       0.08576088 0.42981687 -0.3696976 1.213833
000250 71 bc 32 bd dc 0a 8e bf 35 25 c9 3d 18 80 a3 3f
       -0.043636743 -1.1097064 0.0982155 1.2773466
000260 bf b1 40 bf cd 26 a2 3e c8 99 d7 be 3d 8c d8 bd
       -0.7527122 0.31670228 -0.42109513 -0.10573623
000270 2a 30 42 3e 82 f5 78 bd 21 b6 3a bd 04 67 a5 bd
       0.18963686 -0.06078101 -0.045583848 -0.08076289
000280 25 bb cb 3d 3d 0b 46 bb c9 6c 92 3d aa bb f3 bc
       0.09947804 -0.00302191 0.07149655 -0.029752571
000290 1e 11 47 b9 50 29 14 be d4 07 25 3e d9 b0 07 3d
       -0.00018984496 -0.14468884 0.16116267 0.03312764
0002a0 d1 d0 16 3e f7 66 26 3d 0e e3 99 be 87 15 49 bd
       0.14728095 0.04062554 -0.3005604 -0.049092796
0002b0 6f 96 86 3e fc da 8b 3d fb 3c e5 3c 42 27 fe bd
       0.26286647 0.06828877 0.02798318 -0.124098316
0002c0 c8 a5 31 be d2 64 76 bf a8 4a 10 bf d9 1e 13 bf
       -0.17348397 -0.9624759 -0.56363916 -0.57468945
0002d0 d7 dc c2 3e cb 1d 02 be 37 ab f4 3e 4b 0e 4f 3c
       0.38059112 -0.12706678 0.47786877 0.012637685
0002e0 6b 53 d1 3b 81 1d a8 3c a6 7a 75 ba 61 19 44 3f
       0.006388118 0.020521881 -0.00093642843 0.76601225
0002f0 34 b2 60 bf 45 14 8e be 46 fc 86 bf d9 85 83 3f
       -0.87771916 -0.2774984 -1.0545738 1.0275222
000300 77 5c 40 3f 71 5b 8f bf db 5b bc 3e 1b f7 0e bf
       0.7514109 -1.1199781 0.3678883 -0.55845803
000310 77 90 80 3e eb de 39 bd 6a 96 8b be 00 68 dd 3d
       0.25110218 -0.045378607 -0.27263194 0.10810852
000320 58 66 10 be 87 4a 38 be f5 02 91 be be 4a 74 3e
       -0.14101541 -0.1799718 -0.2832257 0.23856637
000330 c2 30 5c be 64 3e 2c be dc 71 08 3e 66 3f 7c 3d
       -0.21502975 -0.16820675 0.13324684 0.0615839
000340 16 ee 10 bc a1 06 70 3f ea 88 71 3f 66 ec 12 3f
       -0.008845827 0.93760115 0.9434954 0.57391965
000350 e7 bf 4c bf e9 bc 8c 40 38 9a 30 3e 8b 57 6d 3e
       -0.7998032 4.3980603 0.1724633 0.23177926
000360 ee 20 1f 3f d6 15 79 40 9c d3 84 bf 81 4f 1a c0
       0.6215962 3.8919578 -1.0377078 -2.4111025
000370 df dd de be fa 34 36 3f 31 b4 24 bd 46 fe 20 be
       -0.4352865 0.71174586 -0.040210906 -0.15721998
000380 06 7a b5 be 93 9f 77 3e 65 b1 71 3d 3e 61 12 bc
       -0.3544466 0.24181966 0.059007067 -0.008934317
000390 cf f5 25 3d bb 8a 09 3d 8e be 9c 3d ed ec 91 3e
       0.040517624 0.03357957 0.07653533 0.28501073
0003a0 45 e8 32 be d2 30 8e 3e 86 af c9 bc ff 3c 33 3e
       -0.17471416 0.27771622 -0.024619829 0.17503737
0003b0 17 65 b4 3e 34 05 f8 bd 4d 06 4a be 67 e5 01 bf
       0.35233375 -0.121103674 -0.19728966 -0.50740665
0003c0 91 0d a3 3c e0 d8 60 be 90 bf dd bc 3c 82 c0 3e
       0.01990393 -0.21957731 -0.027068883 0.3759936
0003d0 2a 45 31 3e af d4 96 3d a3 73 3c 3e 80 51 d8 bb
       0.1731154 0.07364785 0.18403487 -0.0066015124
0003e0 1f c7 b0 3d 22 5b c6 bd 80 c0 bd 3d 95 8b 84 3d
       0.08631729 -0.09685351 0.09265232 0.06471936
0003f0 60 d6 bc 3c d3 32 9b 3e f5 d9 61 3d 1f f7 64 be
       0.02305144 0.30312213 0.0551395 -0.22359894

critc.0.bias f4 [64]
000000 2f 6a 05 3e 2b 21 28 3e d1 03 f2 3b 02 ea cb be
       0.13028787 0.16418903 0.007385709 -0.3982697
000010 2b 3e 20 bf f1 22 29 be db bd 2f 3e d9 3c da be
       -0.6259486 -0.16517235 0.17162268 -0.42624548
000020 76 1c d1 be 8d 10 9e 3e 17 d4 ba be d3 b9 8d be
       -0.40842026 0.30872002 -0.36489937 -0.27680835
000030 74 10 50 3f 86 86 9e be 31 c7 2f be 95 3d f5 3e
       0.81275105 -0.30962008 -0.17165829 0.47898546
000040 27 b8 71 3f e3 08 fd 3d 3f f3 4a 3f 82 f6 5f be
       0.9442162 0.12355211 0.79277414 -0.21871379
000050 74 8c 37 3f 9e 8b dc be 4b a3 a1 be e0 70 80 3f
       0.7169869 -0.4307527 -0.31569895 1.0034447
000060 3f 23 c2 be 85 50 f9 3e e2 e8 3c bf 52 ec 8a be
       -0.37917516 0.48694244 -0.7379285 -0.27133423
000070 5c b3 a9 be 08 13 81 be 38 43 f0 3d 54 9a d1 bd
       -0.33144653 -0.25209832 0.11731571 -0.10234514
000080 d8 60 53 3f 9e 85 d5 be c2 dc e4 be b3 38 cd 3e
       0.82569647 -0.41703504 -0.44699675 0.4008232
000090 45 16 52 3f cf 63 ce be be 2c e0 3e ac c3 06 bf
       0.8206523 -0.40310523 0.43784136 -0.5264232
0000a0 45 8b 0f 3f 50 98 9f be d9 6c 44 be c4 67 34 3f
       0.56071883 -0.31170893 -0.19182147 0.70470834
0000b0 84 71 8f be e8 17 0d be 89 14 91 be 8f c8 66 be
       -0.28016293 -0.13778651 -0.2833598 -0.22537445
0000c0 52 ca 2a bf 65 f3 7b 3f a3 f9 e2 be 56 22 85 3f
       -0.66714966 0.98418266 -0.44331083 1.0401103
0000d0 18 98 8a 3f 3b 13 4f 3f ec a5 4b bf 7a 50 2e be
       1.0827665 0.8088872 -0.7955005 -0.17022887
0000e0 ef ae 5d 3f a9 f6 5a be 7f 52 86 3f 5e 3c 45 3f
       0.8659505 -0.21383156 1.0493926 0.7704524
0000f0 db 83 60 3f 1a 41 6a be 1a b0 50 3f b1 aa 82 3f
       0.87701195 -0.22876397 0.8151871 1.0208341

critc.2.weight f4 [64, 64]
000000 01 82 33 3e 5a 1a 3a 3e 70 ad 3d 3e 1a cb 87 3d
       0.17530061 0.18174115 0.18523192 0.066305354
000010 c5 be cf 3e a5 6f 14 3d 00 3e d8 3d ff 87 3f be
       0.40575233 0.036239285 0.105587006 -0.18704222
000020 15 87 c5 bd e3 8b 87 3d 89 13 2f 3d 5e 78 82 3e
       -0.096449055 0.06618478 0.04274324 0.25482458
000030 a0 f5 18 bd 07 1f 99 bd 78 14 57 3d 19 70 80 3e
       -0.03734362 -0.07476621 0.052509755 0.25085524
000040 a3 6e d5 3b 1c 60 5e 3e 29 e0 0a bd 12 07 c8 b9
       0.006513433 0.2171635 -0.033905182 -0.0003815224
000050 00 c6 e1 3c 36 39 fd bd cc 1d 1c be 9a fa 76 bc
       0.027560234 -0.12364428 -0.15245742 -0.0150743965
000060 a5 77 4d be de 9f 90 bc 97 b3 90 3d b2 01 2c be
       -0.20065172 -0.017654356 0.07065504 -0.16797522
000070 16 e1 06 bb d1 11 31 3d d3 07 d2 3d 53 a6 62 bb
       -0.002058094 0.04322988 0.102553986 -0.0034584
000080 98 70 a2 3d 00 d2 9b bc a0 b3 8a 3d af 41 0d 3f
       0.07931632 -0.019021034 0.06772542 0.5517835
000090 d2 f8 31 3d 86 4e df bc f3 12 b6 bc 8f 90 c9 3d
       0.043450184 -0.027259123 -0.022225833 0.098420255
0000a0 69 34 8d 3e 73 0d 81 3c 1b e9 80 3e c5 b8 37 3e
       0.27579048 0.015753483 0.25177845 0.17941578
0000b0 89 89 09 be a4 6e b3 3d 01 b0 cd 3d c6 04 4e 3e
       -0.13431372 0.087613374 0.10043336 0.20119008
0000c0 ec ad ad 3e ef eb 18 be 03 fa 28 bb 60 fe a0 bd
       0.33921754 -0.14933752 -0.0025783784 -0.07861018
0000d0 23 61 0c 3d 64 c3 42 bc 89 43 4d be 53 b6 54 be
       0.034272324 -0.011887405 -0.20045294 -0.20772676
0000e0 1d d7 31 bc 11 e7 66 3e 79 18 93 bd 58 86 7a 3d
       -0.01085451 0.22549082 -0.07182402 0.061163276
0000f0 e1 8e 25 3e f4 29 98 3d de a6 2e 3e 51 6d 18 bd
       0.16167785 0.07429877 0.17055842 -0.037213627
000100 88 95 97 ba d8 88 19 bc 2d f7 a2 bc eb 06 d3 bd
       -0.001156495 -0.009371005 -0.019893253 -0.10304054
000110 ec 5c ea be dd 7e ad 3d 6e 45 8a 3d 83 47 92 ba
       -0.4577402 0.08471463 0.06751524 -0.0011160228
000120 88 c2 0a 3e 2b d1 8c bc 2d ef 73 3d f4 30 0f be
       0.1355077 -0.017189583 0.059554268 -0.13983518
000130 3d ce 87 3e 33 02 a7 3d a7 b5 fa bc 98 2c 78 bd
       0.26524535 0.08154716 -0.030604197 -0.060589403
000140 bc f7 65 3e f9 eb d4 3d 9d b8 62 3e 2d 51 a3 3d
       0.22457784 0.10396571 0.22140737 0.079744674
000150 1a 29 b9 3e 02 a9 3e bd 64 58 d0 3c b2 02 a7 3e
       0.3616417 -0.046547897 0.025432773 0.32619244
000160 15 69 d7 bd 8b 72 ef 3d d9 39 66 be 0f f4 85 bd
       -0.1051809 0.11691769 -0.22483005 -0.06540691
000170 39 01 08 3e 94 54 7b bd da 43 00 3d 62 cc 2f 3e
       0.13281716 -0.061359957 0.03131471 0.1716781
000180 75 68 84 3e cb db a3 3d 42 4d 2d be 4b 01 89 3d
       0.25860944 0.080009066 -0.16924003 0.066897
000190 0a ae 3d 3e b9 55 6d 3d 58 67 49 ba a6 bf a4 bd
       0.18523422 0.05794308 -0.0007682941 -0.080443665
0001a0 dc 29 8b 3c 4a 3a 9d bd 58 d4 2c 3d dc f7 0e 3e
       0.016987734 -0.076771334 0.042194694 0.13961738
0001b0 98 ac 38 3d 37 7c ed bd 8d ac 89 bd 50 11 44 bd
       0.045086473 -0.11595958 -0.067223646 -0.047868073
0001c0 df eb ba bd 3f 1f c9 3e a6 37 ce bd 3d b7 e5 3e
       -0.0912702 0.3928165 -0.10069208 0.44866362
0001d0 eb 17 bb 3e 39 36 df 3e 91 9c 0f bc b7 60 26 3c
       0.36541685 0.43596056 -0.008765356 0.010154895
0001e0 bc a1 c8 3e 43 1a 88 bd d6 d0 97 3e 83 bc 06 3d
       0.39185894 -0.06645634 0.29651517 0.032894623
0001f0 34 e9 c2 3e b4 8d 10 bd 81 c0 88 3e e7 78 a9 3e
       0.38068545 -0.03529139 0.2670937 0.33100054
000200 c5 c1 9e 3d fc 84 c1 3d 16 36 8f 3c 26 cd 92 3d
       0.07751802 0.09449193 0.017481845 0.07168035
000210 7c e5 e8 be 99 17 f5 3d 47 6e dd 3d 08 ac dc 3a
       -0.45487583 0.119673915 0.10812049 0.0016835937
000220 58 9f ee bd fa 76 1e be 1e 95 64 3c 0c da 9b 3d
       -0.11651486 -0.15475073 0.013951568 0.076099485
000230 d6 35 af 3e 7b 69 9b bd 6e c9 b5 3d 71 e1 90 3d
       0.3422076 -0.07588478 0.0887631 0.070742495
000240 30 75 c4 3d 10 93 2c 3d ff 50 d9 3d 5f fb a0 3c
       0.09592664 0.042132437 0.10611152 0.019651113
000250 c8 4e be 3e 0a 80 94 3d 8e 0c 82 3c e8 28 a2 3e
       0.3716948 0.07250984 0.015875127 0.31671834
000260 75 b5 15 3d 01 36 10 3e 7e be 9e bd dc d5 ce bd
       0.036550004 0.14083101 -0.07751177 -0.10099384
000270 96 35 69 3b bd 12 08 bd 39 1d b8 39 b2 9a 66 3d
       0.0035584918 -0.033220995 0.00035116987 0.056299873
000280 0f 9e 0a 3e 4d fd 87 bd c4 87 7d be e5 af 3a 3d
       0.13536857 -0.0664011 -0.24758822 0.045577902
000290 2d 76 a5 3e 1b dd 88 bd e0 2f be 3d 0e 4e 9c bd
       0.32316723 -0.066827975 0.09286475 -0.07632075
0002a0 31 fa 89 3d da 41 c1 3d 51 ad 71 bc c5 82 23 3d
       0.06737173 0.09436388 -0.0147507945 0.039919633
0002b0 8e e7 d3 bc 88 dd 80 3c 5e 2c a4 bb ae 5e 6d 3d
       -0.02586725 0.015730634 -0.005010172 0.05795162
0002c0 97 69 e8 3d 2d d7 0b 3f 41 99 6b bc 4d dd eb 3e
       0.11348265 0.5462521 -0.0143798 0.46067277
0002d0 3f ca 99 3e 27 bf b9 3e 68 f5 15 bc c7 c6 29 be
       0.30037114 0.3627865 -0.009152748 -0.16579734
0002e0 c9 3f bf 3e 4e 94 ab bd 72 23 ba 3e 0b 9d 33 3e
       0.37353352 -0.08377896 0.36355168 0.17540376
0002f0 54 b9 8b 3e 69 b6 e5 bd b7 2e b3 3e 45 af fc 3e
       0.27289832 -0.112164326 0.34996578 0.4935247
000300 bb a8 84 3c 31 a1 cd bc ee 08 2e 3d fc 57 d4 bd
       0.016193738 -0.025101276 0.042488985 -0.10368344
000310 ce 0c fb be 91 ce 31 bd 81 2a 72 bc 83 e3 5b 3c
       -0.49033207 -0.043409888 -0.0147806415 0.013420942
000320 4f 1b 4a bd 0d fa 0c 3c 3e f9 c0 3d 60 b6 e9 bd
       -0.04934245 0.008604539 0.09422539 -0.114117384
000330 ef 6d a0 3e 34 32 4f 3d b7 00 00 bc 56 c0 8a bb
       0.31333873 0.050584987 -0.00781267 -0.004234354
000340 1f c9 4c 3e 82 4b 87 bc 4d ac 4c 3e 3d 19 87 bd
       0.19998597 -0.016515497 0.19987603 -0.06596611
000350 cb 15 b5 3e f2 ef 53 3d c9 d3 c0 bd f4 f6 90 3e
       0.3536819 0.0517425 -0.09415395 0.2831341
000360 cc 0b 04 be 53 29 16 3d 3b a6 63 be 56 b9 dd 3c
       -0.12895125 0.036660504 -0.2223138 0.027065914
000370 27 4f 6c 3c 45 d3 07 bd 11 8c 9a 3c e4 aa a5 3d
       0.014423168 -0.033160467 0.018865617 0.080892354
000380 98 5f 1b 3e 6a a8 e6 3d 39 ea 63 bd 8e ec eb 3d
       0.15173185 0.11262591 -0.055643294 0.115197286
000390 48 98 16 3e b7 54 f5 3c 90 26 a7 3d 2b 5b 5e 3c
       0.14706528 0.029947622 0.08161652 0.013571541
0003a0 a1 28 53 3d 89 a5 24 bd 94 cf bf 3d 46 b5 35 3e
       0.05155242 -0.04019693 0.09365764 0.17744932
0003b0 1e 1e 6d bd 61 72 a0 39 2f 62 8b 3d 2f a8 c3 bc
       -0.05789005 0.00030602797 0.068058364 -0.023883907
0003c0 ed 46 df 3c d5 bc 97 3e 18 86 ae 3d 39 67 bd 3e
       0.0272555 0.29636255 0.0852167 0.36992815
0003d0 3e 84 ca 3e a2 7a da 3e d1 eb 29 bc 3f d6 fd bd
       0.39554018 0.42671686 -0.010371164 -0.1239438
0003e0 5f f3 72 3e 97 8f 89 3d f0 c2 f7 3e 17 78 50 3e
       0.23725651 0.06716841 0.48390913 0.2035831
0003f0 6d a1 32 3e f5 fc 66 3d 97 42 85 3e 7c 26 b1 3e
       0.17444392 0.056393582 0.26027367 0.34599674

critc.2.bias f4 [64]
000000 17 99 bc be 43 3b 4c 3f 1d 1a 54 3f 7a d9 20 3f
       -0.36835548 0.79777926 0.82852346 0.6283184
000010 d0 42 ed bd 9f 40 63 be 3f 24 36 be 43 c0 dd be
       -0.11585009 -0.2219262 -0.17787264 -0.43310747
000020 0e bf da be 93 32 21 be 24 a9 d3 bd a8 0b e5 be
       -0.42723888 -0.15741949 -0.103349954 -0.44735456
000030 bf 87 11 be 40 28 2a bd 25 59 92 be 94 2e b9 be
       -0.1421194 -0.04154229 -0.28583637 -0.3616835
000040 d6 1c 3f 3f e5 ba ee be 2e 01 40 3f cd bc 37 3e
       0.74653375 -0.46626964 0.750018 0.17943116
000050 dd c8 83 be c6 52 4e be 82 32 57 3f 7a 58 4b 3f
       -0.25739184 -0.20148763 0.84061444 0.7943188
000060 b0 30 60 bd 83 1d 6e be 3e 6b ee bd 93 e5 b3 be
       -0.054733932 -0.23253445 -0.116415486 -0.3513609
000070 7b 84 59 3f 4c 25 34 3f 07 20 53 be 47 ad 9f be
       0.84967774 0.7036941 -0.20617686 -0.31186888
000080 c0 e4 77 be 4a ff df be 93 c4 71 3f 2d 14 4f 3f
       -0.24208355 -0.43749458 0.94440573 0.8089016
000090 a3 2d 22 3f 69 43 50 3f 16 17 46 3f 70 08 a6 be
       0.63350886 0.8135286 0.77378976 -0.32428312
0000a0 fd 9a b3 be c2 c8 1e 3f a4 a1 c1 3c a8 16 47 3f
       -0.35079184 0.6202508 0.023636647 0.77768946
0000b0 ee 3f 53 3f d0 e5 d0 bd 67 dd 24 be c3 87 99 be
       0.82519424 -0.10200083 -0.16100083 -0.2998639
0000c0 94 84 dc be 12 d0 18 be 90 ba a8 bd d8 0c 3c 3f
       -0.430699 -0.14923123 -0.08238709 0.734571
0000d0 15 89 82 be 23 73 6d 3f 7c 4e 77 bc a8 85 8b be
       -0.2549521 0.9275381 -0.015094396 -0.2725041
0000e0 a7 99 3d be 31 d7 c9 3e b1 f0 dc be 63 5a a8 bd
       -0.18515645 0.3942199 -0.43152383 -0.08220365
0000f0 03 70 5a 3f 36 5e 58 3f 4f 70 b9 be 47 18 af bd
       0.85327166 0.84518754 -0.36218497 -0.085495524

critc.4.weight f4 [1, 64]
000000 d5 e8 a3 3d a6 9b fe be 6d bd d1 be d1 61 fa be
       0.080033936 -0.49728125 -0.40964833 -0.48902753
000010 43 ca 17 bd e3 a6 78 3d fb 0a 4f 3e 61 b7 da 3d
       -0.037058126 0.06070603 0.20219032 0.10679508
000020 62 6a ee 3c 81 2a cf 3c cc b8 5e bb bd ae d3 3d
       0.029103462 0.025288822 -0.003398466 0.10336063
000030 cd fd 11 bd 8e 64 11 3e c3 a1 ca bd aa 68 04 3e
       -0.035642434 0.14198515 -0.09894135 0.12930551
000040 db 11 04 bf e9 54 a5 3d 58 01 02 bf ef 3e bf bc
       -0.51589745 0.08072836 -0.507833 -0.023345439
000050 44 05 92 3d 16 5f 32 bc 4f d7 fd be 70 b2 06 bf
       0.071299106 -0.010886928 -0.4957833 -0.52616024
000060 fc a1 82 bd 88 60 b7 3d 7f 59 a5 bd 64 8b 04 3e
       -0.06378552 0.08953959 -0.08073711 0.12943798
000070 44 15 fa be bc da ef be ed ad 9b 3d 90 83 bf 3b
       -0.4884435 -0.4684657 0.07601533 0.005844541
000080 66 f2 65 3d b0 42 1e 3e ce 60 cd be da 40 e4 be
       0.056139372 0.15455127 -0.4011292 -0.44580728
000090 89 99 03 bf ea ba e5 be 6d 4b 03 bf 17 9c 4f 3d
       -0.5140615 -0.44869167 -0.51286966 0.05068597
0000a0 18 24 96 3b 93 f0 06 bf 2a 0b bc bd 49 6c 0e bf
       0.0045819394 -0.5271084 -0.09181817 -0.5563398
0000b0 88 61 f7 be b3 5a 97 3e 9c 0b 0e 3d d8 c8 34 3d
       -0.48316598 0.29561386 0.03467904 0.044136852
0000c0 b2 b5 02 3e ee bb 89 bd 0c 47 b9 bd 26 d6 01 bf
       0.12764624 -0.06725298 -0.09046754 -0.5071739
0000d0 ea b9 94 3c 6f 04 e8 be 92 ed a7 bd 7b d1 93 3a
       0.018155057 -0.45315883 -0.0819961 0.001127764
0000e0 57 e6 53 3c dd 42 a4 be ba a7 7f 3d 26 7f 13 3d
       0.012933335 -0.32082263 0.062415816 0.03600993
0000f0 af ad e3 be 44 56 fd be 8c 84 8c 3d ec be d7 3c
       -0.44468448 -0.49479878 0.06861219 0.026336156
