saved_modelV2/Hopper/0.05/adversarial_attack_rs_seed_11092.pth (torch, 48833 bytes, 11 tensors)

action.0.weight f4 [64, 11]
00000000: 892c 483e 8dae 363d 01e2 193e 4250 8dba
00000010: 7f5f 71be 0f29 92be 2808 bfbd c553 563e
00000020: d4df 00be 65e9 95bd 329d 95bc 75ef 4fbe
00000030: 1cf0 853b 23d3 aa3c 0b92 a0b9 c8b0 2bbd
00000040: 55b9 09bc 35e3 acbc 6180 053d a936 d43d
00000050: 2079 a33c 225b 023e 1a4f 72be 38df f6bd
00000060: bd8f 40bd 96f2 a2ba 01ef a7bc aeef 173d
00000070: 5cd6 89b9 f60f 6b3d cee1 ed3d 8267 09bb
00000080: 0577 393e 1e1a cf3e a02a 17bd 1c9b 9dbd
00000090: a20c 1438 7cc1 2a3e fa63 833e 48b9 86be
000000a0: 03a7 a93d 46a0 823c de93 2fbd 222a 8c3d
000000b0: eed8 85be 5aa5 8c3d a586 703e 346b 4db9
000000c0: 7a51 08bf 0570 e9be 0301 a1bc 6817 72be
000000d0: ebe1 5d3e 2652 1e3e 407b d53c 099a 15be
000000e0: 2ab8 d73d a4c2 c83d 008d 103a e26a 8bbd
000000f0: 7c9c 99be afb2 6d3e 9079 cfbd 9e43 e73d
00000100: 3ff3 a53d 4041 033d 73b6 e1be 4d75 4e3d
00000110: 875c ac3d 7bd0 89b8 2ee7 68be 4f08 c4be
00000120: 3a34 d93e 6dcc fbbd 4072 5fbd 8aa5 683d
00000130: 7635 0cbe 508f 89be 8d3c 873d fe98 e73e
00000140: a222 dd3a c79e ebbe 89a4 0ebf 2967 80be
00000150: b2f2 6e3e 3b42 45be 59aa 6cbd 9889 553c
00000160: 76a9 8abe 1037 743d 4924 7e3e 3430 a4b9
00000170: aae9 25be d8ef c73c 53d3 a73d ca85 f8bd
00000180: 132e 813d d352 4d3d 5859 97bc e31d 8cbd
00000190: c6e1 7a3b 9c32 953c f2ab 153a bb31 0e3d
000001a0: 35e0 b23c 0359 8dbe 9631 5f3d cd33 d53c
000001b0: 9b48 cfbc 0a0e 16bd 2ce8 82be 5f4d 18bb
000001c0: 926f 2abd 71b9 743a 8085 acbd 5f1b 82bf
000001d0: e54c 6abe 4756 3dbe 32c9 623e 1b5c 473e
000001e0: b22b 023c e4c6 6f3e 59ad 55bd bef4 b1be
000001f0: 5c61 fc3a 46d0 7fbe d2f9 08bf 1c8e c83f
00000200: 3887 54ba b4bf 7bbd e518 4d3d f40e 8e3d
00000210: 903c 0fbd 5db5 6fbd b1a8 8cbe 2b86 c339
00000220: dd17 933d 2e60 0c3e 5e3a c83e a8ac f7bb
00000230: a412 193d e62f 50bb 5851 86bc 817c 233c
00000240: 22fb 44bb f6a4 62bb 870a c0b9 e41f 10ba
00000250: 486b bcba c297 153b 0850 62bc ace3 07be
00000260: e577 45bc c0e5 3abe 6458 993d c8ea 80bc
00000270: e4c6 eabc cb3a d8b9 e8da 7a3d f9eb a13c
00000280: 798c 613f d209 e4ba 3698 813e c4f9 34be
00000290: 244c 88be 31f5 dd3e 1368 e13d f167 833e
000002a0: 6db3 afba 46d0 523e 32b9 123e 476c 92be
000002b0: 6f1e 1dbe 2518 733d 5151 133d c091 04bd
000002c0: d652 e93e 960e 973e ddfb 1cbc ff0f 343a
000002d0: 98e5 1abe debf ecbc 1c2f 69be 3bd8 153e
000002e0: 24e1 efbd f124 90bd 0b01 ef3c 05aa 173e
000002f0: 8829 0dbc 86ee f0bc 9e54 4fb9 f0dd 7f3b
00000300: 8032 58bc 3fbd d1be 92a9 993b 923f 2b3c
00000310: bf82 003c 8bf4 e03b 5f1f c0be 5cf9 093d
00000320: e5e7 933d 7ce1 083a 4c91 1bbd c86a 983c
00000330: 9789 403d 22e2 16bd d7f8 20be b1c5 13bc
00000340: f189 e3bd 9432 7ebc f127 42be f9e0 3bbf
00000350: 79ee c43a bda1 da3e 8c9a 183e af8a a9bd
00000360: e325 833e b1e9 0dbd 8e35 e4bd 5565 043e
00000370: 1067 b53e aa9d 1b3e c20a 093f 300b ad39
00000380: fb45 45be 07fe 0f3e 6845 083e 63f2 e0bd
00000390: de96 a4bc 683e fd3c f3b1 bcbd 0d64 063f
000003a0: ac99 8fbe 4c0b 60be 6514 09bc 635a 8d3e
000003b0: 7dea 583e afbf 89bd 24fe d1bd 316e f53d
000003c0: d9c7 cc3c e037 323c c462 1abe a888 2dbf
000003d0: 76f1 06bf 9c4d 54b8 0b5a 9b3f 724d 1d3f
000003e0: 6272 14bf 08bc 323e 00a6 e8bd 843d 1fbe
000003f0: 1726 8cbd 841c 973e 4399 2cbc 155f 2c3d
0.19548239 0.04460006 0.1502762 -0.0010781365 -0.23571585 -0.2854695 -0.093277276 0.20930393
-0.12585384 -0.07319907 -0.018263433 -0.2030619 0.004087461 0.020852631 -0.0003062639 -0.04191664
-0.008406003 -0.021104435 0.032593135 0.10361988 0.019955218 0.12730077 -0.23662987 -0.12054294
-0.04701208 -0.0012431915 -0.020499708 0.03709381 -0.00026290386 0.05738827 0.116153345 -0.0020966236
0.18111809 0.40449613 -0.036905885 -0.076956004 3.5297715e-05 0.16675371 0.25662214 -0.26313233
0.08283808 0.015945565 -0.042865627 0.06843974 -0.26142067 0.06867476 0.23488863 -0.0001959026
-0.53249323 -0.45593277 -0.019653803 -0.23641741 0.21668212 0.15461025 0.026059747 -0.14609541
0.105331734 0.0980275 0.00055141747 -0.06807496 -0.300022 0.23212694 -0.10130608 0.11292194
0.08103036 0.03204465 -0.4408451 0.050404835 0.08416086 -6.5715016e-05 -0.22744438 -0.3828759
0.42422658 -0.122948505 -0.054552317 0.056798495 -0.13692269 -0.2686715 0.06603346 0.4523391
0.0016871283 -0.46019575 -0.5571981 -0.25078705 0.23334768 -0.19263546 -0.057779644 0.013033293
-0.27082413 0.059622824 0.24818529 -0.00031316432 -0.16202417 0.024406359 0.08194604 -0.12134893
0.06307616 0.050127815 -0.01847522 -0.06841638 0.0038281544 0.018212609 0.0005709521 0.034715395
0.021835426 -0.27606973 0.05449065 0.026025677 -0.025303176 -0.036634482 -0.25567758 -0.0023239476
-0.041610308 0.0009335494 -0.084239006 -1.0164603 -0.22880895 -0.18489943 0.22147062 0.19468729
0.007944988 0.23415715 -0.05216727 -0.34757036 0.001925509 -0.24981794 -0.53506196 1.5668368
-0.00081073074 -0.06146212 0.05007257 0.06936446 -0.034969866 -0.05852257 -0.2747245 0.0003729326
0.07182286 0.13708565 0.3910703 -0.007558424 0.037371293 -0.003176683 -0.01639621 0.0099784145
-0.0030056913 -0.0034583188 -0.00036628937 -0.0005497916 -0.0014375234 0.002282605 -0.013813026 -0.13270444
-0.012052511 -0.18251705 0.07487562 -0.015736952 -0.028659292 -0.00041242535 0.06124392 0.01976584
0.8810497 -0.0017397946 0.2531144 -0.17673403 -0.2662059 0.4335113 0.11006179 0.25665238
-0.0013404913 0.20587263 0.14328459 -0.28598234 -0.1534364 0.059349198 0.03596622 -0.03236556
0.4557101 0.29503316 -0.009581533 0.00068688387 -0.15126646 -0.028900083 -0.22771877 0.14633267
-0.11712864 -0.07038296 0.029175302 0.14810951 -0.008615859 -0.029410612 -0.0001977258 0.0039042197
-0.013195634 -0.40964696 0.004689404 0.010452168 0.007843672 0.0068650893 -0.37523934 0.033685073
0.07221965 0.0005221588 -0.037980363 0.018605605 0.047006216 -0.03683675 -0.15719925 -0.009019301
-0.111102946 -0.015514988 -0.18960549 -0.73390156 0.0015024684 0.42701522 0.14902705 -0.08278405
0.25614843 -0.034646694 -0.11143027 0.1292928 0.35430193 0.15196863 0.5353204 0.00033005467
-0.19264977 0.14061747 0.13307726 -0.109837316 -0.02009147 0.030913547 -0.092136286 0.52496415
-0.2804693 -0.2187931 -0.008366679 0.27608022 0.211832 -0.06726014 -0.102535516 0.11983908
0.024997639 0.010877579 -0.15076739 -0.67786646 -0.5271219 -5.0617018e-05 1.2136854 0.614463
-0.57987034 0.1745454 -0.11359787 -0.1555081 -0.068432026 0.29513943 -0.010534587 0.042082865

action.0.bias f4 [64]
00000000: aef7 43be a52b 873e 84ee e23e 3940 b4be
00000010: 92ae ab3e 8cae 033f c4e9 7f3e 87ee 5f3e
00000020: 39cc e33e f29b 063e 29e1 d43d 436b a1be
00000030: ea9f 633e b031 7abe f8f5 debc 3d35 cebe
00000040: 0e78 bdbe da0e e2be 09c2 3d3e 0c07 b0be
00000050: 190c b3bd fbfd aabe bde2 dcba 50ae 2ebe
00000060: fb7e f1be 3644 13bf dfa9 863e 0896 d5bd
00000070: 911e ca3e 3e02 c1be 5c1f a4be 9053 65be
00000080: 3251 9fbe 2a5a 03bf 3449 933d e88c 1fbd
00000090: ccb5 5abe 87d9 653e c009 e63e 9544 2a3e
000000a0: f749 b4be 0537 2bbe 9b79 f5bd 6c64 ac3e
000000b0: 421b ec3e ccd9 f7bc 9b14 9cbe e62e d63e
000000c0: 624d 55be 2078 9bbe f9c1 98be a737 1e3f
000000d0: db87 39be 7dc4 3dbe 7a86 cc3e ead6 063f
000000e0: 499c 94be c1e4 cb3e ed71 50bd a116 92be
000000f0: d847 4c3e c2b7 a6be a53e c8bd dfd6 52bd
-0.19137451 0.26400486 0.44322598 -0.35205248 0.33531624 0.5143821 0.24991518 0.21868335
0.44491747 0.13145426 0.103945084 -0.31527147 0.22228971 -0.24433017 -0.027216896 -0.40274993
-0.37005657 -0.44151956 0.1853105 -0.34380376 -0.08742542 -0.33396897 -0.0016852241 -0.17058682
-0.4716719 -0.57525957 0.26301476 -0.10429007 0.39476445 -0.37697023 -0.32055175 -0.22395158
-0.31116635 -0.51309454 0.07191697 -0.038952738 -0.21358413 0.22446261 0.44929314 0.16627724
-0.3521268 -0.16720207 -0.11986085 0.33670366 0.46114546 -0.03025522 -0.3048447 0.41832656
-0.208303 -0.30365086 -0.2983549 0.6180367 -0.18118231 -0.18531986 0.39946347 0.5267168
-0.29025486 0.39822963 -0.050889898 -0.2853289 0.19949281 -0.3256207 -0.097775735 -0.05147445

action.2.weight f4 [64, 64]
00000000: c5c6 763e 632e 453d 2027 b03d 45bb 233d
00000010: ed7e 43be b809 813d 86d5 70bd 75b9 09bc
00000020: 2be3 f83c bd42 9ebd 9ba2 d9be 14aa 04be
00000030: 6ebe 683d 138b 033e a367 11bf 2661 08be
00000040: f37a 10be fcbe 1f3e 6962 cebd c4e7 023e
00000050: 911c 6bbd 0a09 6fbe b34e 5abc ce40 a13d
00000060: fc62 0d3d 82ff 1d3e 0301 debb b977 863d
00000070: 866f 83be 5ad9 82bd a642 5abc eed7 203c
00000080: c71c b6bd 9090 4e3e 0593 433e b5fa 79bf
00000090: dea9 a03e 699e 09bd 3c36 f83d 6a4f 7d3e
000000a0: 9a3b 85bb 3c77 d3bd ceea bb3d 4f72 923d
000000b0: cd4a 08bf 62b5 9dbd 7dfc 3c3d fe29 a7bd
000000c0: b525 c63c 00b1 673d da2a 023f ef0a 473e
000000d0: 441d d7bd d5bb 373d 1123 eebd f198 983d
000000e0: 80af 7fbe bc7e d63c 8528 17bf 5e7e 673d
000000f0: 4353 e0bc 3bd1 883c 9178 87bd ed3b ae3d
00000100: 09d5 80bd 37bd 1f3c b7e9 84bc 1491 143d
00000110: cd3b 51bd 04cb 14be 484a 7a3c 4466 d63c
00000120: 1560 a93c 6155 5cbd c46f da3d 3f33 d7bd
00000130: 9bfa 83bd 2ebb bcbd 8c1f 2d3d ea1e 7e3c
00000140: aea2 053d 0230 babc 5bb1 98bc 73a0 1b3c
00000150: e0fe 0bbd 57e7 9e3d cab4 8d3d 7f75 70ba
00000160: b5e8 58bd 1797 d4bd 24ee b53d 0210 9f3d
00000170: 8906 94bd ee39 b6bd 0432 c4bd f04e 8b3d
00000180: ac05 853d 0b83 8c3d eb47 bfbd 14e8 303d
00000190: df69 833d 868c 0abe 0891 86bd 441f 273c
000001a0: b189 873c 6fbd 743c c60a f33c 456f 3fbd
000001b0: c771 713d 2a8e cd3c 7900 6c3d 18d9 a4bd
000001c0: f7c2 c43c 995d a6bc 7efb a2bc ce8e 5dbd
000001d0: ebaf 56bd f4be 693d 5c70 14be 06ba e3bd
000001e0: 18e5 06bc a144 6dbc 84b2 27bd 8592 eb3d
000001f0: 927d 203c 2c49 e33d d6b0 a13d a1e3 3d3c
00000200: fb66 04be ef52 b2bd bab9 523c ad8e 293c
00000210: 81d8 41bd 1324 16be c51a ecbc c147 ccbd
00000220: abde 35be b70f 44be b1ec 30bc fa08 cd3d
00000230: 6263 5e3b 628d a03d db4b 08bd 49aa ffbd
00000240: ea5d 17be cc68 a9bd 5fe0 1bbe ab10 9d3b
00000250: 84f1 5abe 49e3 27bd a384 24bc 92df 8dbd
00000260: 8c26 b03d 91b9 01be de96 6b3d 0e2e 60bd
00000270: 48eb adbc 68bd 953d a5e1 093c 88b6 693d
00000280: 2108 f93c 38ac 88ba d453 64be 7c5e 99bd
00000290: bde1 02be 6582 44bd c8c0 49be e429 9e3d
000002a0: ec1e 1abe 2ebd 04bd 876d 14be 1f52 13be
000002b0: e209 963d 088c 9c3c 7af4 febd a07d 71be
000002c0: 617a 0ebe 41fe 17bd f71a 333d fb61 cbbd
000002d0: bee1 e7bd 7c2d 623d a4e1 02be ed66 0fbe
000002e0: 99d9 7f3b c4b4 203d 0f01 acbd 6599 16be
000002f0: 69e3 a0bd 3ef5 09bd 2997 dbbd 8f5f 803d
00000300: 69c1 7f3d 78fd 8c3d 88de 9d3c fd2f 873d
00000310: 2458 ab3d cfa6 a9be 886b 05be cdcf 103d
00000320: 09fd c33d 8b07 523e 05d8 b63f 653c aebe
00000330: 0f43 a7bd c4b0 78bd 601c 8ebd fc61 513e
00000340: 279c 433e 96fe 65bf 3e59 42bd 3d39 01bd
00000350: dc76 773d cf3d 1a3e 3e4f 0e3d f5f4 5dbe
00000360: 4788 f3be 3c98 dfbd b49a d13d 72dd 473e
00000370: 3e0f e93e b385 08bc 9ea2 dbbd 4180 da3c
00000380: 0164 f5bd 688d 4fbd a515 e1bd 171c bdbd
00000390: a416 f6bd fc89 943b 067f f73c ae55 90bd
000003a0: 9099 e3bd 8752 0abb cd68 813e 223f 313e
000003b0: 962f cd3d 25ae 0dbe 5cf6 b2bc 65c3 3fba
000003c0: f90e 8f3d 2154 563d f428 89bf 202e 64bd
000003d0: 080c 7f3e 0b69 bdbe 48f5 023e d18a 83bc
000003e0: ef2f 2abe 3457 20be 79bc 36bd 85e0 9c3d
000003f0: 760c 8f3c 0dce 05be a0a2 c6be ba74 e33d
0.24099262 0.04813994 0.086012125 0.039973516 -0.19091387 0.06300682 -0.05879738 -0.008406033
0.03038176 -0.07727573 -0.4250687 -0.12955505 0.056822233 0.12846021 -0.5679876 -0.13318309
-0.14109401 0.15600199 -0.10077364 0.12783724 -0.05740029 -0.23343292 -0.013324427 0.07873689
0.034518227 0.154295 -0.006775023 0.06565804 -0.25671023 -0.06389113 -0.013321554 0.009817107
-0.088922076 0.20172334 0.19099052 -0.97648174 0.31379598 -0.033598337 0.121197194 0.24737325
-0.004065943 -0.103254765 0.09175645 0.07150709 -0.53239137 -0.07700612 0.04613923 -0.08162306
0.024187902 0.056565285 0.50846636 0.19437765 -0.10503629 0.044856865 -0.11627782 0.07451046
-0.24969292 0.026183479 -0.590462 0.056516998 -0.027383452 0.016701331 -0.06614793 0.08507524
-0.06290633 0.009749702 -0.016224725 0.03627117 -0.05108242 -0.1453057 0.015276499 0.02617181
0.020675698 -0.05379236 0.10665849 -0.10507821 -0.064442836 -0.09215389 0.042266414 0.0155103
0.032625847 -0.02272797 -0.018639257 0.009498703 -0.034178615 0.07758968 0.069192484 -0.0009172782
-0.0529563 -0.103803806 0.08883312 0.07766725 -0.07227809 -0.08897768 -0.09579852 0.068021655
0.064952224 0.06860932 -0.09339889 0.043190077 0.06416678 -0.13530168 -0.06570631 0.010200325
0.016545149 0.014937743 0.029668223 -0.046736974 0.058946397 0.025092203 0.05761764 -0.0804922
0.024018748 -0.020308303 -0.019895311 -0.054091267 -0.052413862 0.057066873 -0.14495987 -0.111194655
-0.008233331 -0.014481694 -0.04094173 0.11502556 0.009795563 0.11097941 0.07895057 0.0115899155
-0.12929909 -0.087072246 0.0128616635 0.010348958 -0.047325615 -0.14662199 -0.028821358 -0.099746235
-0.17760722 -0.1914662 -0.010798619 0.10011478 0.0033933748 0.07839467 -0.033275466 -0.12483651
-0.14781919 -0.082719415 -0.1522231 0.0047932467 -0.21381193 -0.04098824 -0.010041389 -0.06927408
0.08601102 -0.12668444 0.057516925 -0.05473142 -0.021230355 0.07311517 0.008415614 0.05705884
0.030399384 -0.0010427302 -0.22297603 -0.074887246 -0.12781425 -0.047975916 -0.19702446 0.07722834
-0.15050858 -0.03240698 -0.14494906 -0.14386795 0.07326104 0.01910974 -0.12448974 -0.23583078
-0.13913871 -0.03710771 0.043726888 -0.09930798 -0.11322354 0.05521916 -0.12781388 -0.14004107
0.003903961 0.03923489 -0.083986394 -0.14706953 -0.07855875 -0.033681147 -0.10722191 0.06268226
0.06244031 0.06884283 0.01927115 0.0660095 0.08366421 -0.33135077 -0.13029301 0.035354424
0.09569747 0.2051069 1.4284674 -0.34030452 -0.08167087 -0.06071545 -0.06939006 0.20447534
0.19102536 -0.8984159 -0.04744839 -0.031548727 0.060416088 0.1506264 0.03474354 -0.21675475
-0.4756491 -0.10917708 0.102345854 0.19518068 0.4551944 -0.008332658 -0.10724376 0.026672484
-0.11981965 -0.050671965 -0.109904565 -0.09233873 -0.12016037 0.0045330506 0.030211937 -0.07047592
-0.11113274 -0.002110632 0.2527527 0.1730924 0.10018842 -0.13835962 -0.021845989 -0.0007315188
0.06985278 0.052326325 -1.0715623 -0.05570805 0.24906933 -0.36994204 0.1278888 -0.016057404
-0.16619848 -0.15658265 -0.044613335 0.07660011 0.017461997 -0.13066883 -0.38795948 0.11106248

action.2.bias f4 [64]
00000000: 0351 c93d b213 f1bd 5b3b 0cbc 78be 4ebe
00000010: 1965 d1bc 365d d63e c2c0 c9bd 6717 d5bd
00000020: aa53 98bd 5fdd f9bd b055 97bb 0d99 c2bd
00000030: dbc1 633d f402 23bd 7c89 033f 765a 1d3e
00000040: 8090 06bd 314e b43d 1565 a5bd c1c7 f0bd
00000050: 9abc 8c3d 936d 27bc d095 94be d9f6 ecbd
00000060: c7c2 bdbd e6e9 21bd 36e1 aebd 5a1f 833e
00000070: f2ba 8e3e f835 f0bc f40c 1ebe 7d69 e63e
00000080: 950c bc3d c1e8 bb3e 4117 83be 33b6 27be
00000090: d290 82bd 032e 26be 8017 483e 46c6 0d3e
000000a0: 8491 8e3d ceed f9bd 6a5d 1a3f 0f8f 25be
000000b0: 1690 88be 9867 61be 8b94 223e 0e0e 333d
000000c0: e026 68be 5df9 e6bc 7843 41be f65c 87bc
000000d0: 3601 4a3d 38e6 f2bd 8c17 b0bd 4003 1c3e
000000e0: 0e04 19bd 46f9 dbbd 450b 293e 5f7b b1bd
000000f0: 6f63 d33d a312 3abb e1b2 263e fc29 43be
0.09829905 -0.11771335 -0.008559073 -0.20189846 -0.025560902 0.4186799 -0.09851219 -0.10404854
-0.07437833 -0.12200426 -0.004618369 -0.09501848 0.055604797 -0.03979774 0.5138166 0.1536654
-0.03285265 0.08803976 -0.080759205 -0.1175685 0.068719104 -0.010218996 -0.29020548 -0.1157052
-0.092656665 -0.039529704 -0.08539049 0.25609857 0.27877003 -0.02932261 -0.15434629 0.45002356
0.09182087 0.36701015 -0.2560368 -0.16378097 -0.063752785 -0.1622849 0.19540215 0.13845167
0.06961349 -0.12203561 0.6029879 -0.16167854 -0.2667243 -0.22012174 0.15876977 0.043714575
-0.2267108 -0.028195078 -0.18873394 -0.01652382 0.04931756 -0.11860317 -0.08598241 0.15235615
-0.037357382 -0.107409045 0.16508205 -0.08666109 0.103217 -0.0028392456 0.16279174 -0.19058985

action.4.weight f4 [11, 64]
00000000: 8755 d0bd 2570 2bbd 7550 aabd 1de2 983e
00000010: 7133 a93d 70ff 41be 1a34 043e c464 f63d
00000020: b2c7 493d 7d01 3c3d c51d 9c3c 0bdd bfbd
00000030: 9cce 8fbe 6dbd bc3d 611a 47be 1c98 23be
00000040: 1837 de3d 160b 9bbd b89b 0f3e b0e2 00ba
00000050: 0a42 04be f0b2 36be 78fa ce3b 15ab 563e
00000060: 0355 c9bd ccfa 273c 9aff a2bd 0058 20be
00000070: 267b 15be 04a2 233d 6df4 e13d 20e2 6cbe
00000080: c72c 39be 8a57 40be 4655 433f 5621 413e
00000090: 1b39 0abe 721e 7b3e aa00 2ebe fe63 fabd
000000a0: aa30 03be c803 02bd 29ba 77be 5fc6 0a3e
000000b0: 7c98 623e 7617 46bd 7d2e 2dbe e105 c7bd
000000c0: a741 c63d bab9 f0bc 285d 373e 9cf3 d2bb
000000d0: 5358 c7bd cdc5 7eba 7617 6ab9 5d12 22be
000000e0: 0307 bebc 37cc abbd 9623 e1bd 1c28 63be
000000f0: 2f08 18be e865 ebbc f7d3 2abe acdc edbd
00000100: 3f6c 123e 34b0 7abd 7801 9f3d ae1d cbbe
00000110: 42f0 4a3d 0c32 7d3e 370f 15be a356 a93d
00000120: 285a 76bc 85f3 0e3e a3f3 5a3e 7683 fcbd
00000130: d740 963e 2280 cd3d ba19 823e d6b2 623e
00000140: 97b2 ee3d 42b2 023e decd 05be 50e2 b43d
00000150: bcd0 243e 1d2b 483e 248b 793b 9bd7 40bf
00000160: 7259 493d b975 b4be 1175 933c 7acc 7d3e
00000170: bcc1 523e 95bf a43a 9fca a4bb bb28 643e
00000180: 6c9b 683e 2e5f 803e a1c6 9cbe 0056 4ebe
00000190: 64e7 adbd e140 6dbe 7696 6f3e ebf9 4f3d
000001a0: 65d9 1a3e ea5c 90bc 1145 673e e19b 63bd
000001b0: dc50 71bb 4704 b13d 3738 4e3e 0d54 183e
000001c0: 6c38 9c3d 937c 0d3e 25ff fd3d 60d8 2d3d
000001d0: f26d 363e 6d31 983d 32af abbd 7a0a 553e
000001e0: a5f8 c2bc dd59 933d c610 2c3e 5250 233e
000001f0: 5e32 463e 1541 91bd c3b9 b53d f1a2 5a3d
00000200: 3d6b 96bc 3f28 313d 1340 b4bd 44bd 093d
00000210: c38a 07be 7d99 41be cbaa 6dbc 451e 1d3d
00000220: cde4 c8bd 3c39 e0bc 103d 04be aef6 c2bd
00000230: 8825 823d acca a0bc 2738 45be 7ba6 22be
00000240: 7447 d53d b208 7cbd de6d 633c 501f ba3d
00000250: d1d6 14be 9f47 31be ca0c 293e ca81 413e
00000260: 664f a1bc 37ec a23d e5ad 52bd f934 1fbe
00000270: 9ad8 11be c746 843d d771 253c 311b 6bbe
00000280: 3fae 39be fc23 40be 21ac 33bf 4247 213e
00000290: 1e2b ccbc 24bf 75be 6cac 2dbe d3e7 763c
000002a0: 18be 28be af3b 7cbd b384 77be 0842 163d
000002b0: c4cb afbd a154 c7bd 6ff5 2fbe 9e77 cebd
000002c0: 3048 653b 52d0 a3bd 70c6 893c 5138 b63d
000002d0: ef77 d6bd b6a2 81bd 1029 1a3d 8e6e 22be
000002e0: a667 ad3c 4c38 6a3c 45ee e8bd f73e e73d
000002f0: a407 eabd 5fa3 983d 5df2 323d d485 98bd
00000300: d5b3 1e3e 7913 893d 82da a63d f239 a8be
00000310: a1e2 b93d 4b86 7f3e 8090 f1bd fb94 8e3d
00000320: 1378 42bc 2383 19be d46b b63c 6de2 f83d
00000330: a34d a43e 92a0 b63b c456 7c3e 4268 613e
00000340: a9d0 f1bd 1203 f13d 9c33 163e 9452 0f3d
00000350: 85ab 093e 254c 443e 986d 89be 204c 343d
00000360: 069a a13d d214 033d 6bc8 f9bc 6194 7f3e
00000370: bd31 4d3e fcf8 f63c 9706 003c eb62 573e
00000380: 8627 6c3e 0d35 813e 85f3 6dbf e6a0 2abe
00000390: 0007 353d c99e 8abe 3b79 703e 5cf8 1b3d
000003a0: 5f68 163e 9522 15bd 6194 653e 2872 7bbd
000003b0: 7af3 64be 160c 81bd 2c33 4d3e fa11 333e
000003c0: 3ce2 8dbe c03d 0f3e e0f5 84be d9ee 653c
000003d0: 793e 303e efec 373d 0b51 8ebc 68a2 533e
000003e0: a17b 14bd efb0 693d 7ee1 333e a265 393e
000003f0: 5200 4b3e 8006 673d be24 e33d 9dd6 acbd
-0.10172563 -0.041854996 -0.08316127 0.2986001 0.08261765 -0.18945098 0.129105 0.12030938
0.04926271 0.045899857 0.019057164 -0.093683325 -0.28087318 0.092158176 -0.19443657 -0.15975994
0.10850352 -0.07570474 0.14024246 -0.00049165916 -0.12915817 -0.17841697 0.0063164793 0.209637
-0.09830668 0.010252666 -0.079589084 -0.1565857 -0.14597759 0.039949432 0.11032949 -0.23133135
-0.18083487 -0.18783394 0.7630199 0.18860373 -0.13498347 0.24523333 -0.16992441 -0.12226103
-0.12811533 -0.031741887 -0.24192108 0.13552235 0.2212848 -0.048362218 -0.16912265 -0.09717918
0.09680491 -0.029385436 0.1790663 -0.006437732 -0.097336434 -0.00097188057 -0.00022324719 -0.15827318
-0.023196703 -0.0838856 -0.109931156 -0.2218327 -0.14846872 -0.028735116 -0.1668242 -0.116143554
0.14299105 -0.061203197 0.07763952 -0.3967108 0.049545534 0.24726123 -0.14556585 0.08268478
-0.015036143 0.13960083 0.21382003 -0.12329762 0.29346344 0.10034205 0.25410253 0.22138533
0.11655157 0.12763312 -0.13066813 0.08832228 0.16095251 0.19547696 0.003807732 -0.7532899
0.049157567 -0.35246065 0.018000158 0.24785033 0.20581716 0.0012569303 -0.005029037 0.22281162
0.22715539 0.25072616 -0.30620292 -0.20149994 -0.084914 -0.2316928 0.2339724 0.05077545
0.15121992 -0.01762243 0.2258494 -0.05556858 -0.0036821878 0.08643394 0.20138632 0.14875813
0.07627949 0.13817053 0.124021806 0.04244268 0.17815378 0.07431302 -0.08383025 0.20804778
-0.023800204 0.071948744 0.16803274 0.15948609 0.19355151 -0.070924915 0.08873322 0.05337805
-0.018361682 0.043251272 -0.08801284 0.033627763 -0.13236527 -0.18906207 -0.014506052 0.038358945
-0.09809265 -0.027371041 -0.12913918 -0.09519707 0.06354815 -0.019627891 -0.19259702 -0.1588382
0.10414019 -0.06153173 0.013881175 0.09088004 -0.14535071 -0.17312478 0.16508785 0.18897167
-0.01969118 0.07955211 -0.05143537 -0.15547551 -0.14242783 0.06458812 0.010097942 -0.22959591
-0.18132876 -0.18763727 -0.7018452 0.15749839 -0.024922904 -0.23998696 -0.16960305 0.01506992
-0.16478765 -0.061580356 -0.24171714 0.036684066 -0.08583787 -0.097329386 -0.17183469 -0.10081409
0.0034985654 -0.07998718 0.016818255 0.0889746 -0.10472094 -0.06329863 0.037636817 -0.15862486
0.021167587 0.014295649 -0.11373571 0.112913065 -0.114272386 0.074530356 0.043688167 -0.07447401
0.15498288 0.06693167 0.08147146 -0.3285671 0.09076429 0.24953572 -0.11795139 0.069620095
-0.011869448 -0.14991431 0.022268213 0.12152562 0.32090482 0.0055733407 0.24642473 0.22012427
-0.11807377 0.11768164 0.14668125 0.034990862 0.13444336 0.19169672 -0.26841426 0.04401791
0.07890706 0.032002278 -0.030491075 0.24958946 0.20038505 0.030148022 0.007814071 0.21033828
0.23061952 0.25235787 -0.92949706 -0.1666294 0.04419613 -0.27074268 0.23483746 0.03807865
0.14688252 -0.036409933 0.22419883 -0.061388165 -0.22358504 -0.06301133 0.20039052 0.17487326
-0.27711666 0.139884 -0.25968838 0.0140339965 0.17211331 0.04490369 -0.017372629 0.20667422
-0.036250714 0.057053503 0.17566487 0.18105176 0.19824341 0.056402683 0.110909924 -0.08439372

action.4.bias f4 [11]
00000000: ccf9 96bd e71e e33d c436 99bd c010 033e
00000010: dde3 1b3e 6f13 ea3d ca0e 9ebd 9d18 a0bd
00000020: 7b13 95bd 69c8 f43d 6d4a 90bd
-0.07371864 0.110898785 -0.07481149 0.12799358 0.15223642 0.11429488 -0.077176645 -0.078171946
-0.07279106 0.11952288 -0.070454456

critc.0.weight f4 [64, 22]
00000000: eb82 1d42 739d ccbf 033e 07c1 abde 003d
00000010: df76 1541 b064 0641 9475 2fc1 7b78 4d3d
00000020: a844 3fbf 849f 62bf 2aef acbe 9fc4 04c2
00000030: bd15 0f42 f3f6 1cc2 7d21 ff41 2e0e 0b42
00000040: 97b0 fd41 472f 05c2 58e1 05c2 b4ef 04c2
00000050: 323b 0042 9dc3 03c2 d91e d5be 328d bd3f
00000060: 7553 bb40 30fc c03d ff60 50c0 2607 3ac0
00000070: f079 59c1 2fea 18bf abe9 17bf 81bc c93e
00000080: 8480 f03e 1a6a 1a40 804a 3f3f c621 7040
00000090: 01e0 95bf cb63 39c0 0522 9fbf 38ad 1b40
000000a0: 0a1a 2b40 82fa 2a40 b80a afbf 894d 1240
000000b0: cded 1d42 3ae8 d3bf d23a 05c1 0e95 91bd
000000c0: ffeb 1841 cc59 0641 efd8 32c1 092d c93d
000000d0: 402a 69bf 5e06 82bf 4047 5abe f4f5 04c2
000000e0: c1ae 0f42 aac8 1dc2 4002 0042 350d 0b42
000000f0: b38c fe41 b69b 05c2 dc9b 04c2 68a6 04c2
00000100: a8ae 0042 2da9 05c2 c08f 1b42 f54b c4bf
00000110: de3a 00c1 0b42 713d cd28 1641 48b4 fe40
00000120: a666 24c1 85d2 493e a27d 59bf c694 88bf
00000130: 835f 9dbe e290 05c2 d80c 0e42 bce3 1ac2
00000140: 2384 fc41 3712 0b42 359d fe41 f35a 04c2
00000150: 204c 05c2 9432 05c2 4e9a fc41 592c 04c2
00000160: 37a3 a5bf 082e 3a3f b398 6f40 7a09 73ba
00000170: 7394 0bbe d74e 6ac0 a551 7fc1 a3de d7be
00000180: 392e 0bbf 27c1 f23d 4ece 403f 6ef4 8940
00000190: bbd4 a0bf 90ff 9740 a6f1 6ec0 e0cb 25c0
000001a0: 5c5f 62c0 d78f 8c40 2c1b 8e40 2f8f 8840
000001b0: 0e09 72c0 2371 8c40 fcfd 24bf 155a c73f
000001c0: 4166 b640 6bb3 aebc 0612 5ec0 10a2 64c0
000001d0: 53f5 6bc1 d9a5 54bf 4b02 c9be b248 073f
000001e0: f6bd 1f3f a047 4c40 39cb 783e 783e 7840
000001f0: 1b4b dbbf 1611 14c0 196f ebbf 3128 4740
00000200: 784b 4940 09e4 4940 7933 eabf 2ad7 2e40
00000210: e0b1 1b42 e1c9 aebf f643 01c1 5bdb 113d
00000220: 7021 1541 f2f4 0241 cfc7 26c1 b63b 813d
00000230: 5ef5 32bf 363c 84bf 4274 8fbe 024f 04c2
00000240: 6b34 0d42 91ab 1ac2 ac78 fa41 e660 0b42
00000250: 6525 fd41 1c90 04c2 59d7 04c2 c4d2 04c2
00000260: b46a fd41 3a4e 04c2 7122 f1be 02e8 ca3f
00000270: 4a35 c540 5d25 c0bd d8bd 70c0 8ca3 44c0
00000280: ffb3 68c1 77d6 20bf d125 23bf 96d7 c63e
00000290: 12eb 043f aeef 3f40 968b 443f 9359 8740
000002a0: 9698 dcbf e2e1 21c0 d38f c5bf 0fbd 3f40
000002b0: 7a55 4140 dbb0 3f40 793d d2bf 7e03 3840
000002c0: 77c8 1d42 8a87 bdbf 3225 06c1 5e1a c1bd
000002d0: aeda 1341 eb8c ff40 70d8 33c1 006b 983d
000002e0: 2d73 41bf 6f89 9cbf 334b 1bbd 304b 06c2
000002f0: 16b6 0f42 0cb2 1cc2 3571 fe41 4f1b 0d42
00000300: e647 0042 842d 05c2 9582 04c2 522b 05c2
00000310: bf68 0042 15b2 04c2 33c5 1f42 90f0 ecbf
00000320: 2865 09c1 a90f c3bc 5171 1c41 ece1 0341
00000330: 82b1 30c1 bb61 e73d 3f3c 6ebf 9c61 92bf
00000340: f8d1 07bd b281 06c2 3554 1142 1e1f 20c2
00000350: 64d4 0042 b1e3 0b42 7489 0142 b836 05c2
00000360: 4a67 05c2 9d73 06c2 951c 0142 9151 06c2
00000370: 1f8a 1a42 1305 d3bf b63f 06c1 b4dd a33b
00000380: 7926 1641 c252 fe40 b752 28c1 db2d e2bc
00000390: ac0f 09bf c978 8abf e82e 0abe 1a2d 05c2
000003a0: 1977 0e42 11ce 1ac2 7845 fb41 781b 0b42
000003b0: fac1 fe41 02fc 03c2 a05c 04c2 2958 04c2
000003c0: e5f1 fe41 3658 04c2 48dc 1d42 eb74 e6bf
000003d0: ef5b 08c1 2057 8fbd 34ff 1741 43df 0041
000003e0: 4870 38c1 ea94 f73d 720b 72bf 3067 7cbf
000003f0: 751f 94be fa98 03c2 9948 0f42 ed61 1cc2
39.37785 -1.598555 -8.45264 0.031462353 9.341521 8.399582 -10.966206 0.050163727
-0.74714136 -0.8852465 -0.33776218 -33.192013 35.77123 -39.24116 31.891352 34.763847
31.711226 -33.29617 -33.470062 -33.234085 32.057808 -32.94103 -0.41625097 1.4808714
5.8539376 0.09423101 -3.2559202 -2.9066863 -13.59227 -0.59732336 -0.59340924 0.3940163
0.4697305 2.412726 0.7472305 3.7520614 -1.1708986 -2.8967159 -1.2432257 2.4324474
2.6734643 2.6715398 -1.3675146 2.2859824 39.482227 -1.6555245 -8.32686 -0.07108508
9.557616 8.396923 -11.177962 0.09823043 -0.91080093 -1.0158193 -0.21316242 -33.24019
35.92066 -39.44596 32.002197 34.762897 31.8187 -33.40206 -33.152206 -33.162506
32.170563 -33.41521 38.89038 -1.533568 -8.014372 0.058900874 9.384961 7.959507
-10.275061 0.19709213 -0.84957325 -1.0670402 -0.30736932 -33.391487 35.512543 -38.722397
31.56452 34.767788 31.826761 -33.088818 -33.32434 -33.299393 31.575344 -33.04331
-1.2940434 0.7272649 3.743695 -0.00092711265 -0.13630848 -3.661062 -15.957433 -0.42162046
-0.54367405 0.11853247 0.75314796 4.3110876 -1.256492 4.7499466 -3.733499 -2.5905685
-3.5370703 4.3925586 4.440817 4.2674785 -3.7818027 4.3888106 -0.6445005 1.5574366
5.699982 -0.021325788 -3.46985 -3.5723915 -14.747394 -0.83065563 -0.39259562 0.528453
0.6239923 3.1918716 0.24296273 3.8788128 -1.7132295 -2.3135428 -1.8393279 3.111828
3.1452312 3.1545432 -1.8296958 2.7318826 38.923706 -1.3655359 -8.079092 0.035609584
9.320663 8.184801 -10.423781 0.06310217 -0.6990565 -1.0330875 -0.28018385 -33.077156
35.30119 -38.667545 31.308922 34.844627 31.64326 -33.14073 -33.2103 -33.205826
31.677101 -33.076393 -0.4709659 1.5852053 6.162755 -0.093821265 -3.7615871 -3.072482
-14.543944 -0.6282725 -0.6372958 0.38836354 0.5192119 2.999004 0.7677549 4.2296844
-1.7234066 -2.5294118 -1.5434517 2.9959142 3.020842 2.9951694 -1.642501 2.8752131
39.445766 -1.4806988 -8.384081 -0.09428857 9.240889 7.985952 -11.240341 0.07442284
-0.7556637 -1.2229441 -0.037913512 -33.573425 35.92782 -39.173874 31.805277 35.27667
32.070213 -33.29445 -33.12752 -33.292305 32.10229 -33.17391 39.942577 -1.8510914
-8.587196 -0.023811178 9.777665 8.242657 -11.043337 0.112979375 -0.9306068 -1.1436038
-0.033159226 -33.626656 36.332233 -40.030388 32.207413 34.972355 32.38423 -33.303436
-33.35087 -33.612904 32.277912 -33.579655 38.634884 -1.6485924 -8.390554 0.0050007943
9.384393 7.9476023 -10.520194 -0.027609756 -0.5353954 -1.0818111 -0.13494456 -33.294044
35.616306 -38.701237 31.40892 34.776825 31.844715 -32.9961 -33.090454 -33.086094
31.868113 -33.086143 39.46512 -1.800443 -8.522445 -0.0699904 9.499805 8.054507
-11.527412 0.1208895 -0.94548714 -0.9859495 -0.2893025 -32.89939 35.820896 -39.09563

critc.0.bias f4 [64]
00000000: 825e 1d42 32df 8cc0 1a67 1e42 70a5 1b42
00000010: b368 a4c0 a557 93c0 a314 1c42 053c 94c0
00000020: 10dc 1d42 bfea 1f42 cbe0 1b42 d05a 1d42
00000030: 1136 2042 e63c 2042 a76e 1e42 5c2e 1e42
00000040: 9db7 1d42 ac83 81c0 d94e 1d42 60dc afc0
00000050: 6b3d 95c0 7245 99c0 d659 1d42 14ef 1c42
00000060: 5d00 1c42 7716 efc0 fad9 9ac0 5116 1d42
00000070: 8a08 74be d482 95c0 3966 1b42 6ff6 1d42
00000080: fc0d 98c0 3165 8cc0 7a73 1e42 ede9 1c42
00000090: 040f 1d42 d064 1b42 aed5 1d42 16f3 bec0
000000a0: 92c9 d2c0 bff3 2042 eb1d 1e42 3342 1e42
000000b0: e879 1e42 10ed 1c42 73bb 93c0 e44b 1e42
000000c0: b6c5 1b42 66e5 91c0 5bfe 2042 91e6 1c42
000000d0: 9a63 1e42 e171 1f42 f8d9 90c0 b9b0 a2c0
000000e0: 6911 2142 0606 1c42 8cbe 1c42 e413 aac0
000000f0: 9453 3bc0 46c4 1d42 7c99 90c0 7a3d 1d42
39.342293 -4.4022455 39.600685 38.91156 -5.1377807 -4.604449 39.020153 -4.6323266
39.464905 39.979244 38.969524 39.338684 40.0528 40.05947 39.60806 39.545273
39.42931 -4.047323 39.327 -5.4956512 -4.6637473 -4.789727 39.33773 39.233475
39.000355 -7.4714923 -4.8391085 39.271793 -0.23831382 -4.67222 38.849827 39.490658
-4.751707 -4.3873525 39.61277 39.228443 39.264664 38.84845 39.45867 -5.9671736
-6.5871058 40.238033 39.529217 39.564648 39.61905 39.231506 -4.616632 39.574112
38.943077 -4.5592527 40.248394 39.225163 39.597267 39.86121 -4.5266075 -5.0840726
40.267002 39.005882 39.18608 -5.314928 -2.9269762 39.441673 -4.518736 39.310036

critc.2.weight f4 [64, 64]
00000000: 2b4f 1a42 8ff7 4bc1 a69a 1642 1563 1a42
00000010: f085 93c1 321c 68c1 4dab 1942 bfc5 54c1
00000020: 079f 1642 d557 1542 3009 1b42 538f 1742
00000030: 6f6b 1542 bae0 1442 f576 1542 6869 1442
00000040: 588a 1c42 998a 42c1 aea4 1d42 6b5a abc1
00000050: 82f8 80c1 4581 8ec1 0791 1942 71d7 1c42
00000060: 25d3 1842 90a3 cfc1 ddc3 8ec1 c13e 1b42
00000070: 99e1 05be ab60 6ac1 f52f 1942 187e 1b42
00000080: d47b 54c1 2823 58c1 9f44 1542 f8ec 1d42
00000090: e898 1742 316e 1742 634f 1c42 d5c3 b2c1
000000a0: 668a c4c1 3e5b 1542 add0 1442 43b7 1c42
000000b0: 7b9a 1642 bc33 1742 e9e6 7fc1 80cc 1c42
000000c0: f856 1a42 bd6a 51c1 9c48 1142 6971 1842
000000d0: 221c 1742 a302 1642 118c 5dc1 e5dd 7bc1
000000e0: 713b 1642 d6b2 1a42 dcde 1f42 2f04 96c1
000000f0: 4728 9441 7a3e 1e42 d8f9 51c1 c106 1742
00000100: b182 0bbe 3758 a83b 7210 b33c 4925 c63d
00000110: c03f 553b 8014 893d 7e2b 4fbd dee0 2a3c
00000120: 5847 12bb adbd 14be cde4 b9bd b39b 34bd
00000130: 98f9 593d 77f2 f1bd 7ef0 df3b 30c5 c8bc
00000140: ceb0 cabd 8afd e2ba 2ea7 80bd 120f c03a
00000150: 9c84 16bd cc4e e23d 5c8c 13be 9820 8bbc
00000160: 41b6 9e3d 806f cbbc 6271 9cbc 5a8c fb3d
00000170: da4b eb3d 27cc 11be 679a c93d 0496 cfbd
00000180: de41 84bd dae6 81bd b617 c5bd 5877 cbbd
00000190: 82ad 1f3d 8732 403d 680d 92bd f641 e73d
000001a0: 807b f63a 37da 14be 571d b0bc 4cba 0a3d
000001b0: 4578 0cbe 9dbd 6dbd aae0 8bbd c140 a6bd
000001c0: 68c8 e4bd 7b7a d8bd 6988 02bd 8a59 973d
000001d0: c6f9 e9bb cbb8 d0bd 6b14 613d 84c0 373d
000001e0: 9c23 eebd 1ee8 053d 572e 10be 0825 33bd
000001f0: e045 913d 5e50 8ebd d87e c9bd aa01 95bd
00000200: 4ed9 1942 c079 4cc1 2ced 1642 211e 1a42
00000210: 3f85 94c1 6519 68c1 676f 1942 d32f 54c1
00000220: abf1 1542 e12d 1542 54f3 1a42 d1d7 1742
00000230: 122a 1542 3775 1442 85ef 1542 df1c 1442
00000240: c8a5 1c42 c07e 41c1 d3b3 1c42 3331 abc1
00000250: c348 7fc1 f571 8ec1 ef80 1842 3c00 1c42
00000260: 7763 1842 0d2f cec1 79a2 8fc1 0e4a 1b42
00000270: 2d1c aabd ef4b 6ac1 9fec 1842 a9fe 1b42
00000280: 8eff 56c1 85e1 58c1 97fc 1442 237e 1d42
00000290: 99fb 1642 8c37 1742 ddcb 1c42 7f0e b1c1
000002a0: 7477 c3c1 0217 1542 846e 1442 16bf 1c42
000002b0: 0062 1642 1dd1 1642 b2fb 7fc1 6888 1c42
000002c0: 905f 1a42 bcc4 4fc1 594e 1142 e4a9 1742
000002d0: b350 1742 8c84 1542 af46 5cc1 58c9 79c1
000002e0: 1334 1642 d296 1a42 6cb3 1f42 08d0 96c1
000002f0: 74da 9441 7f10 1e42 0fa6 52c1 a859 1642
00000300: 5fd2 4b3d c9be debb 1d0b 6abc 728d 0ebe
00000310: 9189 29be 5ee7 1f3c 05aa 803a 7271 d4bd
00000320: 40f0 b1bd 07ce bcbd 1a9c 62be 6ac6 183d
00000330: 6d27 f6bc f968 f63d 229a 343d 046b bc3d
00000340: 3320 bc3c 463c c4bd 539e 54be b987 793d
00000350: 3120 ee3d 8dc4 58be d185 d33d 067a d73c
00000360: f2e0 c33d 25b1 29be c48b eebd 3200 22be
00000370: a8ee 893c a7e4 ed3d af28 973d 0c8c 3dbe
00000380: b921 b4bd 2c64 23bc 90f2 dd3d 6564 d03d
00000390: 66fa 29bd 512b ebbd 5a94 d53c 2cc8 4ebe
000003a0: e712 ad3c 4d98 c63d 4edb 60bd 456e b0bd
000003b0: ac6f b1bd bec1 e8bc 89c8 2f3d 06d3 a4bb
000003c0: 3271 803c 5a75 573d 3814 f5bd 70ac aebd
000003d0: 9e2b 423d 6445 f03d 7a32 4f3e 9fba 1abe
000003e0: 0d4c 463d 9a84 8abd 5f69 423e dea9 533d
000003f0: 2d19 b2bc 262e 0ebe 4566 06be b6d5 7bbd
38.577312 -12.747939 37.651024 38.59676 -18.4404 -14.506884 38.417286 -13.298278
37.6553 37.335773 38.758972 37.889965 37.354916 37.21946 37.36617 37.102936
39.1351 -12.158837 39.41082 -21.41915 -16.121342 -17.81312 38.39163 39.210392
38.206196 -25.954865 -17.845636 38.811283 -0.1307434 -14.648601 38.296833 38.87314
-13.280231 -13.508583 37.317013 39.481415 37.899323 37.85761 39.077526 -22.345621
-24.567577 37.339104 37.203785 39.178967 37.65086 37.80052 -15.993875 39.199707
38.58493 -13.088559 36.320908 38.110752 37.777473 37.502575 -13.846696 -15.741673
37.55805 38.674644 39.967636 -18.752043 18.519667 39.561012 -13.123497 37.756596
-0.13624074 0.005137469 0.021858428 0.0967508 0.0032539219 0.06693363 -0.050578587 0.010429589
-0.0022320356 -0.1452548 -0.090768434 -0.0440938 0.053216547 -0.118138246 0.006834089 -0.024508089
-0.09897004 -0.0017317992 -0.06281887 0.0014652929 -0.03674756 0.110501856 -0.14409012 -0.016983315
0.07749606 -0.02483344 -0.019097034 0.12282629 0.11489077 -0.14238034 0.09843903 -0.10136035
-0.06457876 -0.063428596 -0.09623663 -0.099348724 0.03898383 0.046923187 -0.07131463 0.11291878
0.0018805116 -0.14536367 -0.021498365 0.033869073 -0.13717754 -0.058042157 -0.06829961 -0.081178196
-0.11171037 -0.10570236 -0.031868372 0.07390125 -0.007140371 -0.101914965 0.054951113 0.04486133
-0.11627886 0.032692067 -0.14080177 -0.043736488 0.07093406 -0.069489226 -0.09838647 -0.07275708
38.46221 -12.779724 37.731613 38.529423 -18.565062 -14.5062 38.35879 -13.261676
37.486004 37.294804 38.737625 37.96076 37.291084 37.114468 37.483906 37.028194
39.161896 -12.093445 39.17561 -21.399023 -15.955264 -17.805643 38.12591 39.00023
38.097134 -25.772974 -17.954332 38.82232 -0.08306155 -14.643538 38.231075 38.99869
-13.437391 -13.5550585 37.24667 39.37318 37.7457 37.804245 39.199085 -22.132078
-24.433327 37.27247 37.107925 39.186607 37.595703 37.704212 -15.998949 39.13321
38.593323 -12.985531 36.32651 37.91591 37.828808 37.37944 -13.767257 -15.611656
37.550854 38.647285 39.925217 -18.851578 18.606667 39.51611 -13.165542 37.587555
0.049761172 -0.0067976457 -0.014284876 -0.13921145 -0.16556384 0.009759752 0.0009816295 -0.103732005
-0.08688402 -0.09218984 -0.2212986 0.037298597 -0.030048097 0.12031741 0.044092305 0.09200099
0.022964573 -0.09581809 -0.20763521 0.06092045 0.11627234 -0.21168728 0.10328258 0.026303302
0.09564389 -0.16571482 -0.11647752 -0.15820387 0.016837433 0.116158776 0.07380807 -0.18510455
-0.087954946 -0.009972613 0.10837281 0.10175399 -0.041498564 -0.11482871 0.026071716 -0.20193547
0.021127177 0.09697018 -0.054896645 -0.08614782 -0.08663878 -0.028412696 0.042915855 -0.0050300388
0.015678976 0.05260215 -0.11966747 -0.085289836 0.047404878 0.11731985 0.20234099 -0.15110253
0.04841237 -0.06763573 0.18985508 0.05167567 -0.02174052 -0.13884792 -0.1312495 -0.061483108

critc.2.bias f4 [64]
00000000: daa2 0442 1437 2dbd 6f0b 0342 4436 893d
00000010: ea8b 08c0 0614 5bbc e3d7 06c0 d4ba fabd
00000020: 4cfc 0742 f3cc 0442 cd35 0742 ad30 0c42
00000030: 1d9c 7fbd 0bb7 0942 8b68 0342 4f97 0dc0
00000040: b4b2 13be c4e1 0442 08a5 09c0 afe6 0bc0
00000050: 13d9 d0bd 6ecc 0242 656a 0242 6625 0a42
00000060: 030f 0542 231e 04c0 691a ccbc eeda 0842
00000070: 811e 01be cee4 a43d 8f5f 00c0 d54f 07be
00000080: fb85 0842 2c7f bbbd 0902 01c0 6fca 0542
00000090: c3b0 0b42 a68a 0cc0 6ab2 0842 58d6 bcbd
000000a0: 8d3c 3abd efe9 0dc0 d8a4 0442 c4c0 bdbd
000000b0: 2c2d 07c0 32f8 0cc0 f50b 09c0 aa7a 0242
000000c0: 895d 0dc0 9929 0542 24f8 0bc0 1aa6 0542
000000d0: a485 0ec0 4abf 0442 2936 0542 213d edbd
000000e0: 427f 0342 6da5 0742 13d7 0fc0 b9db 0dc0
000000f0: e72f 03c0 bfd4 0142 9675 0542 756f 0342
33.159035 -0.042288855 32.761166 0.066998035 -2.1335397 -0.013371473 -2.1069267 -0.12242666
33.996384 33.200146 33.80254 35.047535 -0.06240474 34.428753 32.852093 -2.2123601
-0.14423639 33.220474 -2.1506977 -2.1859548 -0.101976536 32.69964 32.6039 34.536522
33.26466 -2.0643394 -0.024914937 34.2138 -0.12609293 0.080514535 -2.0058324 -0.13214047
34.13084 -0.091551155 -2.0157492 33.44769 34.92262 -2.1959624 34.174232 -0.0922057
-0.045467902 -2.2174032 33.16098 -0.09265283 -2.112132 -2.2026486 -2.1413548 32.61979
-2.208834 33.290623 -2.1870203 33.41221 -2.2269068 33.186806 33.30289 -0.11583925
32.874275 33.91155 -2.247502 -2.2165358 -2.0497987 32.45776 33.36483 32.858845

critc.4.weight f4 [1, 64]
00000000: 358c 1cc2 bcb7 87bd b785 1cc2 1f22 2c3e
00000010: cd86 9e41 0227 fbbc 0d06 9b41 6ac2 92bc
00000020: 269e 1cc2 d1a3 1cc2 4c87 1cc2 9018 1dc2
00000030: 9776 683a 1834 1ec2 f123 1dc2 9b4c 9f41
00000040: a7b4 cf3d 085b 1dc2 328e 9d41 d914 a741
00000050: b3cc aebd d403 1cc2 9383 1cc2 a00f 1cc2
00000060: 9c00 1dc2 863d 9841 e665 4f3b a668 1dc2
00000070: 59af 11bd 1927 9d3d 72d0 9741 0ee8 34bd
00000080: d272 1dc2 d11c 603a e300 a741 c4be 1bc2
00000090: b4db 1bc2 2bbd 9f41 7c0e 1cc2 00bb 10bd
000000a0: fdaa 413c 846b 9941 b016 1cc2 c68a 8c3e
000000b0: eecf a041 0a6e 9641 66b9 9a41 f8fe 1cc2
000000c0: 6457 9e41 f5f8 1cc2 455e a341 a48e 1bc2
000000d0: 9d87 9541 a9d0 1cc2 e0fb 1bc2 fbc8 aabd
000000e0: d882 1dc2 c9d9 1cc2 cfaa a541 4465 9641
000000f0: 1219 a141 c7e4 1cc2 6704 1dc2 db63 1cc2
-39.13692 -0.066268414 -39.13058 0.16809891 19.81582 -0.030658249 19.377954 -0.01791497
-39.15444 -39.159977 -39.132126 -39.273987 0.0008867769 -39.550873 -39.2851 19.912405
0.101418786 -39.338898 19.694431 20.88518 -0.08535137 -39.00374 -39.12849 -39.01526
-39.250595 19.03004 0.003164643 -39.352196 -0.035567615 0.07673473 18.97678 -0.044166617
-39.36213 0.0008549216 20.875433 -38.936295 -38.964554 19.967367 -39.014145 -0.035334587
0.011820552 19.177498 -39.022156 0.27449626 20.101528 18.80373 19.340527 -39.248993
19.792671 -39.243122 20.42103 -38.889297 18.691217 -39.20377 -38.99597 -0.08339115
-39.377777 -39.21268 20.708403 18.799446 20.137241 -39.223415 -39.2543 -39.097515
