saved_modelV2/Hopper/0.04/adversarial_attack_rs_seed_35760.pth (torch, 48833 bytes, 11 tensors)

action.0.weight f4 [64, 11]
00000000: a796 1abe 8b6e 573f 4bd3 073c 1a0d 273f
00000010: d168 c63f 4593 b53e 9dde d6bc 331a 263d
00000020: 16f4 81bd 3761 5cbd c305 fab9 6391 03bf
00000030: e4a5 37bf 8a25 01bf 6235 21bd 5678 3d3f
00000040: 53c7 303e baf5 87be 7636 643c 0931 ab3d
00000050: f264 8f3d dd69 4dbd 0d29 babe a178 bb3e
00000060: bcc3 a43e d160 6c3e 1264 c4bc c2f8 f83d
00000070: 04ee 873c 4ddb a2bd 8a31 7f3d 8d6f b33c
00000080: d93f 0c3a fdd3 e8bd 7671 ec3f af70 303d
00000090: a1bd c43e 694b fb3d 1f16 033f 3d40 80be
000000a0: db50 2a3e 4a82 51be 9763 1bbe b60f fcbc
000000b0: 2b07 b8be 52d3 20bf 59b8 cdbd a06c 25bd
000000c0: 16fe 19be 2a72 2bbe 4d1a 633d 3216 0b3e
000000d0: 146e cfbd 959f 21bd 47e7 ff3a 29e0 c53e
000000e0: be6e f0be 3630 3c3d cf87 ac3e 34ee 003d
000000f0: 5de1 34bd 3210 9c3d 16c4 bc3d e2be 8abd
00000100: a5fe 64bd 0117 00bb a0b6 5dbe 6353 50bf
00000110: 99dc 68bd 33a4 0b3e 5238 0d3e 3746 0bbe
00000120: 7a72 c03f 1d1e 0cbe b57d 2e3c 18c6 523d
00000130: e05d 233d eb46 37be 7ac9 12be d9d4 31be
00000140: 6ccc 53be c6d1 293d 38da ddbe 09e6 1f3f
00000150: 0819 9f3e 2f02 2bbe 4f6e 583e 002e 893c
00000160: 0135 2ebe 9f52 533e 3c6e 91bd 3ad0 a63d
00000170: a729 8dbc 0b5f a53d 2dd0 b2ba e0f8 583d
00000180: 548b 80bd 4b4a 713e 9500 2abc 8255 b93e
00000190: 558e e3be 1412 c13d 238d 1cbd adb3 ecbe
000001a0: 7761 98bd c66d b5be e197 37bc 2490 2e3d
000001b0: 363f 47bc 97e7 c3bd 3ddd 96bc 8370 0d3f
000001c0: d36c 303d 94c9 153e a229 a2bd 36c7 dabe
000001d0: 8497 623e 484c 213e d77d cbbd 5033 d6bc
000001e0: 94d1 c83c 64c3 36be e151 1340 d5a4 b33e
000001f0: fac7 96bf 0f6f 293e 1caa bdbd d535 11bd
00000200: d84b bd3b 9b43 a0bc e8a2 293b 6681 0fbb
00000210: d9cd 293d 9904 1b40 cca0 393e 0ef5 263e
00000220: 34ab 8fbe c8bf b63e f07c 8a3e e23f 0dbd
00000230: 9dc4 fbbc 5b05 86bd 666d 2a3b 067a 8bbe
00000240: de4e 803f 7253 36bd 8666 793e 9538 5c3f
00000250: d1fc 253f b6f2 823e 07b3 823d af20 17be
00000260: 7b41 efbd 89a6 b2bb 6050 16bd 95b7 e03f
00000270: b25f 8e3e aeab 41bb e6a4 fcbe c010 853f
00000280: bce9 033e 45f6 91bc 2906 24bd 3444 bdbd
00000290: d9ba d4bc 430c 60bd 3b14 e93f 388b c33e
000002a0: ae53 733e b283 1bbe f8c3 a43f 7bfe 70be
000002b0: 977b 793d 6522 1bbe c447 1fbe 92c1 adbc
000002c0: ab9f e83e 1fa8 7abe 9a9b 9b3d fcde 15be
000002d0: 3487 04be c8c8 bebd 0363 493e 0b7c d1bd
000002e0: 6677 7f3d 330f 0e3d 9876 0f3c 494b 9dbe
000002f0: ef91 803f 572d de3c eca7 abbd c350 bcbc
00000300: 8894 e7bd c5b1 88be 2c72 00bd 09f1 c2bc
00000310: 01b7 dcb9 9371 013c 5297 a83e 4ddc 35be
00000320: 5727 b7be 4b91 03be 9aa4 11bd 5810 3b3d
00000330: e6df cdbc 562d 9d3b f4ef 033c fac5 043d
00000340: 81e1 b9bb 0b31 eabe f26b 1c3e 4376 7fbd
00000350: 715a 5c3d 80ef 0c3e 891e 893e 11d9 19be
00000360: 4ecb 2e3e 16d4 20be 5501 e3bd 2619 9bbc
00000370: bd8f c8bd b745 f0be bcb9 15bd ead7 8ebd
00000380: 987a 2cbd d084 e5bf d1de 2dbd 6a2b 6ebd
00000390: 3fc8 1e3e 9157 443e dee6 0c3d 6797 eebd
000003a0: 8907 293f 8a96 023f 4984 6b3d 6bdd ffbc
000003b0: c6f7 d93d 4ce3 163e 3953 363e fa54 3dbe
000003c0: 77b4 05be 8ce5 91bd b557 9ebe e2fa 4c3f
000003d0: 2227 2fbe f9d0 cbbd cc2d 24be 9984 4fbc
000003e0: 29ed cbbb ef72 fe3c 8fe0 0cbd 502f 95bc
000003f0: 9009 203b 5a0f b33e 1459 3dbf e8ec 1bbe
-0.15096532 0.8415305 0.008290122 0.65254366 1.5500737 0.3546392 -0.026229197 0.04055233
-0.06345384 -0.05380365 -0.0004768801 -0.5139372 -0.71737504 -0.50447905 -0.03935755 0.74011743
0.17263536 -0.26554662 0.013929 0.08358962 0.07001676 -0.050149787 -0.36359444 0.3661547
0.32180583 0.23083808 -0.023973498 0.12156822 0.016592987 -0.079519846 0.062303104 0.021903777
0.000535009 -0.113685586 1.8472126 0.043076213 0.38425925 0.12270243 0.5120563 -0.2504901
0.16632406 -0.20459858 -0.1517471 -0.03076921 -0.3594297 -0.6282245 -0.10044927 -0.040386796
-0.15038332 -0.16742769 0.055445004 0.13582686 -0.101284176 -0.03945883 0.0019523882 0.38647583
-0.4695949 0.045944415 0.33697364 0.03147717 -0.044160236 0.076202765 0.09217088 -0.06774689
-0.05590691 -0.0019544961 -0.21651697 -0.8137724 -0.056851003 0.13636856 0.13791016 -0.13601004
1.5034935 -0.13683362 0.010650088 0.05145845 0.039884448 -0.17898147 -0.1433467 -0.17366351
-0.2068345 0.04145982 -0.4333055 0.6246038 0.31073785 -0.16700052 0.2113583 0.016745567
-0.17012407 0.20636986 -0.07101104 0.08145185 -0.017231775 0.08074769 -0.0013642363 0.05297172
-0.06276575 0.23563497 -0.010376115 0.3619805 -0.44444528 0.09427276 -0.038220536 -0.46230832
-0.07440465 -0.35435313 -0.011205644 0.042617932 -0.012161067 -0.09565657 -0.018416042 0.55249804
0.043072533 0.14627677 -0.07918097 -0.4273011 0.22128111 0.15751755 -0.099361114 -0.026147515
0.024513997 -0.17847973 2.3018725 0.35086694 -1.1779778 0.16546272 -0.092609614 -0.03545173
0.0057768635 -0.019563487 0.0025884453 -0.0021897196 0.041456077 2.4221556 0.18127745 0.16304418
-0.28060305 0.35693192 0.27048445 -0.03448475 -0.030733401 -0.0654399 0.0026005148 -0.27241534
1.0024068 -0.044513173 0.24355516 0.8602384 0.6483889 0.255758 0.06381803 -0.14758562
-0.11682411 -0.0054519814 -0.036697745 1.7556025 0.27807385 -0.0029551792 -0.49344558 1.0395737
0.12882131 -0.017817626 -0.040044937 -0.09241524 -0.025968002 -0.054699194 1.8209299 0.38192153
0.2376239 -0.15186957 1.2872305 -0.23534577 0.06090888 -0.15149839 -0.1555472 -0.021210466
0.45434317 -0.24478196 0.07598038 -0.14635843 -0.12942201 -0.0931564 0.19666676 -0.102287374
0.062369727 0.034682464 0.008756302 -0.307215 1.0044535 0.02712123 -0.08381638 -0.022987729
-0.11307627 -0.26698127 -0.031358883 -0.023796575 -0.00042098018 0.007900613 0.32927948 -0.1775982
-0.357722 -0.12848394 -0.035557367 0.045669883 -0.025131177 0.004796664 0.008052815 0.032415368
-0.005672634 -0.45740542 0.15275553 -0.062368643 0.05379719 0.13763237 0.2678111 -0.1502421
0.17069742 -0.15705904 -0.110842384 -0.01893289 -0.09793041 -0.46928188 -0.036554083 -0.06974776
-0.042109102 -1.7931156 -0.042448822 -0.05814687 0.15506075 0.19174029 0.03439986 -0.116499715
0.6602712 0.51010954 0.057499204 -0.03123351 0.10642962 0.14735144 0.17805184 -0.18489447
-0.13057123 -0.07123861 -0.3092629 0.80070317 -0.17104772 -0.09951968 -0.16033095 -0.012665891
-0.00622334 0.031060664 -0.034393843 -0.018211037 0.0024419762 0.3497265 -0.7396405 -0.15227091

action.0.bias f4 [64]
00000000: f2cf 663e e90d bdbe 48df 203f e03c 693e
00000010: 4238 f73e aa83 b9be 0ac8 2f3e 32a2 6cbd
00000020: 5e3a 5d3e 9cf1 0dbf 624f 10bf 77f2 803e
00000030: 55b6 0f3e f03a 2a3e 740f 9c3d a0a1 1e3e
00000040: 3eb3 c7be 1a57 853e a812 83be 44b9 113f
00000050: 6cfd 8b3c 3cb8 9ebe 69ef f83e ec6e 4ebe
00000060: 9dd9 bbbe 891a d23e 5a69 983e 427a 14be
00000070: db0d 09be 2531 66be 48e4 a43e 38d9 0dbf
00000080: 32df 2d3e 69c8 c5be 4f72 e4be 7816 cebe
00000090: 2036 9d3d be3d 4fbd 3cd2 47be 14a8 bcbd
000000a0: 6103 8ebd 64e4 c83d 6c14 b5be 634d cabd
000000b0: ca55 f3be 8e31 bbbe 7d01 af3e cc0c 113d
000000c0: 0184 1b3e 56ef b43e 4a4d 8bbd 6360 b0be
000000d0: 2dde e73e fbe7 013e 94bc 363e 603d c73d
000000e0: da68 1dbe e803 fd3e 95cd eb3e d9f9 bebe
000000f0: bc0b 073f 3664 003f ce7f b63b 6a8f 713d
0.22540262 -0.36924675 0.628407 0.22777128 0.4828511 -0.36233264 0.17166153 -0.05777187
0.21604297 -0.5544679 -0.5637113 0.25184986 0.14034398 0.16624045 0.07620135 0.15491343
-0.39003938 0.26043016 -0.2560017 0.5692332 0.017088614 -0.30999935 0.48620155 -0.20159501
-0.36689463 0.4103587 0.29767877 -0.14499763 -0.13384192 -0.22479685 0.32205415 -0.55409575
0.16979674 -0.38629463 -0.4461846 -0.40251517 0.07676339 -0.05059599 -0.19513792 -0.09211746
-0.06934238 0.09809187 -0.35367143 -0.098780416 -0.4752639 -0.36561245 0.34180823 0.035412595
0.15187074 0.3533885 -0.06801851 -0.34448537 0.45286694 0.1268615 0.17845374 0.09728503
-0.15372029 0.49417043 0.46055284 -0.37299994 0.5275228 0.5015291 0.0055694347 0.05897466

action.2.weight f4 [64, 64]
00000000: b88e d2bd 0c51 a63d 3a36 c13e 5da0 a83d
00000010: f676 d43e 3b0b 85be 3d2e f43d e4a6 6ebc
00000020: e159 fb3d 976d 53be bce6 d4bd cf43 5c3e
00000030: 40f4 ba3d 970b 113e 34e4 2b3e 30b0 4c3e
00000040: 11ae 28be 52e3 ed3d a9c9 62be 9c9e de3e
00000050: 396b 073e 747d 9a3b 2c0d e93e 6302 62be
00000060: 3c35 a2be 74eb 443e f4ef 18bd 352e 2d3e
00000070: 7c55 9cbd 2988 17be 3e44 233e 253e 6bbe
00000080: 511b 6f3e a37d 7ebf b4ea d9be 08b9 bbbe
00000090: 093c 4ebe 5834 10be 11b6 bebd f3d0 e7bd
000000a0: cae0 363d bd0b ef3c 38d8 57bf 79b1 203d
000000b0: 44dc 0fbe 6b91 eabe 7ec6 d83d f6e5 593d
000000c0: 21ef 163e 61f5 a43e 3cea 91bd 897e 86be
000000d0: 2971 533e a0e8 eebd 2321 063e 6138 e33d
000000e0: d665 f6bd fd98 8e3e 673c d63e 8d3f 273d
000000f0: 0b23 243f 9b16 1e3e de8a 53bc a2f1 973e
00000100: c8c5 813d 970d 593e fa4a 9abe 81f6 db3a
00000110: c7d3 bbbe d132 62bd 5346 11bd 22b7 033e
00000120: 095c 78be f9cb 0cbe 0669 fdbc 7e85 e4bd
00000130: f015 17bf edd8 853d 3579 25bd 7ebf a33e
00000140: a63d 66be 8b8f 70be 2f16 033e 3b19 3dbe
00000150: c8d2 cd3d cb74 9dbe 490d d0be ec44 78bc
00000160: 6703 4f3e 7f03 34be b8d3 073b 6719 cd3d
00000170: 721d f7bd 3b92 1fbe 33df 15be f5d9 023f
00000180: 78d3 263e 9b72 1f3f ee70 243e ecfe 85bb
00000190: daaa 88bd 09de 413e 3292 e23d 080e a93d
000001a0: 19e5 fe3d de35 d13e bbdd 3cbf 5c4d a13d
000001b0: 8bb1 953d a931 0f3e 2712 97be 1bf0 3abf
000001c0: 08e8 2f3e bffa b33e 20ab 39be 6dab ee3e
000001d0: 60dc 68be f02c 123d 8ff5 66be 38d7 5c3d
000001e0: 9238 29bf 3133 9bbe a045 a2bd 23c5 82bd
000001f0: 7b40 31be 1265 38be df9c 24bf a728 d3be
00000200: b944 bd3c 29fe 50be ab0c bbbd f0de 22be
00000210: 534c 29be fd45 083e 3584 2cbd 7e40 703c
00000220: 31b8 8dbd 7386 8e3d ff29 cabe 52d7 463c
00000230: dfe6 f7bd 5e41 9dbd 67d9 3b3e fabd 0ebe
00000240: 7990 fe3d 9623 d73d a58b 273e 1c43 013e
00000250: 7d21 93be b7a3 64be 4c3f 103d 27ed a63d
00000260: 2421 853e c500 59be 304c ec3b c81f 5fbe
00000270: d0f2 ebbd cbf4 123e f759 c6bd 7bec bbbd
00000280: ca09 4bbe f240 7abf 3be4 773e 020c c83d
00000290: a59b 41bf d67f ab3c 58e3 2dbd 42bd 3f3e
000002a0: 726a f6be 2fcd 343c b06a fbbe 10bf 01be
000002b0: 8f7c 1b3e 2e9a 34be c180 48bd eda8 1fbe
000002c0: 9426 593d ca7e 653e fee4 16bd 3381 3b3e
000002d0: 851e a1bd a83f 8d3d c5c9 8dbd 3a17 79bc
000002e0: cd5b 8fbd 3205 fc3c 4665 67bd 79ea 55bd
000002f0: 4be5 0fba 3414 4cbe 03c8 82bd 28d8 f43c
00000300: 3a71 293d 541a 76bd 9180 f3bd 75c1 1bbe
00000310: 50ab febd 762e 12be 0775 80bd 57e7 fd3b
00000320: a523 51bc 2506 91bd 3eb6 00be 6e6b 08be
00000330: 9e38 4d3d da91 9c3d 10fb 0fbe 145e 18bd
00000340: 3a07 f7bd fcef eebd 59de c43b 76a3 d03d
00000350: 9968 88bd c809 dfbd 64b1 233c 41b7 1a3d
00000360: 896d 22be 99d0 d2bc 53ed 06be fb3a 603d
00000370: 7b3f efbc ce96 bebb 95d6 01be 2cb4 ebbb
00000380: 795b efbd e33f 26bc de3f 5e3c 87ce 19bd
00000390: 92d2 c5bd cc43 d63c fa2d 0c3d a1de 13be
000003a0: c151 8d3d 8a62 223d d84e 93bd 98f9 00be
000003b0: 9256 33bd bdea 47bd b813 03be 4b5a 14be
000003c0: 4f15 f7bc 8bdf 56bd db6d f7bd 7ced 7d3d
000003d0: 99c1 99bc c930 14bd 5a8c c0bd ec96 e73d
000003e0: 4d53 35bd 73d0 f8bc 5d3b 27bd c418 50bd
000003f0: 76e6 d2bd 79d0 c1b9 51c5 a13c 3df0 afbc
-0.10281128 0.08120927 0.37736684 0.08233712 0.4149701 -0.2598513 0.11922882 -0.014566157
0.122730024 -0.20647274 -0.103955716 0.21510242 0.09128618 0.14164577 0.16786271 0.19989085
-0.16472651 0.116156235 -0.2214724 0.43480384 0.13224496 0.004714662 0.45517862 -0.22071223
-0.3168124 0.19230443 -0.037338212 0.16912158 -0.07633492 -0.14798035 0.15944001 -0.22972925
0.23350264 -0.99410456 -0.42561877 -0.36664605 -0.20140089 -0.14082468 -0.0931207 -0.11319151
0.04464797 0.029180402 -0.843143 0.03923175 -0.14048868 -0.4581407 0.105847344 0.053197823
0.14739658 0.3221846 -0.07124755 -0.26268414 0.20648636 -0.116654634 0.13098578 0.11094738
-0.120311424 0.27851096 0.41842958 0.04083209 0.6411597 0.15438311 -0.0129115265 0.2967654
0.06336552 0.2119659 -0.30135328 0.0016781838 -0.3668501 -0.055224244 -0.035467457 0.12862828
-0.24253859 -0.13749684 -0.030933868 -0.11158274 -0.5901785 0.06535516 -0.040398795 0.31982034
-0.22484455 -0.23492257 0.12801431 -0.18466656 0.10049969 -0.30753168 -0.40635136 -0.015153151
0.20216142 -0.17579459 0.002072556 0.10014611 -0.12066163 -0.15583126 -0.14635925 0.51113826
0.16291606 0.6228425 0.16058704 -0.004089227 -0.06673212 0.18932356 0.11063041 0.082546294
0.12446041 0.4086141 -0.73775834 0.07876083 0.07309254 0.13983788 -0.29506037 -0.7302262
0.17178357 0.35152242 -0.18131685 0.46615162 -0.22740316 0.035687387 -0.2255461 0.053916186
-0.66101944 -0.30312493 -0.07923436 -0.06385257 -0.17309754 -0.18007305 -0.64301866 -0.41241953
0.023104059 -0.20409454 -0.091332756 -0.15905356 -0.16533022 0.13307948 -0.04211827 0.014663814
-0.06919897 0.06959238 -0.39485165 0.012136297 -0.12104582 -0.076784834 0.18344651 -0.13939658
0.124299 0.10504834 0.16361864 0.12623256 -0.28736487 -0.22328077 0.035216615 0.08150702
0.26001847 -0.211917 0.0072112307 -0.21789467 -0.11520922 0.14351194 -0.09685128 -0.091759644
-0.19827953 -0.9775535 0.24208157 0.09767915 -0.7562812 0.02093498 -0.04245314 0.1872454
-0.48128086 0.011035248 -0.49104834 -0.12670541 0.15184234 -0.1763694 -0.048950914 -0.15591784
0.053015307 0.22411647 -0.036839478 0.18311004 -0.07867149 0.06896907 -0.0692325 -0.015203292
-0.069999315 0.030764196 -0.056493066 -0.052225564 -0.00054891844 -0.19929582 -0.063858055 0.029888228
0.041367747 -0.060083702 -0.118897565 -0.15210517 -0.12435019 -0.14275536 -0.06272321 0.007748525
-0.012764846 -0.0708125 -0.1256952 -0.13322231 0.050102822 0.076450065 -0.14060616 -0.037199095
-0.12061925 -0.11666867 0.006007951 0.10187428 -0.066605754 -0.108905375 0.009991024 0.03777242
-0.15862097 -0.025734233 -0.1317647 0.05474375 -0.029205075 -0.005816317 -0.12679513 -0.007193109
-0.11687369 -0.010147068 0.013565032 -0.037550475 -0.09659304 0.026155375 0.034223534 -0.14440395
0.06900359 0.039644755 -0.071927726 -0.12595212 -0.04378373 -0.04880785 -0.12800491 -0.14487569
-0.030161528 -0.05245928 -0.120815 0.06199406 -0.018769072 -0.036179338 -0.0940177 0.11308083
-0.044268895 -0.030372834 -0.040828098 -0.05080487 -0.10297863 -0.00036967153 0.019747408 -0.02147686

action.2.bias f4 [64]
00000000: fbf6 5c3c 369f 54bd 03ce 533d 0d78 96bc
00000010: 258e cf3d 6c15 a2bd 58ab 78bd cec8 1dbe
00000020: 5694 1cbe ec94 85bc 0d6d 73bd 2bd6 29be
00000030: d4ac dbbc 96ba 3fbd 7ab7 903d 9bef d8bd
00000040: 43b4 3a3e 46ea 753e 46bb 30bd a93f afbc
00000050: 4068 6ebe 0eb4 2bbe fbb3 253e 8f5a d63a
00000060: 9d34 43bd fefe 26be f299 1abe 8af9 9c3d
00000070: b861 1abe 8a80 80bc 3874 16be b028 35be
00000080: 8042 bbbd c924 a7bd 0a65 46be 57ca 98be
00000090: c021 f53d cf73 4dbe 09ea f6bd a257 783c
000000a0: 485f a2bd 9879 443e 3a2b 543e 7ce2 0fbd
000000b0: 33e5 403d b6ae c0be 5bfd 0abc d2c3 a5be
000000c0: aba8 8fbd dd6b af3c f9a1 14be 99dc e0bd
000000d0: 275d d3be b348 1ebc 3dfc c0bb 34d7 3d3e
000000e0: c7fa 3cbd 7e72 53be 4658 94bd b623 16be
000000f0: 3415 34be 90ae 3cb9 9fa2 ed3c 6e70 3e3e
0.013486619 -0.051909648 0.05171014 -0.018367792 0.10134534 -0.07914242 -0.06071028 -0.15408632
-0.1529096 -0.016306363 -0.05943017 -0.16585605 -0.02681581 -0.0468088 0.070662454 -0.10592576
0.18232827 0.2401515 -0.043147348 -0.02139266 -0.23281956 -0.16767904 0.16181938 0.0016353893
-0.047657598 -0.1630821 -0.15097788 0.07664783 -0.15076339 -0.015686292 -0.14692771 -0.17691302
-0.09143543 -0.08161313 -0.19374481 -0.29841873 0.11969328 -0.20063709 -0.120563574 0.015157612
-0.0792833 0.1918701 0.20719615 -0.0351281 0.04709358 -0.37633294 -0.008483256 -0.32375962
-0.07014593 0.021413738 -0.14514913 -0.10979576 -0.41282007 -0.0096608875 -0.005889444 0.18539125
-0.046137597 -0.20649144 -0.07243399 -0.1466206 -0.17586213 -0.00017994107 0.029008208 0.18597576

action.4.weight f4 [11, 64]
00000000: 0eb7 78bd 36ca e63d aa2d b73c b9e3 19bb
00000010: af51 1e3c d5db 683d 748e e43d 7712 343f
00000020: ba0e 01be dee5 ddbc 5fc8 353d 8197 1b3d
00000030: 8549 523c d13d 143c da76 483d 61e8 dc3c
00000040: a892 bcbd 4c7c 333e 4f2d 8c3b 5e4d e63c
00000050: 845e e43d 2853 b9bd 85a8 b03c c177 bfbd
00000060: 5b90 013e a5f0 1dbe b0c5 4b3d 43a2 8c3e
00000070: 0365 083d ef88 013e 7c7a 8bbd 74e4 95bd
00000080: ad07 023d dc66 41bc eddf 993c e43d 903e
00000090: fb15 febd 5019 2bbd 560e 81be bb61 823d
000000a0: 1f1d 20bf a481 6dbe 1c0b 2f3e 3277 873e
000000b0: d64d b63e c806 913e 7d7d 263b 6465 253d
000000c0: 4df7 03be b342 9e3c 7182 703d d83a 9ebd
000000d0: e111 5b3f 4875 36ba 9678 a3bd b757 553e
000000e0: 9ed5 afbc 8d76 903c fe7f 70be 1201 0e3e
000000f0: 99ff c6be 0040 f83d 4f35 7cbc 092e 643e
00000100: 4915 01bd da19 353e d052 8ebd efa7 ad3d
00000110: 54e9 8dbd 60ba b33d 7821 47bd ffb7 c83e
00000120: 5065 df3c 97b0 6abd 155f d43d 9812 613c
00000130: d1b9 373d 2b12 7cbb 4d66 9abc 840b 403c
00000140: ed8c 11be eb07 343e 2f4b 6d3d 5565 c7bd
00000150: 1d03 433d 67e0 063d b8d0 bcbc 5e04 89bd
00000160: dc19 0d3e af1b 383e 5f0e 2b3d c6c4 143e
00000170: af93 a0bd 4128 083e caed f1bd 9910 9f3d
00000180: 7d51 453d 8d77 24be cd3e dd3c 1335 163e
00000190: 5a85 90bd 64fa de3d e611 36bf d8c4 913c
000001a0: afb9 89bf 4fe1 a6bd 7767 fd3d 5776 7e3e
000001b0: fc9b ae3e bdfa 8d3e 0f41 94bc 4c49 523e
000001c0: 312c 503d 657c 783d 312d 00be ecba f93d
000001d0: a8a8 3f3f 06e4 e33d ef03 343b 10e9 383e
000001e0: e229 88bc 7aa3 8c3d 4bcb e23e 4a7c 8abd
000001f0: 121d 62bf a158 5e3d 70b5 7ab9 53e5 ad3e
00000200: 79f3 243d 0186 5d3e 2358 3cbd 36e3 7abd
00000210: 2c45 ec3c 1b4a a23d b868 d2bd 31af 4a3e
00000220: bbb1 c73d 892e e8bd cb6c 803d e382 a03d
00000230: d892 dbbc e50a 06be a7b7 91bd 3aac 8bbc
00000240: f1ff 12be c586 543d 7265 de3d 3b96 34bd
00000250: 627b babd 638e 6fbc 7ea6 f03d 98b6 dc3c
00000260: 4596 c23d 9617 6e3e 5a67 2bbd d4db cf3d
00000270: b520 b03c bc68 253e 7389 1ebd 64a1 6cbd
00000280: 3f85 da3d b467 4fbe 8c16 97bd ecd3 003f
00000290: 7899 fdbd 88bf 053d bc5e 273f 72f7 b23d
000002a0: 8144 783f 64cf d33d 627d b13d d52e 153e
000002b0: fe19 6a3e 5914 4b3e d44e f9bc edf2 083d
000002c0: eb24 8cbe 1fa2 753d 4266 a83d 9911 313e
000002d0: 855d 653f 20c6 0bbd 2aee 093d d460 833e
000002e0: 140e a13d 3eac 56bd 23a7 8e3e 4a58 01be
000002f0: 1bc2 8a3f 1486 97bd 0973 5dbd daf9 b13e
00000300: 5abe 0fbe 1f31 663e 55ac 5cbe 844a bebd
00000310: 1a92 32be 13cb 65bd 30f7 1dbc bea0 babd
00000320: 5ec4 b8bb 117f ffbd 4d0a 42bd 1514 ed3d
00000330: e8fc bb3d 54b7 1bbe 85ac a13d e371 6b3d
00000340: 26b4 06be 4955 8abe a7a9 b83c cdab 13bd
00000350: 636f 0cbe a7fb 493e 7647 2f3b 9ef9 93bd
00000360: 3329 54be 1335 873e dfff 453e cdf7 92be
00000370: 908c 7ebe a04b 5e3e 0b5a 8f3d 1001 b43d
00000380: 6185 573d 3069 09be 9f48 16be 62c6 06bd
00000390: bc53 b9bd 4d61 4c3e a7ec 54bf cb0c 40bd
000003a0: 73fb c5be 0321 e53d 5961 963d 0856 aabe
000003b0: 24f0 213c fdbd 6a3e f7bf a3bd de34 45bd
000003c0: 6f4a d5bc 7d53 44bd 4840 23bc 0026 6f3e
000003d0: 38e3 573f 4420 d43c e68f 313d ece1 89be
000003e0: 71f4 e8bc b85f 0abd c80c c0bd db2b bd3c
000003f0: 4c6c b7be fb62 9bbe 38f6 53be 5663 4abe
-0.06072145 0.112690374 0.022360642 -0.002348168 0.00966303 0.056850273 0.11159983 0.70340675
-0.12603274 -0.027087148 0.044380542 0.037986282 0.012834911 0.009047941 0.04894147 0.026966276
-0.0920766 0.17527884 0.004277862 0.028113063 0.1115084 -0.09049064 0.021564731 -0.09349013
0.12652723 -0.1542383 0.049749076 0.27467546 0.033299457 0.12649892 -0.068104714 -0.073189646
0.0317456 -0.011804309 0.018783534 0.2817222 -0.12406536 -0.041772187 -0.2520625 0.06366297
-0.62544435 -0.23193985 0.17094082 0.26458126 0.3560626 0.28325486 0.0025404387 0.040379897
-0.12887307 0.019318914 0.05871815 -0.07726067 0.85574156 -0.00069602253 -0.07981984 0.20834242
-0.021464165 0.017634654 -0.23486325 0.13867596 -0.3886688 0.12121582 -0.015393569 0.22283186
-0.03151444 0.17685643 -0.06949389 0.084792964 -0.069292694 0.087757826 -0.048615903 0.39202878
0.02726999 -0.057297315 0.10369698 0.013737343 0.044854943 -0.0038462977 -0.018847609 0.011721496
-0.14213915 0.17581145 0.05793303 -0.097361244 0.04761039 0.03292885 -0.023048744 -0.06690286
0.13779396 0.1797931 0.041761752 0.14528188 -0.078406684 0.13296606 -0.11812933 0.077668376
0.048173416 -0.1606123 0.027007485 0.14668684 -0.07056685 0.10887602 -0.7112106 0.017794058
-1.0759791 -0.08148443 0.1237325 0.2484983 0.34103382 0.2773036 -0.018097429 0.20535773
0.050823394 0.060665507 -0.12517239 0.12193856 0.74866724 0.111274764 0.0027468165 0.18057656
-0.016621534 0.06867118 0.44295725 -0.067619875 -0.8832561 0.05428374 -0.00023909449 0.33964023
0.040271256 0.2163315 -0.04598249 -0.06125184 0.028841577 0.07924291 -0.1027388 0.19793393
0.09750696 -0.11337001 0.062707506 0.07837465 -0.026803419 -0.13090093 -0.07115107 -0.017049897
-0.14355446 0.05188634 0.10859193 -0.044088583 -0.09105565 -0.01462135 0.11750506 0.026942536
0.09501318 0.23251185 -0.04184661 0.10149351 0.02149997 0.16153234 -0.0387053 -0.0577711
0.10669946 -0.20254403 -0.07377347 0.5032337 -0.123827875 0.03265336 0.6537893 0.08738603
0.9697953 0.10342291 0.08666493 0.14568646 0.22861478 0.19831981 -0.030433096 0.033434797
-0.27371916 0.059969064 0.08222629 0.17291869 0.89595824 -0.034124494 0.033674397 0.25659811
0.07864013 -0.052410357 0.2786189 -0.12631336 1.0840486 -0.0739862 -0.054064784 0.34760934
-0.14037457 0.22479676 -0.21550114 -0.092915565 -0.17438546 -0.05610187 -0.009641454 -0.091126904
-0.005638643 -0.12475408 -0.047373105 0.11576096 0.091790974 -0.15206653 0.078942336 0.057481658
-0.13154659 -0.27018192 0.022541834 -0.036052514 -0.13714366 0.19724904 0.0026745475 -0.07225345
-0.20718841 0.2640768 0.19335888 -0.28704682 -0.24858308 0.21708536 0.06999596 0.08789265
0.052617434 -0.13419032 -0.1467614 -0.032904036 -0.09049174 0.19958992 -0.831736 -0.0468872
-0.38668403 0.11187937 0.07342786 -0.33268762 0.009883914 0.22924037 -0.07995599 -0.04814612
-0.02603647 -0.047931183 -0.009964056 0.2335434 0.84331083 0.025894292 0.043350123 -0.26930177
-0.028436871 -0.03378269 -0.09377438 0.023092201 -0.3582481 -0.30348954 -0.20699394 -0.19764456

action.4.bias f4 [11]
00000000: 86eb 063d f691 863d 1485 9c3d 2d25 8a3d
00000010: 90ba 5abd 56b2 e73d b88e f23c 3cf7 dc3d
00000020: 1605 b8bc 1889 00be 6364 06be
0.032939456 0.065708086 0.0764257 0.06745372 -0.053400576 0.11313312 0.02960907 0.10789344
-0.022463363 -0.12552297 -0.13124232

critc.0.weight f4 [64, 22]
00000000: 484d 8b3f 2643 c6be 9aeb 5c3e a465 933e
00000010: a81f 5e3e 3ff8 473d 2489 933c 8674 1bbd
00000020: 3c5a b13c 53ca 0c3d 6067 1d3e 59d3 833e
00000030: 48c9 17bc fc4e 583e ac96 00bf 36e6 6ebd
00000040: 7f53 3a3d bfc4 053e 787b b63b afa8 bb3e
00000050: 90ea b5bd ab65 e13e f600 f9be 8359 80c0
00000060: 1f46 09bf 8f38 7a3d dca1 f6be 6c50 86c0
00000070: 68d6 1040 f490 ae3e f707 7fbd 35ad ae3e
00000080: 724e 893e 79ce d63e d195 333f c678 3cbe
00000090: 6b1c 563e 49ea 393e f94a 363f c280 623b
000000a0: 15ac 83be 7282 93be a8f5 763f 495d 4e3f
000000b0: cb0a 8c3e 89bd 5cbe d04b 083d 317a c0bd
000000c0: 5d56 af3e fb4c 19bc 7d12 32bf bc8f d03d
000000d0: 9c42 07bc 786f 2ebd cebb 70bd e51a 85be
000000e0: 8f41 a6be 2156 43be 6b22 26bf 9d27 54be
000000f0: 56ec 0abf 9eb9 b2be 2237 b2be 1791 d23e
00000100: f3ab 0b3f 9333 1f3f 6c88 9a3f 1bdf 6cbf
00000110: f6fc 3ebe cb61 51be d1d8 203f b16f 84bd
00000120: 7eea 45bf f000 53be 0a52 c73d 59cc 0b3e
00000130: 6800 eb3d b38c b23d ed19 dabd d9b9 c03e
00000140: cde7 e8be 7f8c 1fbf bbc5 c1be d5ab 533e
00000150: 2e9c 8dbe 22d4 df3e a8f0 673e 1194 1d3d
00000160: ac9e 4b3f 3d92 c8be 1d4b a63d b285 9c3e
00000170: 27c8 41be 57a3 96bd 4517 94bd 8984 4abd
00000180: 292e e13d 1148 23ba bdd7 d2bd fbe5 b5bd
00000190: 4b9f 99be 381b 30be 014c 92be b278 e9be
000001a0: 015d 7cbd 3151 99be 5915 fdbd 20d1 d53e
000001b0: ceeb ee3e acce 913e 0627 07bf 57c8 cc3e
000001c0: acf3 fdbd fcd5 d43d e270 ec3e fd50 6d40
000001d0: 4e4d 85bc d9d6 363d d9ca 71be f165 b9be
000001e0: ea5f aebd 19cb 64bd df73 083e b81b 8dbc
000001f0: d853 953e 8bc0 71bd d0f5 21bd 4aaa 333e
00000200: 7b48 afbd 596c eabe bcb6 153f a3bb 8cbe
00000210: ef5f bf3f 7553 8dbf d140 2abf 3bd6 b7be
00000220: cd0b c43d 63f0 a63d c64b 00bf 75c8 33be
00000230: caba 83be a239 7cbe 0cb5 1cbe 1b5b 643e
00000240: 81e8 69be dbc9 073f 6b07 8cbe b8ef 09bf
00000250: 0581 2f3d 0961 153e f06e 58be 61ab 233f
00000260: b8a2 b6bc 68fc d73e 57e7 0fbf 1286 66c0
00000270: 33f9 aabf e5bf 3bbf 5db3 ecbe cb6b db3f
00000280: 8f92 1440 656c efbd 749c 0e3c 8128 4bbe
00000290: ccef 38be b728 f53e ad76 673f cee5 2cbe
000002a0: 8e89 d7be 9fd4 363f 7333 403f ff43 923e
000002b0: a981 863f 8298 d3bf c7f8 433f e97a d93e
000002c0: eda4 b53f 5340 63bf b468 02be 6119 533e
000002d0: 915c 0bbc cca3 3b3e afa9 6d3e f9a7 09bc
000002e0: ed34 56bd e281 a6bd 5581 efbc a7ae c73e
000002f0: 4ee1 e3bd e02b cf3e 0b1d c7be 6232 cebb
00000300: ce68 433e 4c9c 393e ee64 103e f1b7 c43e
00000310: 74f7 8abe 4074 f33e 0f9c b6be d578 dcbd
00000320: 03e2 57bd 55e9 553c e652 dd3d 276c 89bd
00000330: 38ce 163e 940d fc3c 2e2e 093d 8161 d63c
00000340: 6513 70bc 9856 b33d 68dd 913d 0fb3 8bbd
00000350: c00e 1f3e 90f4 2f3d 6021 013e 3de3 45be
00000360: 5461 64bd 1600 aa3e 23f0 6d3d f96a a73d
00000370: fffb 783f 5297 6abf 1a9f 113e 2ded 9d3e
00000380: 75c1 63bd 428b 1fbe b3c3 be3c 0621 113e
00000390: a69d bdbd 2b2e ac3c ebe5 953d 3f20 c13b
000003a0: ede0 f3be acb0 053d efe3 b2be c361 0dbf
000003b0: a5d6 e0be b57b fc3d 7045 13bf af50 9a3e
000003c0: ee5e 723e bd6a e53e 4fc7 093f 2fca 02c0
000003d0: e0a6 46bf 1a50 eabc 6cf1 cf3f a4c9 fe3e
000003e0: 5cff a2bf b83e 513d 3108 b5bd 7f2e c2bd
000003f0: f258 11bd edc2 8fbc f7fc 863e bd16 d13e
1.0882959 -0.38723105 0.2157425 0.28788483 0.21691763 0.04882073 0.01800973 -0.037952922
0.021649472 0.03437264 0.15371466 0.25747183 -0.009264298 0.2112388 -0.5022991 -0.058325015
0.045489784 0.13063334 0.005568918 0.36652133 -0.0888263 0.4402288 -0.48633546 -4.0109267
-0.5362262 0.061089095 -0.48170364 -4.197317 2.2630863 0.34094965 -0.062263455 0.3411652
0.26817662 0.419544 0.70150477 -0.18405446 0.20909278 0.18155779 0.7120815 0.003456161
-0.25717226 -0.2881046 0.9646859 0.8061109 0.27351984 -0.21556677 0.033275425 -0.09398306
0.34245577 -0.0093567325 -0.6955946 0.10183665 -0.008255627 -0.042586774 -0.058772855 -0.2599708
-0.32471892 -0.19075824 -0.6489627 -0.20718236 -0.5426687 -0.3490724 -0.34807688 0.4112632
0.5455925 0.6218807 1.2072883 -0.9252793 -0.18651184 -0.20447461 0.62830836 -0.06466616
-0.7731093 -0.20605826 0.097324446 0.13652171 0.11474687 0.087182425 -0.10649476 0.3764179
-0.4548935 -0.62323755 -0.3784617 0.20671017 -0.27658218 0.43716532 0.22650397 0.038471285
0.7953899 -0.3917407 0.081197955 0.3057075 -0.18924008 -0.07355373 -0.07231001 -0.0494428
0.109951325 -0.0006228695 -0.10295055 -0.08881756 -0.30004343 -0.17197883 -0.2857361 -0.45599896
-0.061612133 -0.29944757 -0.12357587 0.41761112 0.4666428 0.2847799 -0.5279392 0.39996597
-0.12399992 0.10392377 0.46179873 3.7080681 -0.016272213 0.04463849 -0.23612536 -0.36210588
-0.08514388 -0.05585775 0.13325451 -0.017225131 0.2916553 -0.059021514 -0.039541066 0.17545429
-0.085587464 -0.45785788 0.58481956 -0.27486905 1.4951152 -1.1041094 -0.6650515 -0.35905632
0.09572563 0.08151319 -0.5011562 -0.17556937 -0.25728446 -0.2463136 -0.15303439 0.22300379
-0.228426 0.5304238 -0.2734941 -0.53881407 0.042847652 0.14587797 -0.2113607 0.6393338
-0.022294387 0.42184758 -0.5621237 -3.601933 -1.33573 -0.7333968 -0.46230593 1.7142271
2.3214452 -0.116905965 0.0087042935 -0.1983967 -0.18060225 0.47882625 0.9041546 -0.16884539
-0.42097133 0.71418184 0.75078505 0.28567502 1.0508319 -1.6530917 0.7655148 0.42476586
1.4190956 -0.88770026 -0.12735254 0.2061515 -0.008505956 0.18324202 0.2320926 -0.008401864
-0.052296568 -0.08130242 -0.029236475 0.39000437 -0.11126958 0.4046316 -0.38889346 -0.006292627
0.19082949 0.18126029 0.14101002 0.38421586 -0.27141917 0.4754963 -0.35665938 -0.107652344
-0.052705776 0.013056119 0.10806827 -0.067100815 0.14727104 0.030768193 0.033491306 0.02616954
-0.0146530615 0.08756751 0.07122308 -0.06821262 0.1553297 0.042957842 0.12610388 -0.19324966
-0.05575688 0.3320319 0.05809034 0.081747 0.97259516 -0.91637146 0.14220849 0.30845013
-0.055604417 -0.15580466 0.023286676 0.14172754 -0.09258585 0.021018108 0.07319244 0.0058937366
-0.47632542 0.03263919 -0.34939525 -0.552273 -0.4391376 0.12328283 -0.5752783 0.30139682
0.23669025 0.44807997 0.53819746 -2.0435903 -0.7759838 -0.028602649 1.6245551 0.49763215
-1.273418 0.051085204 -0.08839453 -0.09481525 -0.035485215 -0.017549003 0.26364872 0.4083766

critc.0.bias f4 [64]
00000000: 2280 7140 d7f4 133f 31a7 4f40 297f 6b40
00000010: 3127 5c40 e772 283f c5bd 8740 c4ec 243f
00000020: b60d 7340 8d03 85bd 3b57 6740 1954 a1bf
00000030: 780f 6140 f481 753f 3fca 5140 44cd a7be
00000040: de12 6540 5d42 413e 4a40 7740 4d56 39bf
00000050: 22eb 8140 6e86 5940 aadb 5640 56ac 7b40
00000060: 0a21 7940 9816 1b3f b2e4 a6bf d23f 1b40
00000070: fab9 5e40 f2c6 7940 70fd 6140 b1e9 4c40
00000080: e39a 7f40 3a6e 4340 33ad 7f40 ce7c 6b40
00000090: b670 92bf b0f1 af3f 8985 5940 169a 8140
000000a0: bef2 0abe ebac 1f3f 34a1 533f a1ac 5d40
000000b0: 5557 c73f 6d6a 7840 e720 473f 1a88 8040
000000c0: 33d9 62bf bbe3 5140 4998 a63f 4d1f 8cbf
000000d0: 07a0 ed3f 3313 8140 00ca 4c40 d866 8340
000000e0: cbf4 ffbe 931d 8ebe 5ce7 2640 0740 883f
000000f0: 4883 7f40 2470 7040 22d0 6c40 905c 7c40
3.7734456 0.5779547 3.2445796 3.6796362 3.439892 0.6580033 4.241915 0.64423776
3.7977118 -0.06494818 3.6146991 -1.260379 3.5165691 0.9590142 3.2779691 -0.32773793
3.5792766 0.18872972 3.863299 -0.7239731 4.0599527 3.39883 3.3571572 3.9323936
3.8926415 0.6058135 -1.3038542 2.4257703 3.480101 3.9027677 3.5310936 3.2017634
3.9938285 3.0536027 3.9949462 3.6794925 -1.1440647 1.3745632 3.3987753 4.0500593
-0.13569161 0.62373227 0.8266785 3.4636614 1.5573527 3.8814957 0.7778458 4.016614
-0.8861267 3.2795246 1.3015224 -1.0947052 1.8564461 4.0335937 3.199829 4.106304
-0.4999145 -0.27756938 2.607871 1.064454 3.9923878 3.7568445 3.7002034 3.9431496

critc.2.weight f4 [64, 64]
00000000: a227 1940 cdfb 3a40 4634 7240 488d 0a40
00000010: 6bd1 3b40 2504 2640 7ebc 0b40 03c1 1d40
00000020: 9887 2940 ef4a 743d 1018 3f40 6570 18c0
00000030: 500f 3640 14b2 8340 fcb8 3440 30cf 65bd
00000040: b34c 3640 db1e 253f 884a 1d40 1f48 a1bf
00000050: e1a7 1940 d14e 4340 5afc 4f40 e3dc 2440
00000060: 9662 1140 221d 0340 d62a bbbf b7bb 8740
00000070: 08a3 4640 1c61 2140 9c45 3a40 3064 1b40
00000080: ab0c 1c40 2244 1a40 7943 1040 df41 2240
00000090: c8be ddbf 6af5 3840 d626 4d40 b8d3 2240
000000a0: 52a2 1dbf a1bb 3840 94bd 1b40 7e54 2c40
000000b0: 4495 9540 0a2f 4840 4870 4440 e79d 1540
000000c0: cabc debf 09b6 3640 14e1 3040 53d9 c7bf
000000d0: f4e3 8d40 d728 dd3f c456 4440 2e59 1f40
000000e0: 5e77 04c1 4073 6abf 94c0 0540 5ce6 1f40
000000f0: b018 2440 d1d3 3940 c479 2540 633b 2440
00000100: e1a9 993d 3a66 8fbd 889e c3bd 4b2e 363d
00000110: 13fd b23d 2379 733d bf29 a3bd 9dfa 98bd
00000120: dffc ecbd 7940 c8bd e512 a6bd b010 4fbc
00000130: f5aa d9bc 2044 82bd 1c65 473d fade 593d
00000140: 6451 13be 18f5 babd fd9b 06be db2e acbd
00000150: bc87 e43b 46b7 68bd e113 d6bd 5837 edbc
00000160: bf9c 473c d1ed a6bb 65d6 ce3d 182d bb3c
00000170: 7a9a ee3c a218 24bc 8369 cbbc 4ab0 89bd
00000180: 1a4e 12bd c35f d8bd 600e 50bc 0418 913d
00000190: 4d78 babd 6e11 5ebd 0855 9abd bdfe ab3d
000001a0: f43c ebbd f1db ed3b 0038 933d dd2a 7ebc
000001b0: 3212 aebd 622f 81bd ecc9 0e3d 9c28 c3bc
000001c0: 5699 04bb 8637 90bd 167c 1e3d 298f e83c
000001d0: 30a3 02be 0a47 34bc 21c9 9d3d 7fe8 e8bd
000001e0: 83ab 923d fcbd d0bd 0900 a5bd bae0 37bd
000001f0: 69ac 07be 7f33 6c3d 6fb9 14be 825e dcbc
00000200: 6bd3 133d 76c8 45bd 2997 57bd d088 0dbe
00000210: 3898 4b3d aa88 f0ba a5f9 0c3d e641 0ebe
00000220: a5ac 92bd bb4e 2e3d a52a 163b 8b0d dcbd
00000230: 36df 293d 5753 e9bd 60c0 763d 9d0c f3bd
00000240: c4d5 bd3d b18d 6e3c c729 343d aa25 a1bd
00000250: dce2 b43d 3bf7 c33c ca49 adbd 97ea 0cbe
00000260: 41ac 5dbd 021a 1ab9 943c 43bc 69e1 6abd
00000270: 2378 43bd 64a5 c2bd b4f7 c6bd 2fd3 afbd
00000280: b336 8f3d 0024 983d f41b 293c ff61 69bd
00000290: 4783 393d e352 e6bd 1698 fbbd eb23 00be
000002a0: 2aa3 a2bc 5e9d 47bd e974 05bd fd05 4f3b
000002b0: 3bcb 813c ec56 1bbd b625 34bd 31db f03b
000002c0: 7af1 5fbd 2982 643d 43b0 593d c4d1 b33d
000002d0: 7ff3 ccbd 4f41 5f3d 9fd2 0abe b680 88bd
000002e0: cd3b b63d 09f2 143d 4159 4bbd 5e97 d53d
000002f0: aad3 e0bd 4769 113d 321e 51bd 7ff4 c7bd
00000300: 2617 1c3e 0760 c9c0 8168 4cbf d228 6dbd
00000310: 4925 1ebe 57ae 2bc1 875e 633e 4ea0 4fc0
00000320: b6f1 473e feb9 21be c6cf ac3d 4583 1440
00000330: be8a 3fbe 3ffd ffc0 a52f d9be bc00 0cbe
00000340: 52a7 8dbe c5fc 6640 7de0 7d3d 4459 07be
00000350: 3c2a 793e bde5 c0be 908f 0fbf 2a08 343e
00000360: 39c6 a73e 0990 cdc0 f6ff ba3f eb48 ccbf
00000370: 0015 c3be 6970 883e f858 d1be 7f0e 92be
00000380: 1da6 ab3e 026f 27bf d72e 303e 3220 133f
00000390: 772a 68c0 fb8d aebf 3ea4 b8be f4c3 983e
000003a0: b3d4 00c0 642c 31c1 7e0c afbf 5168 6fbe
000003b0: b812 07c0 9f7b 863e 1c75 7ac0 915d 8d3e
000003c0: cb55 2ac0 e9e3 c3be f4ca 183e 491c 8b3f
000003d0: 47a6 71bf 7fc6 b53e 09bb 1fbf e083 a63e
000003e0: 15cb b340 330c edbf 5ce3 da3f 4c09 a5be
000003f0: dff5 2a3f e41e 483e 6931 d8bd a3e3 f33e
2.393044 2.9216187 3.7844405 2.1648731 2.9346569 2.594003 2.1833797 2.4649055
2.648901 0.059641775 2.9858437 -2.38186 2.8446846 4.115488 2.8237906 -0.056105793
2.8484313 0.64500207 2.457674 -1.2600135 2.4008715 3.0516856 3.2497773 2.5759819
2.2716422 2.0486531 -1.4622447 4.2416644 3.1037006 2.521552 2.9104986 2.42799
2.4382732 2.4104085 2.2541182 2.5352705 -1.7323847 2.889979 3.2054954 2.5441723
-0.61575806 2.886452 2.433446 2.692657 4.674471 3.127871 3.069353 2.3377626
-1.7401364 2.8548605 2.7637377 -1.5613197 4.4340763 1.7278088 3.0677958 2.489818
-8.279142 -0.9158211 2.089879 2.498435 2.5640068 2.9035532 2.585557 2.5661247
0.07503105 -0.0700192 -0.09551722 0.044477742 0.08739676 0.059441697 -0.07966947 -0.07469676
-0.11571669 -0.09777922 -0.081090726 -0.012638256 -0.026570776 -0.0636065 0.04868041 0.053191163
-0.14386517 -0.09128779 -0.13145442 -0.084073745 0.0069741886 -0.05681541 -0.1045301 -0.028957054
0.012183367 -0.005094268 0.10099486 0.02284865 0.029126395 -0.010015639 -0.024830585 -0.067230776
-0.035719015 -0.1056514 -0.01269874 0.07084659 -0.09104977 -0.05421584 -0.0753575 0.08398197
-0.11486235 0.007258885 0.071884155 -0.015513149 -0.08499564 -0.06307866 0.034860536 -0.023823075
-0.0020232997 -0.0704184 0.038692556 0.028388577 -0.12757564 -0.011003265 0.07704378 -0.1137247
0.071616195 -0.10192487 -0.08056647 -0.04489205 -0.13249363 0.057666298 -0.14523862 -0.026900534
0.036090296 -0.048286878 -0.052634392 -0.13821721 0.049705714 -0.0018351276 0.034417767 -0.13892326
-0.071618356 0.042555552 0.0022913602 -0.107447706 0.041472636 -0.11392849 0.060242057 -0.1186764
0.09269288 0.014560149 0.043985154 -0.07868512 0.088323325 0.0239216 -0.0846134 -0.13761364
-0.054119352 -0.00014696273 -0.011916298 -0.057343874 -0.047721993 -0.09504202 -0.09715214 -0.08585202
0.06992855 0.074287415 0.010321606 -0.056978222 0.04529121 -0.11246278 -0.122848675 -0.12513702
-0.019853193 -0.04873406 -0.032582197 0.0031589263 0.015843978 -0.037924692 -0.043981276 0.0073503484
-0.05467365 0.055788193 0.053146612 0.08780244 -0.10007381 0.054505643 -0.13556908 -0.06665175
0.08898125 0.036363635 -0.049645666 0.104292616 -0.10977872 0.03550079 -0.051054187 -0.09763431
0.15243205 -6.292972 -0.7984696 -0.057900257 -0.1544391 -10.730063 0.22204028 -3.2441592
0.19525799 -0.15793607 0.08438067 2.320512 -0.1870527 -7.999664 -0.42419162 -0.13672155
-0.27666718 3.6091778 0.061981667 -0.13217646 0.24332517 -0.37675276 -0.56078434 0.1758124
0.3276842 -6.4238324 1.4609363 -1.5959753 -0.3810196 0.26648262 -0.4088819 -0.28526685
0.33525172 -0.6540376 0.17205368 0.57471 -3.6275918 -1.3637079 -0.36062807 0.29837
-2.0129821 -11.073338 -1.3675687 -0.23379637 -2.1105175 0.2626619 -3.9133978 0.27610448
-2.6614864 -0.3825982 0.1492117 1.0868007 -0.94394344 0.35503003 -0.6239477 0.32522488
5.6185403 -1.8519348 1.7100635 -0.32233655 0.6678142 0.19543034 -0.10556299 0.4763461

critc.2.bias f4 [64]
00000000: 452c 3f40 0b44 62bd 32a7 0bbe d080 f7bd
00000010: 615f 1940 e648 7c3c 2297 3f40 8f88 db3d
00000020: 333f 1dbe 05c4 3b40 cc96 8fbd 0317 163b
00000030: c7fa 4040 ba64 3540 8070 04bf 0b62 3d40
00000040: edb0 0a3d 6cf3 4ebd 4226 c23b fec6 3d40
00000050: 8062 3340 6322 1340 c2d7 db3f b173 3e40
00000060: 04b6 04be a732 dbbe 9562 2bbe f1db b6bd
00000070: 3d59 583e 0d4d a0be f758 1a40 755b c4be
00000080: 3587 6ebe 3d3a 58be 81a9 b03d 12b4 4140
00000090: 34e7 3b40 0761 09be 71d5 3940 1b51 3740
000000a0: 1f5a f2be 0df3 3940 7d69 3440 6d21 3c40
000000b0: 0ef6 dd3c 5a84 3a40 0b32 02bd b05a 9bbe
000000c0: 981c 2ebe 9555 3840 f949 c6bc db22 2cbe
000000d0: c845 3e40 5267 1dbd e7f7 3040 e9fe fabd
000000e0: 763e 583e 2353 cebe 8e9e 27be 4536 3dbe
000000f0: b5b7 b9be 7023 23be bae5 a23b e765 98bd
2.987077 -0.055240672 -0.13637999 -0.12085116 2.3964465 0.01539824 2.9935994 0.10719406
-0.1535614 2.933839 -0.07011184 0.00229019 3.0153062 2.8342729 -0.5173416 2.959109
0.033860136 -0.050525114 0.005924971 2.9652705 2.802887 2.2989738 1.7175219 2.9758112
-0.12960058 -0.42812082 -0.16736825 -0.08928669 0.21127792 -0.31308785 2.41168 -0.38351026
-0.23293765 -0.21115966 0.0862608 3.0266156 2.9359865 -0.13415919 2.9036524 2.8643253
-0.47334382 2.9054596 2.8189385 2.9395401 0.027094867 2.914328 -0.031786006 -0.30342627
-0.17003095 2.8802235 -0.024205195 -0.16810171 2.973009 -0.038428612 2.7651308 -0.122556515
0.21117577 -0.40297803 -0.16369078 -0.18477733 -0.3627297 -0.15931487 0.004971233 -0.07441311

critc.4.weight f4 [1, 64]
00000000: 6182 5240 38da 98bc adff 74bd 731a e0c0
00000010: b202 7740 3299 15ba 04d1 4740 ef1e 7c3e
00000020: c30b 8bc0 f551 4840 aa9e b940 b2c6 823e
00000030: 42cf 4540 c36b 5640 dc01 89c0 fe11 4c40
00000040: c468 b4bd 3d27 9640 e30c cfc0 6168 4740
00000050: 7af0 4c40 3a8d 4440 5620 8d40 837f 4340
00000060: 8b4d dcbc 1344 82c0 8032 b6c0 d9c1 9fbd
00000070: 5175 cfc0 eeaa b5c0 c334 6b40 0639 85c0
00000080: a9ff 1ec0 e6b4 61c0 db4d c2c0 b10b 4a40
00000090: d699 4740 6b78 bec0 528a 4740 3939 5140
000000a0: f18e 49c0 7543 4b40 d69d 4e40 7257 4840
000000b0: 9e46 cfbd 81e5 4d40 3ded 01bd 74ae 26c0
000000c0: 6a67 a8c0 ea3f 4c40 72ec bdbb a6ec bec0
000000d0: 8d3d 4640 613a efc0 236a 4d40 e769 47c0
000000e0: d8e5 b9c0 c317 8ec0 277a a7c0 55e1 96c0
000000f0: d1da b2c0 0fb4 a2c0 1721 c1c0 39c4 e3bc
3.2892077 -0.018658742 -0.059814144 -7.0032287 3.8595395 -0.0005706727 3.1221323 0.24621175
-4.3451858 3.1300023 5.800618 0.25542217 3.090775 3.3503273 -4.281477 3.1885982
-0.08809045 4.69229 -6.470323 3.1157458 3.2021775 3.0711198 4.4101973 3.0546577
-0.026892444 -4.07081 -5.6936646 -0.078006454 -6.483071 -5.6771154 3.6750953 -4.163211
-2.4843543 -3.5266662 -6.072004 3.1569636 3.1187644 -5.9521995 3.1178174 3.2691176
-3.1493495 3.1759923 3.2283835 3.1303372 -0.10120891 3.2171328 -0.03172039 -2.6043978
-5.262624 3.191401 -0.0057960087 -5.9663877 3.0975068 -7.4758763 3.209603 -3.1158388
-5.809307 -4.4404006 -5.233661 -4.7150064 -5.589211 -5.08448 -6.0352893 -0.027803527
