saved_modelV2/Hopper/0.02/adversarial_attack_rs_seed_49186.pth (torch, 48833 bytes, 11 tensors)

action.0.weight f4 [64, 11]
0	0x3e632131	0.2218063
1	0x3d7fbb99	0.062434766
2	0x3e083a1a	0.13303414
3	0xbdd41fee	-0.103576526
4	0xbd975d01	-0.07390786
5	0x3d22751c	0.039662465
6	0xbdc93ac8	-0.09825665
7	0xbcf1cdac	-0.029517017
8	0x3c290282	0.010315539
9	0xbd541ace	-0.051783375
10	0xbe5a4732	-0.21316221
11	0xbe51b27f	-0.20478247
12	0x3f37e5cd	0.71835023
13	0xbe996396	-0.2995879
14	0xbe8204b9	-0.25394228
15	0xbeb4e3ad	-0.35329953
16	0x3ebb9ac8	0.36641526
17	0xbc71bd1d	-0.014754561
18	0xbe6c0961	-0.23050453
19	0x3e3cdedb	0.18444388
20	0x3da06c43	0.07833149
21	0x3b0e4339	0.0021707548
22	0xbdcdf13b	-0.10055777
23	0x3ce6ab7d	0.028157944
24	0xbdf2a868	-0.11848527
25	0xbe8f96f5	-0.2804486
26	0x3da52b68	0.0806492
27	0xbd90fb75	-0.070792116
28	0x3f00f16a	0.5036837
29	0xbd5e60c8	-0.054291517
30	0x3d54689b	0.051857572
31	0x3d6b147a	0.057392575
32	0x3d3d4583	0.04620887
33	0xbe29fed7	-0.1660112
34	0x3e2a5109	0.16632475
35	0x3d81e86d	0.0634316
36	0x3e316001	0.17321779
37	0x3f23b305	0.6394504
38	0xbdfcea1e	-0.12349342
39	0x3bd30993	0.0064403503
40	0x3d4a8767	0.049445536
41	0xbd114dc7	-0.035474565
42	0xbc2064c3	-0.0097896485
43	0xbbeb9537	-0.0071894187
44	0x3dc41f9d	0.09576342
45	0xbe9f2833	-0.31085357
46	0x3eadd74b	0.33953318
47	0x3e0524ed	0.13002367
48	0x3eb6f62f	0.35734698
49	0x3de7ee6f	0.113247745
50	0x3ea5998f	0.32343718
51	0x3e06ad83	0.13152127
52	0xbdfca322	-0.123358026
53	0xbda93cb8	-0.08263534
54	0xbbc283ee	-0.0059361374
55	0xbe5dd8b7	-0.21664701
56	0x3d042aa9	0.032267246
57	0x3d7229a7	0.059121754
58	0xbecb413d	-0.3969821
59	0xbdc3aa1b	-0.095539294
60	0xbcdf6075	-0.027267674
61	0x3c3f2ce0	0.011668414
62	0x3d64a16a	0.055818
63	0xbd47d9fd	-0.048791874
64	0xbd3f3d61	-0.046689395
65	0x3af77d65	0.0018881975
66	0xbeca0d3b	-0.3946322
67	0xbe44b1a5	-0.19208391
68	0x3dca05b9	0.09864373
69	0xbcc60fbb	-0.024177423
70	0x3ea55e9c	0.32298744
71	0x3bb67393	0.0055679767
72	0x3b96a659	0.004597467
73	0x3e0938ec	0.1340062
74	0xbdfd71a7	-0.12375193
75	0xbde297e8	-0.1106413
76	0x3bf55b38	0.0074876808
77	0x3ebaac13	0.36459407
78	0x3c851d4b	0.01624932
79	0xbda1fd40	-0.07909632
80	0xbd8e3b09	-0.06944854
81	0x3db956dd	0.09049771
82	0x3dbd73d3	0.09250607
83	0x3d63bc5a	0.055599548
84	0xbe00e3ce	-0.125869
85	0x3d9a8b0a	0.07546051
86	0xbc9cf4e4	-0.019159742
87	0xbe203456	-0.15644965
88	0xbcb66bde	-0.022268232
89	0x3f999589	1.199876
90	0xbf42ad26	-0.76045454
91	0xbf089127	-0.53346485
92	0x3e97b0d0	0.29627085
93	0xbc2c48cb	-0.010515402
94	0x3edc0df6	0.429794
95	0x3d003a94	0.031305864
96	0xbd0eca81	-0.03486109
97	0xbbcceaaa	-0.00625356
98	0x3d333b4e	0.04375773
99	0x3e8292b3	0.25502548
100	0xbd5f4d45	-0.05451705
101	0x3d0109a0	0.03150332
102	0x3da6f52c	0.081522316
103	0xbe267772	-0.16256502
104	0xbbcaeeb3	-0.006193006
105	0x3d9ab3f7	0.07553857
106	0x3e433727	0.19064008
107	0xbe2559a6	-0.1614748
108	0xbdb4a437	-0.08820384
109	0xbcafc6f5	-0.021457175
110	0x3e8d1709	0.27556637
111	0x3e817756	0.2528636
112	0xbd80c467	-0.06287461
113	0xbd8161a3	-0.06317451
114	0x3e747c66	0.23875579
115	0x3cc98e59	0.02460401
116	0xbd606184	-0.0547805
117	0xbd8077df	-0.062728636
118	0x3d873e21	0.06603647
119	0x3d5def52	0.05418331
120	0x3d1cd93f	0.03829312
121	0x3d1288c7	0.035774972
122	0xbf43751e	-0.7635058
123	0x3f500efa	0.8127285
124	0x3ef88d47	0.48545286
125	0x3da4d17c	0.080477685
126	0x3da3123c	0.07962462
127	0xbc7c35d7	-0.015393696
128	0xbd6751d7	-0.056474533
129	0x3d37a229	0.044832382
130	0x3cc5ec34	0.024160482
131	0x3b96439b	0.004585696
132	0xbe3e0772	-0.18557528
133	0x3ed5a042	0.4172383
134	0xbf0ab1c5	-0.54177505
135	0xbe2f3e4d	-0.1711361
136	0x3d2fa869	0.042885218
137	0xbd909387	-0.070593886
138	0x3e2a0ec9	0.16607203
139	0xbe533018	-0.20623815
140	0x3e402aca	0.18766323
141	0x3e072f24	0.13201576
142	0x3d2cd0d8	0.042191356
143	0xbe9c9f9c	-0.30590522
144	0xbdf57312	-0.119848385
145	0x3d8e5819	0.06950397
146	0x3e86d628	0.26335263
147	0xbde59125	-0.11209325
148	0x3b8a4b3e	0.0042203953
149	0x3e07bfd5	0.13256772
150	0x3e0fae65	0.1403137
151	0xbe1e75e4	-0.15474659
152	0xbe18b518	-0.14912832
153	0xbde0d4a6	-0.109780595
154	0xbd07855a	-0.03308616
155	0xbd0bf93d	-0.03417324
156	0x3df91eb8	0.12164062
157	0x3e2cac57	0.16862617
158	0xbdad7b86	-0.08470826
159	0x3f00c434	0.5029938
160	0x3dd042ef	0.101690166
161	0xbee066f7	-0.43828556
162	0x3eb82369	0.35964516
163	0x3e4ec395	0.20191796
164	0x3d14d4a0	0.036335588
165	0xbe3e2b58	-0.18571222
166	0xbefe4246	-0.49659938
167	0x3d78a616	0.060705267
168	0x3ea487a3	0.32134733
169	0x3d46e790	0.04856068
170	0x3dea6c23	0.11446407
171	0x3e2bab91	0.16764666
172	0xbcef8903	-0.029240137
173	0x3c8d7905	0.01726962
174	0xbb6d1531	-0.003617596
175	0x3ca51b35	0.020154575
176	0xbe0dc924	-0.1384626
177	0x3ddaa2ce	0.10675584
178	0x3cfed819	0.031108903
179	0xbe26f0ea	-0.16302839
180	0x3e0de88b	0.1385824
181	0x3d2a54eb	0.04158489
182	0xbc01ad1b	-0.007914807
183	0xbc7feb2c	-0.015620034
184	0xbcbeb97f	-0.02328181
185	0x3c6bc7f6	0.014390936
186	0xbad69f86	-0.0016374446
187	0xbe58628d	-0.21131344
188	0x3e64733a	0.2230958
189	0xbe3f594b	-0.18686406
190	0xbd3b9de9	-0.04580489
191	0xbef33fad	-0.47509518
192	0xbd9aa1ce	-0.07550393
193	0x3f15893a	0.58412516
194	0xbb415411	-0.002949957
195	0x3c646a94	0.013941426
196	0x3c72fca1	0.014830739
197	0x3da5f8e5	0.081041135
198	0xbe82160c	-0.25407445
199	0x3d84fa7d	0.06493089
200	0x3dae9aa0	0.08525586
201	0xbd9b20ae	-0.075745925
202	0xbddae17a	-0.106875375
203	0x3d927f65	0.07153205
204	0xbd4a4cf9	-0.049389813
205	0xbd74dc27	-0.059780266
206	0x3d2c4112	0.042054243
207	0xbba1be26	-0.0049359975
208	0xbdd12353	-0.10211816
209	0x3ea332d3	0.31874713
210	0xbcdc2655	-0.026873747
211	0x3d64f363	0.055896174
212	0x3eb2fff1	0.34960893
213	0x3e8c4ac3	0.2740079
214	0x3b8142bf	0.0039447243
215	0x3dec97f3	0.115524195
216	0x3db69712	0.08915533
217	0xbda89f43	-0.08233502
218	0xbd631050	-0.05543548
219	0xbb9aa22a	-0.0047190385
220	0x3e1528f8	0.1456641
221	0xbe3a283d	-0.18179412
222	0x3cd75d6d	0.026289666
223	0xbd049590	-0.032369196
224	0x3ba58956	0.005051772
225	0xbe13c5ff	-0.14430998
226	0x3d933a22	0.07188822
227	0x3e0ae49e	0.13563773
228	0xbdd9f88b	-0.10643109
229	0xbd3420e1	-0.04397667
230	0x3d2ce9de	0.04221522
231	0xbe49386d	-0.19650431
232	0xbd31d2ca	-0.043413915
233	0xbd324d02	-0.04353047
234	0x3d1a9a63	0.03774489
235	0x3d60444d	0.054752637
236	0x3e912ebe	0.28355974
237	0xbd1199ed	-0.035547186
238	0xbea2aff9	-0.3177488
239	0x3e875187	0.26429388
240	0x3e207484	0.15669447
241	0x3cb2e102	0.021835808
242	0xbe66678b	-0.22500436
243	0xbf2881fc	-0.6582334
244	0x3e909abe	0.2824306
245	0xbf71d9b3	-0.9447281
246	0xbe9fb16c	-0.3119005
247	0x3dfe59f8	0.12419504
248	0xbe2b88d0	-0.16751409
249	0xbe39ef2f	-0.18157648
250	0x3e21d254	0.1580289
251	0x3dbd7557	0.092508964
252	0x3be81567	0.0070826295
253	0x3e0dcea6	0.13848361
254	0x3f376451	0.71637446
255	0xbf177515	-0.5916303

action.0.bias f4 [64]
0	0xbe21473e	-0.15749833
1	0x3e8d8ecd	0.2764801
2	0x3da235d2	0.07920422
3	0x3e91a498	0.28445888
4	0xba5a905f	-0.0008337553
5	0x3e8c3f75	0.27392164
6	0xbe148ee0	-0.14507627
7	0xbe4f7d6d	-0.2026269
8	0x3d1544ec	0.036442682
9	0xbd6bb0c1	-0.057541613
10	0xbca66024	-0.020309515
11	0xbd4f9c1d	-0.05068599
12	0x3dd48a2e	0.10377918
13	0x3e948638	0.2900865
14	0x3d849b8d	0.064749815
15	0xbdc6db35	-0.09709779
16	0xbe6de45b	-0.23231642
17	0xbe9dc3f7	-0.30813572
18	0x3eb93e2d	0.3618025
19	0xbd8bf026	-0.06832914
20	0xbe3a9797	-0.1822189
21	0x3e67c5d1	0.22634055
22	0x3c52125f	0.012821763
23	0xbdf370fd	-0.11886785
24	0x3eaee0fb	0.3415602
25	0xbdc04619	-0.0938837
26	0xbeb2a26e	-0.3488955
27	0xbe8fe339	-0.28103045
28	0xbe1082b3	-0.14112358
29	0x3d748201	0.059694294
30	0x3dc8f85b	0.09812995
31	0xbd66af92	-0.05631978
32	0xbd19e3cc	-0.03757076
33	0x3e98e10a	0.2985919
34	0xbd3ba3f8	-0.04581067
35	0xbe127b19	-0.1430477
36	0xbd1f7f1b	-0.038939577
37	0xbeb7b713	-0.35881862
38	0xbde3c3be	-0.11121319
39	0x3e4cbec1	0.19994642
40	0x3ebb760b	0.36613497
41	0xbde4ab30	-0.11165464
42	0x3ca89004	0.020576485
43	0xbe1b53f7	-0.15168749
44	0x3e75c37b	0.24000351
45	0xbeabb6d7	-0.33537933
46	0x3dc081f6	0.09399788
47	0x3e20c1e4	0.15698963
48	0x3e06027c	0.13086885
49	0xbd1443f2	-0.03619761
50	0x3e0d1a7f	0.13779639
51	0x3e4c552f	0.1995437
52	0xbe33c143	-0.17554192
53	0xbead9710	-0.33904314
54	0x3e90d8b1	0.28290322
55	0xbe8f346f	-0.2796969
56	0x3d8246dd	0.06361172
57	0x3e22cc4c	0.15898246
58	0xbd660ebd	-0.0561664
59	0xbd86eaa0	-0.0658772
60	0xbe918d26	-0.28428
61	0xbe4b4135	-0.19849093
62	0xbd8c4526	-0.068491265
63	0x3d8cf229	0.06882126

action.2.weight f4 [64, 64]
0	0x3c16cc47	0.009203977
1	0xbe47ad0b	-0.19499604
2	0xbf5b6094	-0.8569424
3	0xbe11fea8	-0.142573
4	0x3e4865f1	0.19570138
5	0x3e1c1987	0.15244113
6	0xbe2b564f	-0.16732143
7	0xbaa552ee	-0.0012613216
8	0x3e8e9e08	0.27854943
9	0x3e5553e9	0.2083279
10	0xbd46aa28	-0.048502117
11	0x3df22fab	0.11825498
12	0xbcaee042	-0.021347169
13	0xbea44862	-0.32086474
14	0x3e75ad01	0.23991777
15	0xbe10f4e1	-0.14155914
16	0xbe00df80	-0.12585258
17	0xbd04a227	-0.032381203
18	0xbcd7988b	-0.026317855
19	0x3e4234d1	0.1896546
20	0x3e4ce089	0.20007528
21	0xbeceac61	-0.4036589
22	0x3e20a0d7	0.15686356
23	0xbd2fccc0	-0.042919874
24	0x3f12d900	0.57362366
25	0xbdcf5f3b	-0.10125586
26	0xbfa8b145	-1.3179098
27	0xbeefc7cf	-0.4683213
28	0xbe23d34e	-0.15998575
29	0x3e07cd01	0.13261797
30	0xbe1ac3b9	-0.15113725
31	0x3daeeee9	0.08541662
32	0xbd992355	-0.07477442
33	0xbdd81613	-0.10551085
34	0xbf1afef5	-0.60545284
35	0xbd91fdb6	-0.0712847
36	0xbe57b99a	-0.21066895
37	0xbe0dca5a	-0.13846722
38	0xbdda93ec	-0.10672745
39	0xbd312ecf	-0.04325753
40	0xbe338438	-0.17530906
41	0xbacd5255	-0.0015664796
42	0x3c866578	0.016405806
43	0xbceace6b	-0.02866288
44	0x3e1fa7f0	0.15591407
45	0x3d6b19c4	0.05739762
46	0xbd8b9a1c	-0.068165034
47	0xbd925872	-0.07145776
48	0x3dabb34e	0.08383809
49	0xbd055637	-0.032552924
50	0xbda7e460	-0.08197856
51	0x3d1eb160	0.038743377
52	0x3e251706	0.16122064
53	0xbd9bf5ed	-0.07615266
54	0xbd09ceff	-0.033644672
55	0xbe1ef3d2	-0.15522698
56	0xbc969b8b	-0.018384716
57	0xbcd293fb	-0.025705328
58	0xbd905f33	-0.07049408
59	0x3af62714	0.0018779957
60	0x3e10740e	0.14106771
61	0x3dbeac09	0.09310157
62	0xbc5f7e6c	-0.013640981
63	0x3d709abe	0.058741324
64	0xbe1cf40e	-0.15327474
65	0x3d5747e1	0.052558783
66	0xbd95cb48	-0.073141634
67	0x3d925e95	0.07146946
68	0xbd37a336	-0.044833384
69	0x3decc99e	0.11561893
70	0x3da50baf	0.08058869
71	0xbdba9186	-0.09109788
72	0xbe160a37	-0.14652334
73	0xbdd5f52e	-0.10447155
74	0x3b807343	0.0039199903
75	0x3d07a6c7	0.033118036
76	0xbd60d77e	-0.05489301
77	0x3daf1622	0.085491434
78	0x3d63b6c2	0.055594213
79	0x3e0b4a8b	0.13602655
80	0xbdb4eb38	-0.08833927
81	0x3d801b5c	0.062552184
82	0xbd281173	-0.041032266
83	0xbe31b2b8	-0.17353332
84	0x3d33d5df	0.043905135
85	0x3defb8c4	0.11705163
86	0xbb03ff10	-0.0020141043
87	0xbe5b15e5	-0.21395071
88	0xbdbf3eec	-0.09338173
89	0x3cf28623	0.029604977
90	0x3c7ded3c	0.015498456
91	0xbd852825	-0.065017976
92	0x3c75051b	0.0149548305
93	0x3d3b7266	0.045763396
94	0xbdc53920	-0.09630036
95	0xbd3184ad	-0.04333942
96	0xbb0def3d	-0.002165749
97	0x3d3075b3	0.043080997
98	0x3cfa55b6	0.030558448
99	0x3d2f2487	0.042759445
100	0x3e159e0a	0.14611068
101	0xbde239b8	-0.11046165
102	0x3c532a3f	0.01288849
103	0xbc48a177	-0.0122455275
104	0x3b8922cf	0.0041850577
105	0xbe083d9f	-0.13304757
106	0xbdf66fff	-0.1203308
107	0x3df8904a	0.12136896
108	0xbd62e765	-0.055396456
109	0xbc3f4ec1	-0.011676491
110	0xbd9263d0	-0.07147944
111	0x3e03af2d	0.12859793
112	0x3d039378	0.03212306
113	0x3cbb0772	0.022830699
114	0x3d040953	0.032235455
115	0xbdc50755	-0.09620539
116	0x3bad8e80	0.0052965283
117	0xbc5a2260	-0.01331386
118	0xbd27f184	-0.04100181
119	0xbe6e6f65	-0.23284681
120	0x3d5c10b6	0.053726874
121	0xbb8417f0	-0.004031174
122	0x3d8dcf95	0.06924359
123	0xbde1ef3d	-0.11031959
124	0x3dc9a45b	0.098458014
125	0xbd58fb35	-0.052973945
126	0xbdaf5f87	-0.08563142
127	0x3cc0e04d	0.023544455
128	0x3d470656	0.048590027
129	0x3d2a18f1	0.041527692
130	0x3be95dbb	0.0071217692
131	0x3b89f823	0.0042104884
132	0xbe0c3c91	-0.13694979
133	0x3dda1662	0.106488004
134	0x3d8c0256	0.06836383
135	0x3e0635fd	0.13106532
136	0x3e4fb24d	0.2028286
137	0x3d013ba5	0.031551022
138	0xbdaf15c1	-0.08549071
139	0x3d66b28a	0.056322612
140	0xbbc29c30	-0.005939029
141	0xbe2f8b17	-0.17142902
142	0x3e054365	0.1301399
143	0xbe63e39d	-0.22254796
144	0xbd33bb78	-0.043879956
145	0x3c494b09	0.012285956
146	0xbd44923c	-0.047991022
147	0x3bc0086a	0.005860378
148	0x3c1fd12d	0.009754461
149	0xbe3a1d2d	-0.18175192
150	0x3dee9854	0.11650148
151	0xbe6631a3	-0.22479872
152	0xbdb424d8	-0.0879609
153	0xbc6fa094	-0.014625687
154	0x3d211da4	0.039334908
155	0x3ceb170b	0.028697511
156	0x3e13ab00	0.144207
157	0x3c5fefe5	0.013668035
158	0x3c81ad00	0.015829563
159	0x3c3368de	0.010950295
160	0xbd827fdb	-0.06372043
161	0x3d50d619	0.05098543
162	0x3e6021c1	0.21887876
163	0xbd112359	-0.0354341
164	0x3e038278	0.12842739
165	0xbd1419d0	-0.03615743
166	0x3ce089a5	0.027409384
167	0x3d195bfe	0.037441246
168	0x3dd641d2	0.10461773
169	0x3c7d48e0	0.015459269
170	0x3da36fac	0.07980284
171	0x3d8e67b5	0.06953374
172	0x3e3c73f1	0.18403603
173	0xbcdc4f4b	-0.026893279
174	0xbc432ecf	-0.0119130155
175	0x3d03003a	0.031982638
176	0xbdc2afcb	-0.09506186
177	0x3cd3d1c0	0.025856853
178	0xbb2dd4cc	-0.0026524542
179	0xbd996401	-0.07489777
180	0x3d596aba	0.053080298
181	0x3ddf9f6c	0.10919079
182	0xbc28fb23	-0.010313782
183	0x3e3b8a83	0.18314557
184	0x3dabacd3	0.08382573
185	0x3cfbfb9f	0.03075963
186	0x3d7cd5dd	0.061727393
187	0x3cf6f16b	0.030144414
188	0x3e012bb3	0.12614326
189	0x3da4d5c0	0.08048582
190	0x3e3acfcc	0.1824333
191	0x3b06e54d	0.0020583451
192	0xbc358e53	-0.011081296
193	0x3e2d4366	0.16920242
194	0xbb12fedf	-0.0022429747
195	0x3d34819d	0.04406892
196	0x3b823875	0.0039740154
197	0x3d097352	0.033557244
198	0xbd1ae79b	-0.037818532
199	0xbdd339f0	-0.10313785
200	0x3e069dcd	0.13146134
201	0xbdb933a5	-0.090430535
202	0xbd88c6c3	-0.06678536
203	0xbdd78c7b	-0.105248414
204	0x3e0da5be	0.13832757
205	0x3cf928b1	0.030414911
206	0xbde6e88f	-0.11274826
207	0xbe2123e8	-0.15736353
208	0xbd79b7b0	-0.060966194
209	0xbd796d1e	-0.060895078
210	0x3dd4c003	0.10388186
211	0xbc8b8046	-0.017028939
212	0x3dbc10a2	0.0918286
213	0xbd2c0b98	-0.042003244
214	0x3d067443	0.03282572
215	0x3e031eda	0.12804738
216	0xbd757d8d	-0.059934188
217	0xbdbdbe8d	-0.0926486
218	0xbe3b14e2	-0.18269685
219	0x3d42922c	0.04750268
220	0x3e4e3dfb	0.20140831
221	0x3e2bd7ad	0.16781493
222	0xbc4ab0af	-0.012371226
223	0x3cc6d4b6	0.02427135
224	0x3d9f76a7	0.07786303
225	0xbd462124	-0.04837145
226	0x3ebaa5e9	0.36454704
227	0xbd462814	-0.048378065
228	0x3d505c91	0.05086953
229	0xbc7a7361	-0.015286298
230	0x3da8f2d4	0.08249441
231	0x3bd6322a	0.0065367417
232	0xbe4331d8	-0.19061983
233	0xbb84217c	-0.004032312
234	0x3c9a5be7	0.01884265
235	0x3cd6b796	0.026210587
236	0xbf237741	-0.6385384
237	0x3db2b3e1	0.087257154
238	0x3d96a69a	0.073559955
239	0xbb5f6429	-0.00340868
240	0xbdabe1cb	-0.08392676
241	0x3e243062	0.16034082
242	0x3e088238	0.13330925
243	0x3e7f3db5	0.24925883
244	0xbe3d7d90	-0.1850493
245	0xbdfe04a4	-0.12403229
246	0x3df0cc29	0.117576905
247	0xbdbf123f	-0.09329652
248	0x3e414646	0.18874463
249	0x3c94f48a	0.018183012
250	0x3d828c89	0.06374461
251	0xbd07136e	-0.032977514
252	0xbeea662c	-0.45781076
253	0xbd04c1a1	-0.03241122
254	0xbd96466b	-0.0733765
255	0x3cc8750e	0.024469879

action.2.bias f4 [64]
0	0xbdfd0b8c	-0.12355718
1	0xbd808680	-0.06275654
2	0xbe22ed6f	-0.15910886
3	0x3e2ee565	0.17079695
4	0xbdf820f3	-0.121156596
5	0x3e165a7d	0.14682956
6	0x3dd26b55	0.10274378
7	0xbdb09159	-0.08621473
8	0xbe4180d7	-0.18896805
9	0x3e176e2f	0.14788125
10	0xbd74410a	-0.05963234
11	0xbe075248	-0.13214982
12	0x3e590d69	0.21196522
13	0x3e50d17f	0.20392416
14	0x3e5466bd	0.20742317
15	0xbe0b512b	-0.13605182
16	0x3e3ec292	0.1862891
17	0xbbeb74ae	-0.00718554
18	0x3e015630	0.12630534
19	0xbdd4cfac	-0.10391173
20	0xbdb02ebb	-0.08602663
21	0xbd6e9f2a	-0.05825726
22	0x3dc7d6ea	0.097577885
23	0x3dee9631	0.116497405
24	0x3d887d55	0.0666453
25	0x3e125c16	0.1429294
26	0x3d8e4413	0.06946578
27	0xbdc14bff	-0.09438323
28	0xbd3bf965	-0.045892138
29	0x3e2dcb98	0.16972196
30	0xbe4ff73f	-0.2030916
31	0x3d9cb32f	0.07651364
32	0x3d753b96	0.05987128
33	0xbd6964e5	-0.056980986
34	0xbd5f4652	-0.054510422
35	0xbc32ad14	-0.010905523
36	0x3d7014ce	0.05861359
37	0xbca8cb19	-0.020604657
38	0xbe0cda0e	-0.13755056
39	0x3e47b866	0.19503936
40	0xbd6098df	-0.05483329
41	0xbe39627d	-0.18103977
42	0xbbd50928	-0.0065013357
43	0xbde0fe66	-0.10986023
44	0xbdb03fcc	-0.08605918
45	0xbdece5e0	-0.11567283
46	0x3cc8a0db	0.024490764
47	0xbdd045af	-0.10169541
48	0xbe10c776	-0.14138588
49	0xbc8919c6	-0.016735923
50	0xbde05c44	-0.10955098
51	0xbdd83147	-0.10556274
52	0xbe01e958	-0.1268667
53	0xbe28369f	-0.16427086
54	0xbd870e22	-0.065944925
55	0xbe05b13c	-0.13055891
56	0xbdc8c634	-0.09803429
57	0xbd80cce4	-0.0628908
58	0x3b7ed50a	0.0038884305
59	0x3e16b017	0.1471561
60	0xbab023fd	-0.001343846
61	0x3cce1838	0.025158033
62	0x3e052fbc	0.1300649
63	0xbdab4bde	-0.0836408

action.4.weight f4 [11, 64]
0	0xbd54abe7	-0.05192175
1	0xbdf040fd	-0.117311455
2	0x3d044b24	0.032298222
3	0x3db3be78	0.087765634
4	0x3d924296	0.071416065
5	0x3e1869ba	0.14884081
6	0x3da32f8d	0.07968054
7	0x3c8da6a1	0.017291369
8	0x3d56e2ee	0.05246251
9	0x3e085aab	0.13315837
10	0xbca71a69	-0.020398336
11	0x3c6aaddb	0.014323677
12	0x3dff1116	0.12454431
13	0x3e7c2912	0.24625042
14	0x3e1bacf1	0.1520269
15	0x3cdb9df8	0.026808724
16	0xbbdd897f	-0.0067607756
17	0x3e3a83fd	0.18214412
18	0x3e7003d3	0.23438959
19	0xbe0eee64	-0.13958126
20	0x3d5729e2	0.052530177
21	0xbe002597	-0.1251434
22	0x3e3dfe3b	0.18554012
23	0x3ce44079	0.027862774
24	0xbd75c996	-0.0600067
25	0x3e6ac076	0.2292498
26	0x3d948e27	0.07253676
27	0xbcfaf582	-0.030634645
28	0xbe709d79	-0.23497571
29	0x3c22d963	0.009939524
30	0xbcaaf803	-0.020870214
31	0x3d3269c7	0.04355791
32	0x3bbdd3bb	0.0057930625
33	0xbd7b10de	-0.061295383
34	0xbc9fe473	-0.019518113
35	0x3e070f06	0.13189325
36	0x3c4446e4	0.011979792
37	0x3def0085	0.11670021
38	0x3dac8522	0.084238306
39	0x3e81a7ca	0.25323325
40	0xbd1daafe	-0.03849315
41	0x3c730e06	0.014834886
42	0xbd0eceab	-0.034865063
43	0x3d348c77	0.04407927
44	0xbe00685e	-0.12539813
45	0x3ced4654	0.0289642
46	0xbbef919d	-0.0073110596
47	0x3de045a8	0.10950786
48	0x3cd8ea5b	0.026478937
49	0x3d9f605f	0.07782053
50	0x3e048e01	0.12944795
51	0x3c70a622	0.014688047
52	0xbd063533	-0.03276558
53	0x3a1484e9	0.0005665557
54	0x3dc613c8	0.09671742
55	0x3ceea3c9	0.029130833
56	0x3d31159a	0.04323349
57	0x3da8a76d	0.08235059
58	0xbe3f384f	-0.18673824
59	0x3c98ae92	0.01863793
60	0xbcdd95bd	-0.02704894
61	0x3ce03c0f	0.027372388
62	0x3e581430	0.21101451
63	0xbd32a3c9	-0.04361323
64	0xbe360c6a	-0.17778173
65	0x3d16a399	0.036777113
66	0xbde910ad	-0.11380134
67	0x3dc11d37	0.094294004
68	0xbe4ec25d	-0.20191331
69	0xbd492c21	-0.04911435
70	0x3d603102	0.054734237
71	0x3c2b48cb	0.010454367
72	0xbe5e9601	-0.2173691
73	0x3c62a4c9	0.013833233
74	0x3db00fa1	0.08596731
75	0x3cce7f08	0.025207058
76	0x3e1e5e6e	0.1546571
77	0x3d993bbf	0.07482099
78	0x3d28f321	0.04124749
79	0x3d3e3c0d	0.046443988
80	0x3d84cc56	0.064842865
81	0xbcda3d2d	-0.026640499
82	0x3e028ff1	0.12750222
83	0x3dc9d3c8	0.09854847
84	0x3d497f6b	0.04919378
85	0x3d5a054c	0.053227708
86	0x3dde6e62	0.108608976
87	0x3dcef88c	0.10106
88	0x3dac0fbd	0.08401439
89	0x3d980049	0.074219294
90	0x3d9f4ecc	0.07778701
91	0x3d21ce47	0.039503362
92	0xbdcfae0a	-0.10140617
93	0x3d8aa8bc	0.06770465
94	0xbe2a4dd6	-0.16631255
95	0xbddd62a5	-0.108098306
96	0xbe3ec395	-0.18629296
97	0xbe7d0f8e	-0.24712965
98	0xbe131c5b	-0.14366286
99	0xbb26d8e3	-0.0025458864
100	0xbc882367	-0.016618444
101	0xbe199a21	-0.15000202
102	0xbd8f4770	-0.069960475
103	0x3e231866	0.15927276
104	0x3da882ac	0.08228049
105	0xbe5ba58a	-0.21449867
106	0xbd7017c0	-0.0586164
107	0xbd5b8e85	-0.053602714
108	0x3cfa5a2c	0.030560575
109	0xbd04fe6e	-0.032469206
110	0xbdb9dfec	-0.09075913
111	0xbc39cc8c	-0.011340272
112	0xbdf094b7	-0.11747115
113	0xbd8939a6	-0.06700449
114	0xbd0173bb	-0.03160451
115	0x3d055255	0.03254922
116	0xbdd1db81	-0.10246945
117	0xbd39f141	-0.045396093
118	0xbbe543a2	-0.006996588
119	0xbde1a4f1	-0.11017788
120	0xbbd95902	-0.006632925
121	0xbd874c04	-0.06606296
122	0x3d9bf226	0.076145455
123	0x3b7fed81	0.0039051475
124	0x3d982b05	0.0743008
125	0x3d1d6275	0.038423974
126	0x3d668d55	0.05628713
127	0x3d750249	0.059816632
128	0x3d3c7096	0.046005808
129	0x3c631fc5	0.013862555
130	0xbd36fe0c	-0.04467587
131	0x3d722f6a	0.05912725
132	0xbe71e7dc	-0.23623604
133	0xbd5b6e50	-0.053572
134	0x3d637e70	0.055540502
135	0x3b7eb836	0.0038867122
136	0xbe3d78b2	-0.18503073
137	0x3c4b9611	0.012425915
138	0x3dad5ae9	0.08464605
139	0xbd920149	-0.071291514
140	0x3d9b5a3c	0.0758557
141	0x3dedeae1	0.11617065
142	0x3dca8df1	0.098903544
143	0xbc001fc2	-0.007820072
144	0x3e4388f5	0.19095214
145	0xbde876d9	-0.113507934
146	0x3d65bbaa	0.056087174
147	0xbd9789fd	-0.07399366
148	0x3d67da9a	0.05660496
149	0xbc7dbf48	-0.0154875
150	0x3de32eb9	0.11092896
151	0x3de385d6	0.111095116
152	0xbdddf52f	-0.10837781
153	0x3c95bf0a	0.018279571
154	0xbda35208	-0.079746306
155	0x3c2257b9	0.00990861
156	0xbddc6e4e	-0.107632264
157	0x3e7392ae	0.23786423
158	0xbe203f25	-0.15649088
159	0x3d140b20	0.036143422
160	0xbe7cf742	-0.24703696
161	0xbe6652ef	-0.22492574
162	0xbd6caebe	-0.057783835
163	0xbd3bd89d	-0.045860875
164	0xbc4197bc	-0.011815961
165	0xbd2321b3	-0.03982706
166	0x3ce87f8d	0.028381133
167	0x3c8fe153	0.017563498
168	0x3cf781b4	0.030213214
169	0xbe14b2d1	-0.14521338
170	0x3c298768	0.010347225
171	0xbd31d332	-0.043414302
172	0x3dad90b3	0.08474865
173	0xbde9a776	-0.11408894
174	0x3d676509	0.05649284
175	0xbe2bc1c6	-0.16773137
176	0xbdcee2f2	-0.1010188
177	0xbd2baa20	-0.04191029
178	0xba951188	-0.0011373023
179	0x3d0c544e	0.034260087
180	0xbe0c3907	-0.13693629
181	0xbe2ac69f	-0.1667733
182	0xbd1de517	-0.038548555
183	0xbdb44ce6	-0.0880373
184	0xbe091892	-0.13388279
185	0xbda9c743	-0.08289959
186	0x3c85e124	0.016342707
187	0x3d0d44e7	0.03448954
188	0x3dafee6d	0.08590398
189	0xbdf751cf	-0.120761506
190	0x3cda0565	0.0266139
191	0x3dc02b1c	0.093832225
192	0x3d3f8a08	0.046762496
193	0xbce7c1c7	-0.028290642
194	0xbde8a080	-0.11358738
195	0x3b670372	0.0035249856
196	0xbcc1dd38	-0.023665056
197	0x3ca5e20e	0.020249393
198	0xbca8d02a	-0.020607073
199	0x3d87836c	0.066168636
200	0x3e11081e	0.14163253
201	0xbc315cad	-0.010825318
202	0x3d962887	0.07331949
203	0x3c2f020a	0.0106816385
204	0xbe0834eb	-0.13301437
205	0xbdde491a	-0.10853787
206	0xbe0175c7	-0.12642585
207	0x3d48d47b	0.049030762
208	0xbdde364c	-0.108502
209	0xbcfa3e53	-0.030547297
210	0xbddc921f	-0.10770058
211	0xbcec0806	-0.02881242
212	0x3dba33f4	0.090919405
213	0x3caf96a0	0.021434128
214	0xbcc937e8	-0.024562791
215	0xbddac994	-0.10682979
216	0x3c0b4164	0.008499477
217	0xbd56aa4b	-0.052408498
218	0x3c3dbaf0	0.011580214
219	0xbd6d8847	-0.057991292
220	0x3cb34972	0.021885607
221	0xbe435de6	-0.19078788
222	0x3d7261b2	0.0591752
223	0x3c0d17a8	0.008611597
224	0x3df74606	0.12073903
225	0xbcdf2ba2	-0.027242485
226	0xbdb35d48	-0.08758026
227	0x3e618df1	0.22026803
228	0x3d1935a1	0.03740466
229	0x3cad2e66	0.021140289
230	0xbcb7135d	-0.0223481
231	0xbd41642e	-0.04721468
232	0x3d5d4562	0.054021247
233	0x3d66b2c8	0.056322843
234	0xbdb7fdcf	-0.08983957
235	0x3cb42529	0.021990376
236	0x3da6241f	0.08112358
237	0xbdd508c0	-0.104020596
238	0x3ab1ea86	0.0013573922
239	0x3d9b0a61	0.07570339
240	0x3d77855b	0.060429912
241	0x3cba4a79	0.02274059
242	0xbd0b96b3	-0.034079265
243	0x3d5fe256	0.05465921
244	0x3d04dd14	0.0324374
245	0x3d1de3d1	0.03854734
246	0xbdb895e6	-0.09012966
247	0x3cc4b5fb	0.024012556
248	0x3d19db6f	0.037562784
249	0xbe04b9e5	-0.12961538
250	0x3d0fd9c9	0.035119805
251	0x3c2902d1	0.010315613
252	0xbd423a98	-0.04741916
253	0x3d8d476a	0.06898387
254	0x3dca239a	0.09870072
255	0xbd71f5da	-0.059072353

action.4.bias f4 [11]
0	0x3c8eeaca	0.01744594
1	0x3dae5c31	0.08513678
2	0x3dc28bb8	0.094993055
3	0x3ba6362f	0.005072377
4	0xbcd69557	-0.026194258
5	0x3d255651	0.04036552
6	0xbbd16f76	-0.006391461
7	0xbdd9a4b9	-0.106271215
8	0xbe39c70e	-0.1814234
9	0xbe025845	-0.12728985
10	0xbd0febf5	-0.035137136

critc.0.weight f4 [64, 22]
0	0x3c278b2a	0.01022605
1	0xbe7e07bb	-0.24807636
2	0x3d5384f3	0.051640462
3	0x3d883c05	0.06652073
4	0x3e0a7f27	0.13525067
5	0xbe25cebe	-0.16192147
6	0xbe4e2a27	-0.20133267
7	0xbd321707	-0.04347899
8	0x3dd8e388	0.10590273
9	0xbd159824	-0.036522046
10	0xbdbae753	-0.09126153
11	0x3e103877	0.1408404
12	0xbe0c93fe	-0.1372833
13	0xbddaa62c	-0.10676226
14	0x3e566e2f	0.20940469
15	0xbd823e94	-0.06359592
16	0xbcd122c3	-0.025529271
17	0xbe49e310	-0.19715524
18	0xbe70f89d	-0.23532338
19	0xbdee25a2	-0.11628272
20	0x3eabae3e	0.33531374
21	0xbd9675b7	-0.07346671
22	0x3e05fcf2	0.13084772
23	0xbda990ec	-0.08279595
24	0xbe585151	-0.2112477
25	0xbdde09da	-0.10841723
26	0xbde29142	-0.11062862
27	0x3d959dba	0.073054746
28	0x3d70f9b7	0.058831897
29	0x3d5472fb	0.051867466
30	0xbd20519c	-0.03914033
31	0xbd076577	-0.03305575
32	0x3d1a139d	0.03761636
33	0xbe64b46b	-0.22334449
34	0xbdaff91a	-0.08592434
35	0xbd84f8fc	-0.064928025
36	0xbdcbb6a7	-0.099469475
37	0xbd6ec179	-0.05828998
38	0x3e3cc9ad	0.18436308
39	0x3ded1cea	0.115777805
40	0xbd6e4515	-0.05817135
41	0xbe956a9d	-0.29182902
42	0x3dd1250f	0.102121465
43	0xbe3b9d78	-0.18321788
44	0x3d302369	0.04300252
45	0x3f115abb	0.5677907
46	0xbed64a8c	-0.4185375
47	0xbf1b181e	-0.60583675
48	0xbee69c91	-0.45041326
49	0xbd3dd2a9	-0.04634348
50	0x3e070184	0.13184172
51	0xbd5c8b71	-0.05384392
52	0x3d5f4826	0.054512165
53	0x3d7eafaf	0.062179264
54	0x3d661ebc	0.056181654
55	0x3b660a55	0.0035101373
56	0xbd32691a	-0.043557264
57	0x3f1e0ac5	0.61735183
58	0xbf2431a6	-0.6413826
59	0xbf30df98	-0.69091177
60	0x3ed6510f	0.41858718
61	0xbe5bae67	-0.21453248
62	0x3f94d99c	1.1628909
63	0x3e0457cb	0.12924115
64	0xbe038140	-0.12842274
65	0xbfd69386	-1.676377
66	0x3cb9140d	0.022592569
67	0xbc9f6ce7	-0.019461108
68	0x3d6cdf5d	0.057830203
69	0xbe159c80	-0.14610481
70	0xbcf5a323	-0.029985016
71	0xbe4d5204	-0.20050818
72	0xbe0590ea	-0.13043562
73	0x3e19fb31	0.15037228
74	0xbdeb788e	-0.11497603
75	0x3c85a8e6	0.016315889
76	0xb9ecc9f3	-0.00045163892
77	0x3da2dfa4	0.07952812
78	0xbe154bce	-0.14579698
79	0xbdce8a9a	-0.1008503
80	0x3dfd6a94	0.12373844
81	0x3c1ac10d	0.009445441
82	0x3eae1031	0.33996728
83	0x3dbb8fbe	0.09158276
84	0xbda6cd31	-0.08144606
85	0xbe2d8a83	-0.1694737
86	0x3e726f28	0.23675215
87	0x3d9a8bc0	0.075461864
88	0xbe67d0a9	-0.22638191
89	0xbea2e8bb	-0.31818184
90	0x3e6fc788	0.23415959
91	0xbe070eb3	-0.13189201
92	0xbe0b4f38	-0.13604438
93	0xbe4da612	-0.20082882
94	0x3e48f937	0.19626318
95	0x3de7847a	0.11304565
96	0xbdaa363f	-0.08311128
97	0xbd232ec2	-0.039839514
98	0x3c9ad77b	0.018901577
99	0x3d8446e5	0.064588346
100	0x3e60ea91	0.2196448
101	0xbe0beab1	-0.13663746
102	0xbd5ddc58	-0.054165214
103	0xbdb12016	-0.08648698
104	0xbea8d11b	-0.32972035
105	0xbdc54882	-0.096329704
106	0xbddcc422	-0.10779597
107	0x3d0a4f57	0.03376707
108	0x3d786533	0.060643386
109	0xbdc0d43d	-0.09415481
110	0x3e226a6f	0.15860914
111	0x3e49a567	0.19692002
112	0xbe28f5b9	-0.16499986
113	0xbe5ad4f8	-0.21370304
114	0x3d4943fd	0.049137104
115	0xbe0b9d82	-0.13634303
116	0x3d202ce8	0.039105326
117	0x3db7edfa	0.08980937
118	0xbdc2b2cc	-0.09506759
119	0xbbb3733c	-0.0054763835
120	0x3d7cdb4c	0.061732575
121	0xbe11893a	-0.14212504
122	0xbcf8df81	-0.030380012
123	0x3d5ef8e6	0.054436587
124	0x3e6316f0	0.22176719
125	0xbe3ef4d9	-0.1864809
126	0x3e09706f	0.13421796
127	0x3e184f78	0.14874065
128	0x3d5edce2	0.05440987
129	0xbecff0b8	-0.4061334
130	0x3e63e5d4	0.22255641
131	0xbe152344	-0.14564234
132	0x3dc2da44	0.09514287
133	0xba60566e	-0.0008557801
134	0x3d85686e	0.06514059
135	0x3d9bcb5a	0.076071456
136	0x3e3d244d	0.18470879
137	0x3d98ff0a	0.0747052
138	0xbddba9ec	-0.107257694
139	0x3cd98597	0.026552958
140	0xbd813ab6	-0.06310026
141	0x3bae3609	0.0053165
142	0x3cfa9804	0.030590065
143	0x3dfb76cd	0.12278519
144	0xbe562202	-0.2091141
145	0xbe1dde09	-0.15416731
146	0x3e293dc5	0.1652747
147	0xbe5a3530	-0.21309352
148	0x3db4a28f	0.08820068
149	0xbdcd25eb	-0.10016998
150	0x3e12b932	0.14328459
151	0xbe67b18e	-0.22626325
152	0x3e966a52	0.2937799
153	0xbe0c26f5	-0.13686736
154	0xbd549a84	-0.05190517
155	0x3c8290a0	0.015938103
156	0x3e847c71	0.2587619
157	0x3e103ef6	0.14086518
158	0xbe1aa18d	-0.15100689
159	0xbde586ef	-0.11207377
160	0xbe24e5b3	-0.16103248
161	0xbc46bf2a	-0.012130538
162	0x3d8af9d7	0.067859344
163	0x3d766ced	0.060162473
164	0xbb1464fc	-0.00226432
165	0x3e87b745	0.2650701
166	0xbdb920e0	-0.090394735
167	0xbe2c85e6	-0.16847953
168	0x3db01c5c	0.08599159
169	0xbd75d701	-0.060019497
170	0x3e3855e8	0.1800152
171	0xbe12c62a	-0.14333406
172	0x3e1be0e3	0.15222506
173	0xbec95fb5	-0.3933083
174	0x3e6c746b	0.23091285
175	0xbe397636	-0.181115
176	0xbeb76788	-0.35821176
177	0x3cfff6fa	0.031245697
178	0x3d7c8279	0.061647866
179	0xbe249e61	-0.16076042
180	0xbd3efb91	-0.04662663
181	0x3e6de19a	0.23230591
182	0xbe7652b2	-0.24054983
183	0xbaee50ae	-0.0018182003
184	0xbd8cf1b9	-0.068820424
185	0xbb74f1bf	-0.0037375537
186	0xbd219f8e	-0.039458804
187	0x3e72d33d	0.23713394
188	0xbe9b82f6	-0.30373353
189	0xbcfa8dd4	-0.030585207
190	0xbe3067cd	-0.17227097
191	0xbef6c2b5	-0.48195425
192	0x3ec0d7a8	0.37664533
193	0x3dbc02d7	0.09180229
194	0x3c712e13	0.014720458
195	0x3ddae1db	0.1068761
196	0x3db4d805	0.08830265
197	0xbe35f6dc	-0.1776995
198	0xbd7be9e0	-0.061502337
199	0xbca72ff6	-0.020408612
200	0xbde4140f	-0.111366384
201	0xbd81cd79	-0.06338019
202	0xbe3bfca6	-0.18358096
203	0xbdbec790	-0.09315407
204	0xbc0413c1	-0.00806135
205	0xbc935c7d	-0.017988438
206	0x3c818572	0.015810702
207	0x3d4d2e5d	0.050093044
208	0x3da450f9	0.08023257
209	0xbe2c104d	-0.16803093
210	0xbe84dc63	-0.25949392
211	0x3dde31a6	0.108493134
212	0x3d0439fa	0.032281853
213	0x3d0f5a56	0.03499826
214	0xbe0b86fd	-0.13625713
215	0x3e14fc7c	0.1454944
216	0x3d15537f	0.03645658
217	0xbe09691b	-0.13419001
218	0x3dc1fc60	0.09471965
219	0xbe097e46	-0.13427076
220	0xbee6cf1a	-0.4507988
221	0x3f127a5c	0.57217956
222	0xbdcd20fc	-0.10016057
223	0x3ebc4219	0.36769179
224	0x3ea88cee	0.3292002
225	0x3ed6ed38	0.4197786
226	0x3e548747	0.20754729
227	0xbdef95ea	-0.11698516
228	0x3cc4e562	0.02403516
229	0xbd57d7d3	-0.05269606
230	0xbc081183	-0.008304956
231	0xbcb34b89	-0.021886604
232	0xbeccc31d	-0.3999261
233	0xbd18f486	-0.03734257
234	0xbe8e45df	-0.27787682
235	0xbbe5f4fc	-0.00701773
236	0xbe886bca	-0.26644737
237	0x3e1d4905	0.15359886
238	0x3e4a8062	0.19775537
239	0x3b85a848	0.0040788986
240	0x3e4b7e54	0.19872409
241	0xbdc96a48	-0.09834725
242	0xbe65ea62	-0.22452691
243	0x3de1e86f	0.11030661
244	0xbe8e049f	-0.277379
245	0xbe59043f	-0.21193026
246	0xbe3792af	-0.17927049
247	0x3e021d4d	0.1270649
248	0x3d0fed61	0.03513849
249	0xbda11ed3	-0.078672074
250	0x3d7b168c	0.0613008
251	0x3ce831f3	0.02834413
252	0x3a130de6	0.0005609676
253	0x3d84f87e	0.064927086
254	0xbf145a28	-0.5795007
255	0x3c942df8	0.018088326

critc.0.bias f4 [64]
0	0x3f3168a6	0.69300306
1	0x3f286369	0.6577669
2	0xbe65347d	-0.22383304
3	0x3ecf81e5	0.4052879
4	0xbe87cc49	-0.26523045
5	0x3ef50083	0.47851953
6	0x3f49df0c	0.7885597
7	0x3f011468	0.5042176
8	0xbea0f17b	-0.31434235
9	0x3f359a12	0.7093822
10	0xbe643967	-0.22287522
11	0x3eb17c74	0.34665263
12	0x3f51a49d	0.81891805
13	0x3e8eced1	0.27892163
14	0xbf03ed74	-0.515342
15	0x3cc94723	0.024570053
16	0x3f3ab1c0	0.72927475
17	0x3f090479	0.5352245
18	0x3f279685	0.6546405
19	0x3f31aa8f	0.69400877
20	0x3e7c0cd4	0.24614269
21	0x3f3e9577	0.74446815
22	0x3f3e655d	0.7437342
23	0x3f081694	0.5315945
24	0xbe774c63	-0.24150233
25	0xbe409278	-0.18805873
26	0x3f15dd9d	0.5854128
27	0x3f2010ae	0.6252545
28	0x3f2fcb41	0.68669516
29	0x3f128bc6	0.5724453
30	0x3e73701a	0.23773232
31	0x3f4ec39b	0.8076722
32	0x3f35c1b7	0.7099871
33	0x3ee55a9e	0.44795698
34	0xbf031bee	-0.5121449
35	0xbdc0420f	-0.093876
36	0x3f18eef6	0.59739625
37	0x3f37be57	0.7177481
38	0x3f350a48	0.7071881
39	0x3da3d876	0.08000271
40	0x3f19fe77	0.6015391
41	0x3f04698b	0.51723546
42	0xbe8b4085	-0.27197662
43	0xbec73b9d	-0.3891267
44	0xbe7e63ac	-0.2484271
45	0x3ef2a7e7	0.47393724
46	0x3efdb5ba	0.4955271
47	0xbe9f77ae	-0.31145996
48	0xbe806ec4	-0.25084507
49	0x3f279f66	0.654776
50	0x3f3a9c2d	0.72894555
51	0xbec4c3c0	-0.38430595
52	0x3f2471de	0.6423625
53	0x3ea3caa3	0.31990537
54	0x3dd404c2	0.1035247
55	0xbe44fa0d	-0.19236012
56	0xbd0af31e	-0.03392326
57	0xbec57941	-0.38569072
58	0x3e7f17d2	0.2491143
59	0x3f2990ac	0.66236377
60	0x3f1f1ce5	0.62153465
61	0x3f290348	0.6602063
62	0xbec441c6	-0.3833143
63	0x3f27b349	0.6550794

critc.2.weight f4 [64, 64]
0	0xbd9b0932	-0.07570113
1	0xbd9eda1a	-0.07756443
2	0x3dc90d44	0.09816983
3	0x3e0986d8	0.13430345
4	0x3d8b63d3	0.06806149
5	0x3cdff403	0.027338034
6	0x3d5f1f50	0.05447322
7	0x3d94d0a3	0.07266357
8	0xbd7c0f11	-0.061537806
9	0xbb0df58a	-0.0021661245
10	0xbda86041	-0.08221484
11	0x3d85fa9c	0.065419406
12	0xbe1991f5	-0.14997084
13	0x3a8729dc	0.0010312158
14	0x3e534d9f	0.20635079
15	0xbc651351	-0.013981656
16	0xbd92ab8e	-0.07161628
17	0xbc86cb95	-0.016454497
18	0xbe2dbbc1	-0.16966154
19	0x3de71c61	0.1128471
20	0xbac90c49	-0.0015338744
21	0xbe3adf86	-0.1824933
22	0x3de0017a	0.10937782
23	0x3d180d4f	0.037122067
24	0xbe0ef9f3	-0.13962536
25	0x3df83b2a	0.1212066
26	0x3db83480	0.089943886
27	0x3dd596fa	0.10429187
28	0xbde82909	-0.11335952
29	0xbda666aa	-0.0812505
30	0x3d91cd47	0.07119232
31	0x3da74a4c	0.08168468
32	0xbdb78346	-0.08960585
33	0x3d6f14fd	0.058369625
34	0xbd6e7fbe	-0.058227293
35	0x3e10ddaa	0.14147058
36	0x3c6fdc50	0.014639929
37	0xbc87d390	-0.016580373
38	0x3d42a7fc	0.047523484
39	0x3db0c96c	0.08632168
40	0xbd36624b	-0.044527333
41	0xbc43b7a8	-0.0119456425
42	0x3de82a36	0.11336176
43	0x3cde3dca	0.027129073
44	0xbe02a440	-0.12757969
45	0xbba8cff9	-0.0051517454
46	0xbc7cfa24	-0.015440498
47	0x3c433989	0.011915573
48	0xbc9b865b	-0.018984964
49	0xbdf9a726	-0.12190084
50	0x3d2794cd	0.04091339
51	0xbc7bc5e2	-0.015367003
52	0xbdce3b16	-0.100698635
53	0x3d30e3c1	0.043185953
54	0xbd02c06f	-0.0319218
55	0x3cf4ff72	0.029906962
56	0x3d7ff3f5	0.062488515
57	0x3e10189f	0.14071892
58	0x3cc400d2	0.023926172
59	0x3cb123fa	0.0216236
60	0xbdc1d1a8	-0.09463817
61	0xbe5c373d	-0.21505447
62	0xbd418a7f	-0.04725122
63	0x3b189407	0.002328159
64	0xbdf19f8e	-0.11798011
65	0xbd703114	-0.058640555
66	0x3d86f47f	0.06589603
67	0x3de28a7d	0.11061571
68	0xbc68f3b0	-0.014218256
69	0x3dc8065f	0.0976684
70	0xbaa069d9	-0.0012238576
71	0x3d616e55	0.05503686
72	0xbca1278c	-0.019672178
73	0x3c2fd3af	0.010731622
74	0x3dfef585	0.12449173
75	0xbd28511e	-0.041092984
76	0xbdb8c019	-0.09021015
77	0x3d8430f4	0.064546496
78	0x3d1767e8	0.036964327
79	0xbd390037	-0.04516622
80	0x3cb420cc	0.021988295
81	0x3d93c2ee	0.07214914
82	0xbdeccb5d	-0.11562226
83	0xbd52e165	-0.051484484
84	0x3ce87088	0.028373972
85	0x3d529f82	0.05142165
86	0xbd950be3	-0.07277658
87	0xbddbf077	-0.107392244
88	0xbdb56feb	-0.08859237
89	0xbd82774c	-0.0637041
90	0xbde118b8	-0.10991043
91	0x3b7022ca	0.003664183
92	0xbdb1aa07	-0.08675008
93	0xbd6fa0a5	-0.058502812
94	0xbdaadda6	-0.08343057
95	0xbd20f085	-0.039291877
96	0x3de909f9	0.11378855
97	0xbd59b097	-0.053146925
98	0xbd8339a4	-0.064074785
99	0xbd8fa9e9	-0.0701483
100	0xbb35f6d7	-0.0027765536
101	0xbe063f8d	-0.1311018
102	0x3c801800	0.015636444
103	0xbd50399f	-0.0508362
104	0xbd1a01d1	-0.03759939
105	0xbd0e3e94	-0.034727648
106	0x3d5e2c12	0.054241247
107	0xbe0a06f6	-0.13479218
108	0x3de65202	0.112461105
109	0xbd80cb8b	-0.06288823
110	0x3ddb5dde	0.10711263
111	0xbdf88b40	-0.12135935
112	0xbd800c22	-0.06252314
113	0xbdd5c687	-0.10438257
114	0xbd71c31a	-0.059023954
115	0x3d934ff4	0.07192984
116	0x3d949a07	0.07255941
117	0x3da656e6	0.08122043
118	0xbdcab90a	-0.09898575
119	0xbda3c5f6	-0.079967424
120	0xbd781a09	-0.060571704
121	0xbc385eb8	-0.011253051
122	0xbc807b3c	-0.015683763
123	0x3dc686a8	0.096936524
124	0x3d1ac850	0.03778869
125	0x3d9c6852	0.07637085
126	0x3d55b9db	0.0521792
127	0xbd872dc8	-0.06600529
128	0x3dc5467c	0.096325845
129	0x3c8b067b	0.016970864
130	0xbd14ab10	-0.03629595
131	0xbda8e1a7	-0.08246165
132	0x3dbe72a4	0.0929921
133	0xbdefa895	-0.11702076
134	0x3d3fb482	0.046803005
135	0xbdce3a7f	-0.10069751
136	0x3de9ab18	0.11409587
137	0xbdbb3355	-0.0914065
138	0xbe0113d6	-0.12605223
139	0xbcce2432	-0.025163744
140	0xb8bb82b7	-8.9412024e-05
141	0x3d5d7764	0.054068938
142	0xbda3d516	-0.07999627
143	0xbd121ad4	-0.035670117
144	0xbde01975	-0.109423555
145	0xbdb70865	-0.08937148
146	0x3da809f0	0.082050204
147	0x3b5b6ec4	0.003348277
148	0x3ca703b8	0.020387515
149	0xbd101437	-0.03517553
150	0x3d7ffb2b	0.06249539
151	0x3ca654c2	0.020304088
152	0x3ddd4540	0.10804224
153	0x3d7feef7	0.062483754
154	0x3d74361c	0.059621915
155	0xbdd7ff86	-0.10546784
156	0x3def2226	0.11676435
157	0xbdece795	-0.11567608
158	0x3abf5de3	0.0014600124
159	0x3c39a57d	0.011330959
160	0x3d5aba67	0.053400423
161	0x3cbf4d12	0.02335218
162	0xbde11556	-0.10990398
163	0x3dd48bb6	0.1037821
164	0xbd0f9340	-0.035052538
165	0x3c2fe0f8	0.010734789
166	0x3d2aafff	0.04167175
167	0xbcbb7ed3	-0.022887623
168	0xbd6fc2d4	-0.058535412
169	0xbca7cb2e	-0.020482626
170	0xbdcefc90	-0.10106766
171	0x3cef7f29	0.02923544
172	0x3d7f998c	0.062402293
173	0xbd79b1e9	-0.060960684
174	0xbdd9e579	-0.106394716
175	0x3d1fdf9e	0.039031617
176	0x3d4e3ccf	0.05035096
177	0x3d83b3b6	0.064307615
178	0xbde6fc82	-0.11278631
179	0x3ccea8f0	0.02522704
180	0xbde2ab49	-0.11067826
181	0xbda45856	-0.08024661
182	0x3d6d99b3	0.058007907
183	0xbd6fc307	-0.058535602
184	0x3c986810	0.018604308
185	0xbcdb52e5	-0.026772926
186	0xbcd736e8	-0.026271299
187	0xbb7f649a	-0.0038969875
188	0x3dcd434d	0.10022602
189	0xbdcd3b6a	-0.10021098
190	0xbd8c8bd8	-0.068626106
191	0xbc3fd509	-0.011708506
192	0xbdd090fb	-0.10183903
193	0xbc99fb2e	-0.01879653
194	0x3dd5fe1c	0.10448858
195	0xb7fff5b5	-3.0512785e-05
196	0xbc38688d	-0.011255396
197	0x3c71178d	0.014715088
198	0xbd0b2db3	-0.03397913
199	0x3e099e9e	0.13439414
200	0xbcf59dee	-0.029982533
201	0x3df66ae6	0.12032108
202	0xbda8f319	-0.08249492
203	0xbdebb8e9	-0.11509878
204	0x3dc8f609	0.098125525
205	0x3dca0dad	0.0986589
206	0x3dd555f1	0.10416783
207	0xbddcc9c2	-0.1078067
208	0xbe0d3b33	-0.13792114
209	0xbe821b4c	-0.2541145
210	0xbd9190e0	-0.07107711
211	0xbdfc1412	-0.123085156
212	0x3b7daeba	0.0038708881
213	0xbe83a7a6	-0.25713843
214	0x3d319eb3	0.043364238
215	0x3de72604	0.11286548
216	0x3ced5c95	0.02897481
217	0xbd4517ef	-0.048118528
218	0x3e02f694	0.12789375
219	0x3c370fdc	0.011173215
220	0xbd895147	-0.067049555
221	0xbe7b768b	-0.2455694
222	0xbc54ee44	-0.01299626
223	0xbdaebc65	-0.08532027
224	0x3cba5862	0.022747222
225	0xbe6020a7	-0.21887456
226	0x3e6124e7	0.21986733
227	0x3e26eec4	0.1630202
228	0xbc33a10a	-0.010963688
229	0xbe1d297e	-0.1534786
230	0xbe35bf7d	-0.17748828
231	0xbddcd50c	-0.10782823
232	0xbbc86df6	-0.006116624
233	0x3dc1f1b2	0.09469928
234	0xbdce6ea0	-0.10079694
235	0x3c9fbfe4	0.01950068
236	0x3da35bb7	0.079764776
237	0x3d92785a	0.071518615
238	0xbd667cfb	-0.056271534
239	0xbd8796f2	-0.066205874
240	0x3e1fa6f7	0.15591036
241	0xbd3ec91c	-0.04657851
242	0xbe156a7c	-0.14591402
243	0xbd2ea6c0	-0.042639494
244	0xbe412b4e	-0.18864176
245	0x3be78770	0.007065706
246	0x3d9a7a47	0.07542854
247	0xbdccbb32	-0.09996642
248	0x3dd27fab	0.10278257
249	0xbd9b9d50	-0.07598364
250	0x3d08111e	0.03321945
251	0xbdd7967e	-0.10526751
252	0xbc53320e	-0.012890352
253	0xbe35ef0b	-0.17766969
254	0xbd27b94c	-0.040948197
255	0xbd1f462e	-0.038885288

critc.2.bias f4 [64]
0	0xbe57e57d	-0.21083637
1	0xbb69941d	-0.003564126
2	0xbe0c1214	-0.13678771
3	0x3b7d33ec	0.0038635684
4	0xbe95f04a	-0.29284889
5	0xbe1fe2d5	-0.15613873
6	0x3f367629	0.7127405
7	0x3f284311	0.65727335
8	0x3f285f59	0.6577049
9	0xbe00fb1f	-0.12595795
10	0x3f1fee67	0.6247315
11	0xbe0c9eaf	-0.13732408
12	0xbe6b1bec	-0.2295987
13	0xbb0110bb	-0.001969381
14	0xbc5cc291	-0.013474123
15	0xbe7bdadb	-0.24595205
16	0xbe5a3c1f	-0.21311997
17	0x3f21764e	0.63071144
18	0x3f12c89f	0.57337373
19	0xbdca2e0d	-0.09872065
20	0x3d8ccad1	0.06874622
21	0xbe00e5f9	-0.12587728
22	0x3f31e0b8	0.6948352
23	0xbe2f78f6	-0.17135987
24	0x3f2ed66d	0.6829594
25	0xbce867b3	-0.02836976
26	0x3f03229d	0.5122469
27	0xbe33e506	-0.17567834
28	0xbe6c0cbd	-0.23051734
29	0x3f0f6a8c	0.5602195
30	0xbe27bfec	-0.16381806
31	0xbd7a6aab	-0.061136883
32	0xbd687d2e	-0.056760006
33	0xbc8d2706	-0.017230522
34	0x3f241a41	0.6410256
35	0x3f1abc6c	0.6044376
36	0xbe2c8ade	-0.16849849
37	0x3f0ef1a7	0.5583748
38	0xbce4587d	-0.027874226
39	0xbd343dae	-0.044004135
40	0xbddaeaad	-0.10689292
41	0xbe9b32f2	-0.30312306
42	0x3f240941	0.6407662
43	0xbdf846e2	-0.12122895
44	0xbd9ef0b2	-0.07760753
45	0x3f1ff739	0.62486607
46	0xbc72d27f	-0.014820694
47	0x3f1ceca4	0.61298585
48	0x3d56f248	0.05247715
49	0x3f0211a2	0.50808156
50	0x3d5da829	0.05411545
51	0xbe7f43ce	-0.24928209
52	0x3c5e2eb8	0.013560943
53	0xbe5212a6	-0.20514926
54	0xbdaaa185	-0.08331589
55	0xbdbe162e	-0.09281574
56	0xbdacfbd6	-0.084464714
57	0xbdd64894	-0.10463062
58	0xbe02cd99	-0.12773742
59	0xbd3fd774	-0.04683633
60	0xbdcc0ffb	-0.099639855
61	0xbe83884b	-0.2568992
62	0xbd210e57	-0.039320316
63	0x3f182298	0.59427786

critc.4.weight f4 [1, 64]
0	0x3be1c07c	0.006889401
1	0x3ddf4042	0.10900928
2	0x385f1a75	5.3191983e-05
3	0x3d3a2ad2	0.045450993
4	0x3e694494	0.22780067
5	0x3e331172	0.17487124
6	0xbe9b6cb0	-0.3035636
7	0xbe98804f	-0.29785392
8	0xbea7faab	-0.32808432
9	0x3da178a8	0.078843415
10	0xbeca4566	-0.39506072
11	0xbc3b5243	-0.011433187
12	0x3d5a6b20	0.05332482
13	0xbb350550	-0.0027621575
14	0x3e6b6fc2	0.22991851
15	0x3cece7c9	0.028919118
16	0x3d56d02a	0.052444614
17	0xbeb5dd91	-0.35520604
18	0xbeadb38e	-0.33926052
19	0xbce0bd9c	-0.027434163
20	0xbd320db3	-0.043470096
21	0xbb73061e	-0.0037082504
22	0xbe8d81a1	-0.27637962
23	0x3e5f8b47	0.21830474
24	0xbea053d9	-0.3131397
25	0xbd879127	-0.066194825
26	0xbeb13443	-0.34610185
27	0x3d681ee0	0.05667007
28	0x3bcaeb3e	0.006192594
29	0xbeafa76f	-0.3430743
30	0x3e3e7826	0.1860052
31	0x3bec16d7	0.007204871
32	0x3d93ea1f	0.072223894
33	0x3e314272	0.17310503
34	0xbebe4c1f	-0.3716745
35	0xbeccb8b1	-0.39984658
36	0xbce5afc2	-0.02803791
37	0xbe937c6e	-0.2880587
38	0x3e21a98c	0.15787333
39	0xbb6981e8	-0.0035630409
40	0xbd9bf18f	-0.07614433
41	0x3b594a17	0.0033155733
42	0xbe9f239e	-0.3108186
43	0xbca6b0e0	-0.020348012
44	0xbd640acc	-0.05567436
45	0xbeb94eb8	-0.3619287
46	0x3c6eb71a	0.014570022
47	0xbeb1614a	-0.34644538
48	0xbe31b477	-0.17353998
49	0xbe9ca3c4	-0.30593693
50	0x3d909387	0.070593886
51	0xbb238ae7	-0.0024954618
52	0xbcb98348	-0.022645608
53	0xbb902664	-0.004399108
54	0x3c2485ae	0.010041637
55	0x3cd96cea	0.026541192
56	0xbd5b88c7	-0.053597238
57	0xbde96c7d	-0.113976456
58	0x3ad8de39	0.001654572
59	0xbce9c136	-0.028534513
60	0x3d9c9c5a	0.07647009
61	0x3b0abab8	0.0021168422
62	0x3ba9c64e	0.0051811105
63	0xbe94fc45	-0.29098716
